PressureToTask/finetune_opr_inv_v3.pt (torch, 504335 bytes, 16 tensors)

lstm.weight_ih_l0 f4 [356, 3]
0	0xc0be0bef	-5.9389567
1	0x40b19fb1	5.5507436
2	0xbef49e10	-0.47776842
3	0x3f50db31	0.8158446
4	0x3f0aad4f	0.541707
5	0xc08ade81	-4.339661
6	0x4004fc5c	2.0779028
7	0x3fc7d1bf	1.5610884
8	0xbf8437e7	-1.032956
9	0xbdd677af	-0.104720466
10	0x402fcd39	2.7469008
11	0xc088e577	-4.278011
12	0x3fe99616	1.8248928
13	0x3ee614e4	0.44937813
14	0xc02e15c2	-2.720078
15	0xc0ca0611	-6.3132405
16	0xbfe3b4ff	-1.7789611
17	0xc0d0ceac	-6.5252285
18	0xc03f49e3	-2.9888847
19	0xbfd9041e	-1.6954381
20	0xc0ad84d7	-5.422466
21	0xbdb19ca2	-0.086724535
22	0x3ec504ae	0.38480133
23	0xc0654730	-3.58247
24	0xbee706b2	-0.45122296
25	0xbe1200b8	-0.14258087
26	0xc08f7ec2	-4.4842234
27	0xc0c75c74	-6.230036
28	0xbe8f5efd	-0.28002158
29	0xc0a2ec8a	-5.0913744
30	0xbffba855	-1.9660746
31	0xbffaa429	-1.9581348
32	0xc07aff57	-3.9218347
33	0xbd74b47a	-0.05974243
34	0x3f25f399	0.64824826
35	0xc048b0ff	-3.135803
36	0x40800e70	4.0017624
37	0x410319e8	8.193825
38	0xc03cdda1	-2.9510272
39	0xbec76e59	-0.38951376
40	0x3f8ca63b	1.098823
41	0xc066fad3	-3.609059
42	0x40ad2c91	5.41169
43	0xc10217ef	-8.130843
44	0xc02e260b	-2.721072
45	0x3f9b075d	1.2111622
46	0xbeb0fddb	-0.34568676
47	0xc0779610	-3.868534
48	0xbf2fcd06	-0.68672216
49	0xbfa93617	-1.3219632
50	0xc07c7fbd	-3.9452965
51	0x40012a95	2.018224
52	0x40dc6139	6.886868
53	0xbf08e95b	-0.5348107
54	0xc01f6eeb	-2.491145
55	0xbf0945b2	-0.5362197
56	0xc0dc432c	-6.8831997
57	0xbf889f5e	-1.0673635
58	0xbfa3c7fb	-1.2795404
59	0xc0951bdf	-4.659652
60	0x3e9913f5	0.29898039
61	0xbeba2ae4	-0.36360848
62	0xc075e4b9	-3.8420851
63	0xbfa5368b	-1.290727
64	0x3fb13b93	1.3846306
65	0xc09b0433	-4.8442626
66	0xbed44dde	-0.41465658
67	0x3e3c7038	0.18402183
68	0xc08b1656	-4.3464766
69	0x3e182722	0.14858678
70	0xbf41412d	-0.75490075
71	0xc077ee54	-3.8739214
72	0xbe5b44ef	-0.21413015
73	0x3e9d11bc	0.30677593
74	0xc081e070	-4.058647
75	0xbe1bf6b4	-0.15230829
76	0xbf73b026	-0.95190656
77	0xc05bb0e6	-3.432672
78	0x3f69f3f2	0.91387856
79	0xbfd5f133	-1.6714233
80	0xc0829c22	-4.081559
81	0xbfb0d0b3	-1.381369
82	0xbff4a70e	-1.9113481
83	0xc103eb28	-8.244911
84	0x3ec4d5ba	0.3844431
85	0xbfa31dfd	-1.2743527
86	0xc088d1ef	-4.2756267
87	0xc02ac83e	-2.6684718
88	0xc042ad80	-3.0418396
89	0xc01ed7a6	-2.4819121
90	0xbf61fb30	-0.88273907
91	0x408a1940	4.3155823
92	0xc00bafcc	-2.1826048
93	0x3ee2a666	0.44267577
94	0x3f2d6efc	0.67747474
95	0xc05df487	-3.4680498
96	0x3f5f71df	0.8728313
97	0x3fca30f3	1.5796188
98	0xc0afe228	-5.496357
99	0xc0dab745	-6.834872
100	0xc03ad91d	-2.9195015
101	0xc010c602	-2.2620854
102	0xbeb45ef1	-0.35228685
103	0x3f929594	1.1451898
104	0xc0a77aba	-5.2337313
105	0xc03d7cb7	-2.960737
106	0xc0bfb4f5	-5.9908395
107	0xc02f8bdf	-2.742912
108	0xbdd52abf	-0.10408544
109	0xbfddbe99	-1.7323791
110	0xc07a3a42	-3.9098058
111	0x3ea153c8	0.31509233
112	0x3f51ceeb	0.81956357
113	0xc012a7b8	-2.2914867
114	0xbd42326f	-0.04741138
115	0xbec5c7ea	-0.38629085
116	0xc051b4fa	-3.276671
117	0xbffb6bae	-1.9642236
118	0x3e1af281	0.1513157
119	0xc0bfbabc	-5.9915447
120	0xc090e4fd	-4.5279527
121	0x408c8148	4.3907814
122	0xc02b73e3	-2.6789482
123	0xbee0b9c7	-0.43891737
124	0x3e1476fc	0.14498514
125	0xc040d869	-3.0132086
126	0xc0bf9512	-5.986947
127	0x3f460161	0.77345854
128	0xbfd06ee0	-1.6283836
129	0x40854c6c	4.165579
130	0x4071e501	3.7796023
131	0xc003ff83	-2.0624702
132	0xbfc2aede	-1.5209615
133	0x400bcf0c	2.1845121
134	0xbf3a7d23	-0.72847193
135	0x40b6f7b8	5.717739
136	0xc00dcc49	-2.2155936
137	0xc01b9533	-2.4309814
138	0x3f8ff48a	1.1246502
139	0x3e367e15	0.17821534
140	0xc1074689	-8.4547205
141	0xc0e31bdf	-7.097152
142	0x40c2f335	6.0921884
143	0xc04566a0	-3.0843887
144	0x3f065283	0.5246965
145	0x3f065fad	0.5248974
146	0xc05d0e85	-3.4540112
147	0xbe7f2634	-0.24916917
148	0x3f00d059	0.50317913
149	0xc07dd085	-3.965852
150	0xc05628b1	-3.3462336
151	0xbf33df0a	-0.70262206
152	0xc0ab3183	-5.349794
153	0x3cbb1e56	0.022841614
154	0x405f16c2	3.485764
155	0xbfe5f110	-1.7964191
156	0x3e77f8c3	0.24215989
157	0x4009a1e9	2.1505072
158	0xc081ea90	-4.059883
159	0xbe2dcd15	-0.16972764
160	0x3f555e6b	0.83347195
161	0xc097557d	-4.7291856
162	0xbf47592b	-0.77870435
163	0x3e955e9b	0.2917374
164	0xc04a0047	-3.156267
165	0xbf5f888d	-0.87317735
166	0xbe81df1a	-0.25365525
167	0xc0b7f6fd	-5.7489
168	0xbe1a8eea	-0.1509358
169	0xbf98f477	-1.1949605
170	0xc08e91ca	-4.4552965
171	0xbf03c752	-0.51476014
172	0x3ec7f972	0.390575
173	0xc0561b2a	-3.345408
174	0xbec1f22e	-0.3788008
175	0xbf0479cb	-0.5174834
176	0xc07f5f51	-3.9901927
177	0xc0bb2601	-5.848389
178	0x3f1822eb	0.5942828
179	0xc09526be	-4.6609793
180	0xbed01df0	-0.4064784
181	0x3f18945b	0.5960137
182	0xc0652bbe	-3.5807948
183	0xc00dbcd6	-2.2146506
184	0xbf944f5c	-1.1586719
185	0xc0a9be65	-5.3044915
186	0x406876de	3.632255
187	0x40a4f0af	5.1543803
188	0xc0200e3a	-2.5008683
189	0x405205f7	3.281614
190	0xbfd423ca	-1.6573422
191	0xbfa180db	-1.2617449
192	0xbf5b4ce5	-0.85664207
193	0xbede9aa0	-0.43477345
194	0xc04c8297	-3.1954706
195	0x40162a23	2.3463218
196	0xbf8d50d3	-1.104029
197	0xbf793a66	-0.97354734
198	0xc041ef07	-3.030214
199	0xc06907d1	-3.641102
200	0xbfbf7de5	-1.4960295
201	0xbf135d92	-0.5756465
202	0xbe553a03	-0.20822911
203	0xc0918806	-4.5478544
204	0x408f8b95	4.485789
205	0x402252b6	2.5362983
206	0xbf97a1c3	-1.1846241
207	0xbe1f3c4d	-0.15550347
208	0x40294f20	2.6454544
209	0xc0ba7278	-5.826473
210	0xc0e03a40	-7.0071106
211	0xbf8b34b0	-1.0875454
212	0xc004f342	-2.0773473
213	0x3f34c33d	0.7061041
214	0xc0032750	-2.0492744
215	0xbfbfea8b	-1.4993452
216	0xbff93ea0	-1.9472237
217	0xc0cda890	-6.4268265
218	0xc08e87fb	-4.454099
219	0xc038b58b	-2.8860805
220	0x4014970b	2.321719
221	0xbd024268	-0.03180161
222	0xbeeea08a	-0.46606857
223	0x40253c41	2.5818026
224	0xc10b8b6f	-8.721541
225	0xbfd7df77	-1.6865071
226	0x40999320	4.7992096
227	0xc0baaa78	-5.833309
228	0x3f06ad23	0.52607936
229	0x403746f0	2.8637047
230	0xc0b89947	-5.7687106
231	0x405d8e7c	3.4618216
232	0x3fc07dd4	1.50384
233	0xc0d17a2f	-6.546165
234	0x3ebe7094	0.37195265
235	0x3e93c31f	0.28859803
236	0xc04be510	-3.1858559
237	0xbf9f4910	-1.2444172
238	0x3fed62f5	1.8545824
239	0xc0adf158	-5.435711
240	0xc0b35217	-5.6037707
241	0x3f87845b	1.0587267
242	0xc0359d26	-2.8377166
243	0x3f92d429	1.1470996
244	0xc0dffa23	-6.9992843
245	0xbf581922	-0.8441335
246	0x3ecc3777	0.39886066
247	0x3f990666	1.1955078
248	0xc089ef0e	-4.3104315
249	0x3b2ac1c2	0.002605543
250	0xbe6888eb	-0.2270848
251	0xc0603191	-3.5030253
252	0xbde5fa17	-0.112293415
253	0x3e0a969e	0.13534018
254	0xc071d058	-3.7783413
255	0x3e88587a	0.26630002

lstm.weight_hh_l0 f4 [356, 89]
0	0xbda8d2aa	-0.08243306
1	0xbf87226d	-1.0557381
2	0x4087eec3	4.2478957
3	0xbdb415fa	-0.08793254
4	0xbfb105a6	-1.3829849
5	0xbf781a99	-0.96915585
6	0x3f82e45a	1.0225937
7	0x3f47c87a	0.7804028
8	0xbf086dcc	-0.53292537
9	0x3fe4f8e8	1.788846
10	0x3f6cb666	0.9246582
11	0x3ec61a39	0.3869188
12	0xc002e834	-2.0454226
13	0xbf04d3ae	-0.518855
14	0xbfb150d2	-1.3852789
15	0x3f38a539	0.7212711
16	0xbfb0f092	-1.3823416
17	0xbf24180d	-0.640992
18	0xbf9a73b4	-1.206656
19	0xbf6c3be5	-0.9227889
20	0xbf6c2056	-0.9223684
21	0x3de70fdd	0.112823226
22	0x3e16cea9	0.14727272
23	0x3fa648a6	1.299092
24	0x3ede6f5d	0.43444338
25	0x3e4d0de3	0.20024829
26	0x3bf1d7f9	0.0073804823
27	0xc0045b76	-2.0680823
28	0xbfb83a2a	-1.439275
29	0x4004ae5a	2.0731416
30	0xbd97aaa8	-0.07405597
31	0xbef0b86d	-0.47015706
32	0x3f0d9475	0.5530465
33	0x3fdbeb2c	1.7181144
34	0xbfa27958	-1.2693281
35	0xc03bf8dc	-2.9370642
36	0x3f9fc7dd	1.2482868
37	0xbc1405ce	-0.009034587
38	0xbdb6ca05	-0.08925251
39	0x3cf900b4	0.030395843
40	0xbffefe2f	-1.9921321
41	0xbdb60968	-0.08888513
42	0xbfd686e7	-1.6759919
43	0x40309c2c	2.759532
44	0xbe5e6726	-0.21719036
45	0x406276ba	3.5384965
46	0x3e3fc8d1	0.18728949
47	0xbfa67a16	-1.3006008
48	0xbe9860f4	-0.2976147
49	0xbf268125	-0.6504081
50	0x3f491f29	0.7856317
51	0x3d4e4846	0.050361894
52	0x3f2f9b71	0.6859656
53	0xbebcd558	-0.36881518
54	0xbf1f6ee1	-0.6227856
55	0x3f966127	1.1748399
56	0x3e634575	0.22194465
57	0xbef21640	-0.472826
58	0x3f5a1247	0.8518414
59	0xbf9f7d7c	-1.246017
60	0xbe58a699	-0.21157302
61	0x3e35bd25	0.17747934
62	0xc081b8da	-4.053815
63	0xbef09d2d	-0.46994916
64	0xbe83e5e0	-0.25761318
65	0xbf56449f	-0.8369846
66	0xbf383766	-0.7195953
67	0x3f16184a	0.5863081
68	0xbdcf54b2	-0.10123576
69	0xbf21958b	-0.6311881
70	0x3f638fd2	0.8889133
71	0x400fff1b	2.2499454
72	0x4056c279	3.3556197
73	0xbf24a009	-0.64306694
74	0xbfb1ef6c	-1.3901191
75	0x3fb410ea	1.4067662
76	0xbe1f684f	-0.15567134
77	0xbf9b7e7c	-1.2147975
78	0xbee0326c	-0.4378847
79	0xbe76b362	-0.24091867
80	0xc0142fa0	-2.3154068
81	0xc0baaf2e	-5.8338842
82	0x3f11306b	0.56714505
83	0xc0399fc3	-2.900376
84	0x3eac5364	0.33657372
85	0xc036a8a3	-2.8540428
86	0x3dfa4904	0.12220958
87	0xc02a4cd2	-2.6609387
88	0x3f768b1b	0.9630601
89	0xbe02ca0a	-0.12772384
90	0x39a61bef	0.000316828
91	0xbe137d2e	-0.14403221
92	0xbec7385e	-0.38910192
93	0x3ee92138	0.45533156
94	0x3e080088	0.13281453
95	0x3d191835	0.0373766
96	0x3cf0a9c4	0.029377826
97	0xbdea575f	-0.11442446
98	0x3dce234c	0.10065326
99	0x3eb388a3	0.35065183
100	0x3de76317	0.11298197
101	0xbf189104	-0.59596276
102	0x3cafab4e	0.02144399
103	0xbe5fcd9a	-0.21855775
104	0x3e06bca4	0.13157898
105	0x3ce65cac	0.028120361
106	0x3f2b5e5d	0.6694086
107	0xbd813d51	-0.06310523
108	0x3e2b8034	0.16748124
109	0xbd114e0d	-0.035474826
110	0xbd41cd0e	-0.047314696
111	0x3e2dae8a	0.16961113
112	0x3f7b0e62	0.9806882
113	0x3e0fc4c3	0.14039902
114	0xbd804255	-0.06262652
115	0x3d49d617	0.049276438
116	0x3de7ae54	0.11312547
117	0xbdc86a4c	-0.097858995
118	0x3f36eb25	0.7145255
119	0x3ed91bb4	0.42403948
120	0xbe28119a	-0.16412964
121	0xbcb86807	-0.022510542
122	0xbd18d6d9	-0.03731427
123	0x3dd63625	0.10459546
124	0xbf28911e	-0.6584643
125	0x3e38696e	0.18008968
126	0x3edbd06a	0.42932445
127	0xbd9c95d9	-0.07645769
128	0x3e2b2cfa	0.16716376
129	0xbcd04d4f	-0.025427489
130	0xbe1de191	-0.15418078
131	0xbe009088	-0.12555134
132	0xbf17c91a	-0.5929123
133	0x3f5696c8	0.83823824
134	0x3e8de46b	0.27713332
135	0xbdce527e	-0.10074328
136	0x3d3bb96e	0.045831136
137	0xbbb0f738	-0.0054005645
138	0xbe29b029	-0.16571106
139	0xbe701f66	-0.23449478
140	0xbeb3a4bf	-0.3508663
141	0xbdbfdb6a	-0.09368022
142	0x3da90d5f	0.082545035
143	0x3d881204	0.06644061
144	0x3d929d8d	0.07158957
145	0x3b40f3e7	0.0029442252
146	0xbc111a46	-0.008856362
147	0xbe3da19d	-0.18518682
148	0x3d95f121	0.07321382
149	0xbdd6e8c0	-0.10493612
150	0x3ed95cd7	0.42453644
151	0xbea43fb6	-0.32079858
152	0xbddce691	-0.107861646
153	0xbcf1a9a6	-0.02949984
154	0xbf07a007	-0.5297856
155	0xbf0fab6f	-0.5612096
156	0x3ca20ea1	0.019782366
157	0x3ee026a3	0.43779477
158	0x3c40fc37	0.011778883
159	0x3ec59d71	0.3859668
160	0x3f071ed9	0.52781445
161	0x3e299408	0.16560376
162	0xbe508e81	-0.20366861
163	0x3da55dbc	0.08074519
164	0xbd55a553	-0.05215962
165	0xbe5f6f8d	-0.21819897
166	0x3bbd28f7	0.0057727057
167	0x3d94797e	0.07249735
168	0x3d91a0de	0.07110761
169	0x3ed19296	0.4093215
170	0xbe4d7e0f	-0.20067619
171	0x3e976bd6	0.2957446
172	0xbe19a5a3	-0.15004592
173	0x3db6fecc	0.089353174
174	0xbeb8d557	-0.36100265
175	0x3d67ddc1	0.056607965
176	0xbe998882	-0.2998696
177	0x3dc86ba9	0.097861595
178	0x40004d13	2.0047042
179	0xbeea6784	-0.457821
180	0xbf333ba5	-0.70012885
181	0xbf074b35	-0.5284913
182	0x3f4d7a9d	0.8026522
183	0xbe0ba979	-0.13638867
184	0xbf3cf754	-0.7381489
185	0x3d15b8ac	0.03655307
186	0x3edbff19	0.42968062
187	0xc012f36f	-2.296108
188	0x3e285794	0.16439658
189	0xbb3fbb77	-0.0029256025
190	0xbfa45470	-1.2838268
191	0x3eaaa92c	0.33332193
192	0x3fc8c6b0	1.5685635
193	0xbeb58489	-0.3545268
194	0xbe04aecd	-0.12957306
195	0x3d0003e5	0.031253714
196	0x3de5cd54	0.11220804
197	0x3e90056a	0.2812913
198	0xbe361596	-0.17781672
199	0x3d3d79a7	0.046258595
200	0xbcbc9d0a	-0.0230241
201	0x3f44a095	0.7680753
202	0x3e35bd2e	0.17747948
203	0x3df5ef4c	0.12008533
204	0x3f1c79e6	0.611235
205	0x4057ee38	3.3739147
206	0x3d248ac5	0.040171403
207	0xbff4ed9f	-1.9135016
208	0x3f44d90e	0.768937
209	0x3e60f069	0.21966709
210	0x3e83986c	0.25702226
211	0x3b0d478c	0.0021557538
212	0x3fff1f48	1.9931421
213	0x40aaa854	5.333048
214	0xbefed9ea	-0.4977563
215	0xbf8f3eac	-1.1191001
216	0xbc7d4148	-0.015457459
217	0xbe90d9fb	-0.28291306
218	0x3f10f949	0.5663038
219	0x3e735275	0.23761924
220	0xc006d603	-2.1068122
221	0xbfe92c6d	-1.8216683
222	0x3efa3af3	0.488731
223	0x401f7b8c	2.4919157
224	0x3e106e52	0.14104584
225	0x3fbe4c71	1.4867078
226	0xbf00ca26	-0.50308454
227	0x3f0b8619	0.5450149
228	0x3e0560f5	0.13025267
229	0xbffb5ef4	-1.9638352
230	0xbf16f58f	-0.5896844
231	0x3eb5a9c8	0.35481095
232	0x3df41474	0.119179636
233	0xbe673f93	-0.22582845
234	0xbdb577ef	-0.08860766
235	0xbd728328	-0.05920711
236	0xbe193c08	-0.14964306
237	0xbe6ac64d	-0.22927208
238	0x3eb0480d	0.3442997
239	0xbe62f1b1	-0.2216251
240	0xbfd8dce4	-1.694241
241	0x3f8a8040	1.0820389
242	0x3eb14165	0.34620205
243	0x3fe7e28a	1.8116009
244	0x3fa5f2b5	1.2964693
245	0x3e6e6cbd	0.23283668
246	0xbf314bca	-0.6925627
247	0xbf976b67	-1.1829652
248	0x3c8d3b06	0.017240059
249	0x3fd17153	1.6362709
250	0xbefd30f6	-0.49451417
251	0xc0302b05	-2.7526257
252	0xbfdde6f2	-1.7336104
253	0xbf379cd3	-0.7172367
254	0x3f0a8fd3	0.5412571
255	0xbf5e2839	-0.86780125

lstm.bias_ih_l0 f4 [356]
0	0x3f64a998	0.8932128
1	0xc06283e2	-3.5392995
2	0xbf80726e	-1.0034921
3	0xc0826923	-4.075334
4	0xbfbff134	-1.4995484
5	0xbffaf5b4	-1.9606233
6	0xc038a083	-2.8847969
7	0xc06f91ce	-3.7432742
8	0xc0792f48	-3.8935108
9	0xbfbd63dd	-1.4796101
10	0xbff0ecdc	-1.8822284
11	0xc07f4f08	-3.9891987
12	0xbed869f0	-0.42268324
13	0xc0780b2d	-3.875682
14	0xbf65ddbc	-0.89791465
15	0xc0639f85	-3.5566113
16	0xc055287d	-3.3305962
17	0x3e9d4860	0.3071928
18	0xc071f9b0	-3.7808647
19	0xc02d6b48	-2.709673
20	0xc0743d31	-3.8162348
21	0xc055ed51	-3.3426096
22	0xc04b9463	-3.1809318
23	0xbe349dfe	-0.17638394
24	0xc06ee1af	-3.7325246
25	0xc06c822f	-3.6954458
26	0xc06606a8	-3.5941563
27	0xbfaa64fb	-1.3312067
28	0xc05051dc	-3.2549963
29	0xbf8aaede	-1.0834615
30	0xbf89ad47	-1.0756005
31	0xc076fcb1	-3.859173
32	0xc0550619	-3.3284972
33	0xbf1c2ba1	-0.6100407
34	0xc05247a2	-3.2856221
35	0xbf3deb30	-0.7418699
36	0xc0667778	-3.6010418
37	0xc0405c98	-3.0056515
38	0xc0801bc2	-4.0033884
39	0xc03f08b0	-2.9849052
40	0xbfabe8d4	-1.3430429
41	0xc07f2d8e	-3.9871554
42	0xbf3b8559	-0.7325035
43	0xbf58bec4	-0.84666085
44	0xbf362b69	-0.7115999
45	0xbed12176	-0.4084584
46	0xc012b21e	-2.2921214
47	0xbe45b2b9	-0.19306459
48	0xc06b0531	-3.6721919
49	0xc074f11d	-3.8272164
50	0xc0419a90	-3.0250587
51	0xbf40cb1e	-0.7530993
52	0xc060a0f7	-3.5098245
53	0xc075ad8e	-3.838718
54	0xc07c4528	-3.941721
55	0xc04d2af8	-3.2057476
56	0xc069d9f5	-3.653928
57	0xc07f1cac	-3.986125
58	0xc054206d	-3.314479
59	0xc011249f	-2.2678602
60	0xc07330d3	-3.799855
61	0xc03b480e	-2.9262729
62	0xbf365131	-0.7121764
63	0xbf9f87cc	-1.2463317
64	0xc0722362	-3.7834096
65	0xbe84d5c6	-0.25944346
66	0xbef64d66	-0.48105925
67	0xc06488f4	-3.570859
68	0xbf5636d6	-0.83677423
69	0xc0327b06	-2.7887588
70	0xbf8636a7	-1.0485429
71	0xbf786955	-0.97035724
72	0xbf7dc6ad	-0.9913128
73	0xbf9f3b58	-1.2439985
74	0xbfef0913	-1.8674644
75	0xc0122312	-2.2833905
76	0xc05f804b	-3.4922054
77	0xc04f825f	-3.2423322
78	0xc06d90f9	-3.7119734
79	0xc0562176	-3.3457923
80	0xbfc71975	-1.5554644
81	0xbf98e75d	-1.1945606
82	0xc084bd7d	-4.148131
83	0xbf0c782e	-0.5487088
84	0xc0769fed	-3.853511
85	0xbf2eeaec	-0.6832721
86	0xc072040e	-3.7814975
87	0xbf604f8d	-0.87621385
88	0xc05c6138	-3.4434338
89	0xbe162812	-0.14663723
90	0xbfaca5b0	-1.3488064
91	0xbcfdc5e4	-0.03097815
92	0xbfb554ef	-1.4166545
93	0xbe1f50bf	-0.15558146
94	0xc06866f2	-3.6312833
95	0xbffe246e	-1.9854867
96	0xbfb0327f	-1.376541
97	0xbfbdb52e	-1.4820917
98	0xc03d7a75	-2.9605992
99	0xbf67db42	-0.90568936
100	0xbfe0a06d	-1.7548958
101	0xbf8e446e	-1.1114633
102	0xbff8a75f	-1.9426078
103	0xbee318e5	-0.4435493
104	0xbfc90e3d	-1.570747
105	0xbf93bae9	-1.1541415
106	0x3d996d44	0.07491544
107	0xc0098757	-2.1488855
108	0xc003f785	-2.0619824
109	0xbfa36b44	-1.276711
110	0xc0098255	-2.1485798
111	0xbfa7736d	-1.30821
112	0xbfda7450	-1.7066746
113	0xc013fda9	-2.3123572
114	0xbfd6c526	-1.6778915
115	0xbf1f829a	-0.6230866
116	0xc04fe2a3	-3.2482078
117	0xbf570ad5	-0.84000903
118	0x3e46b048	0.19403183
119	0x3e5dfb04	0.21677786
120	0xc00dd66d	-2.2162125
121	0xbfc30d02	-1.5238345
122	0xbe5c65ef	-0.2152326
123	0xbfcf5451	-1.6197606
124	0xbd762870	-0.060097158
125	0xbe1e5168	-0.15460742
126	0xbfa2134d	-1.266214
127	0xbfed611c	-1.854526
128	0xc01728f6	-2.361875
129	0xc0528f2f	-3.2899892
130	0xbfda8bf9	-1.7073966
131	0x3e4bcbf7	0.19902025
132	0x408e0454	4.4380283
133	0xbf442779	-0.7662273
134	0x3f020fc5	0.5080531
135	0xc017a427	-2.369394
136	0xc08acc57	-4.337444
137	0xbfd691ba	-1.6763222
138	0xc00f16d4	-2.2357683
139	0xc020b3e7	-2.5109804
140	0x3ebf673e	0.37383455
141	0xc0109cb4	-2.2595644
142	0xbebbc60f	-0.36674544
143	0xbfeb0a3a	-1.8362496
144	0xbfa7845e	-1.308727
145	0xbff981de	-1.9492757
146	0xbfeb5274	-1.8384538
147	0xc0031e4b	-2.048724
148	0x3ef428e4	0.47687447
149	0xc00e732f	-2.2257802
150	0xbff874bc	-1.9410625
151	0x3d26ca2c	0.04072015
152	0x3e65e965	0.22452314
153	0xc000a61f	-2.0101392
154	0xbeca569f	-0.39519212
155	0x3f3ff005	0.74975616
156	0xbfbf9156	-1.4966228
157	0x3f11d871	0.5697089
158	0xbf1c21e3	-0.6098921
159	0xbfa22b47	-1.2669457
160	0x3e11002b	0.1416022
161	0xbe1f11db	-0.15534155
162	0xbf906abf	-1.1282576
163	0xbfe9d6a7	-1.8268632
164	0xbf5eaf73	-0.86986464
165	0xbfbb8a28	-1.4651537
166	0xbfe78323	-1.8086895
167	0xbfa96cbe	-1.323631
168	0xc0167f45	-2.351518
169	0xbde125f5	-0.10993568
170	0x3f3abfb3	0.7294876
171	0xbe8eb822	-0.27874857
172	0xbeb0870a	-0.34478027
173	0xbff922d0	-1.9463749
174	0xbd996e24	-0.07491711
175	0xc00c64c0	-2.1936493
176	0x3f20b47a	0.62775385
177	0xbfef679d	-1.8703495
178	0x3c5547f0	0.0130176395
179	0x3ec619e6	0.38691634
180	0xbe9211f8	-0.28529334
181	0x3ddbcaf1	0.107320674
182	0xbd8b0fc8	-0.067901194
183	0x3e3376b3	0.17525749
184	0xbe6ff68f	-0.23433898
185	0xbdea563e	-0.11442231
186	0x3e6887e0	0.22708082
187	0x3de5b7c0	0.11216688
188	0x3dd8d59a	0.10587616
189	0xbd897898	-0.067124546
190	0x3e90bc7c	0.28268802
191	0x3e0c15d3	0.136802
192	0xbdfd1d69	-0.12359125
193	0x3cd1b733	0.025600052
194	0xbe14c00b	-0.14526384
195	0xbe800bb8	-0.2500894
196	0x3ed58149	0.417002
197	0xbbf3600e	-0.007427222
198	0x3dd5a7c8	0.10432392
199	0x3e84e1b9	0.25953463
200	0x3dcf9a50	0.10136855
201	0xbf172bfb	-0.59051484
202	0x3df81ee1	0.12115265
203	0x3e743605	0.23848732
204	0x3f1b5a30	0.6068449
205	0x3f912740	1.1340103
206	0x3e1d0674	0.15334493
207	0xbda26d19	-0.07930965
208	0xbe6553be	-0.22395226
209	0xbe827909	-0.25482967
210	0xbd97f654	-0.0742003
211	0xbe51f204	-0.20502478
212	0xbd9c720d	-0.07638941
213	0x3e844ef3	0.25841483
214	0x3ec1cd4d	0.37851945
215	0x3f07af71	0.5300208
216	0xbde72457	-0.11286228
217	0x3e731fe5	0.23742636
218	0xbe855c55	-0.26047006
219	0xbc9b3204	-0.018944748
220	0xbc8fa0d7	-0.01753275
221	0xbd2b3786	-0.041801
222	0x3e42b3cc	0.190139
223	0x3d85c588	0.06531817
224	0xbebbf635	-0.3671128
225	0xbe31d93c	-0.17368025
226	0x3e87e94a	0.26545173
227	0xbe664a4a	-0.22489277
228	0xbe62edb8	-0.22160995
229	0xbdc29436	-0.09500925
230	0x3eb75be5	0.35812297
231	0x3deaef51	0.11471427
232	0x3bdcc37b	0.0067371703
233	0xbe6c7436	-0.23091206
234	0xbeaa9865	-0.33319393
235	0x3c5e4f4d	0.0135687115
236	0x3ed3c427	0.4136059
237	0x3c3b1068	0.011417486
238	0xbeaf6f85	-0.3426477
239	0x3e36ca78	0.17850673
240	0x3eb3ebdc	0.35140884
241	0x3e0783e1	0.13233902
242	0x3dd611e8	0.10452634
243	0x3dc18503	0.09449198
244	0xbdea90dd	-0.11453412
245	0xbe485ae5	-0.19565924
246	0xbd1b52b8	-0.037920684
247	0x3e1ed6e3	0.1551166
248	0x3d8d44ca	0.06897886
249	0xbe95b0d2	-0.29236466
250	0xbca040fc	-0.019562237
251	0x3eb8240d	0.35965005
252	0x3e84ddf8	0.259506
253	0x3c5c4312	0.013443725
254	0x3d376e34	0.044782832
255	0x3eb9ef7e	0.3631553

lstm.bias_hh_l0 f4 [356]
0	0x3f4d4919	0.80189663
1	0xc05d94be	-3.4622035
2	0xbf7c4d21	-0.9855519
3	0xc07de2af	-3.9669607
4	0xbfbbe4c5	-1.467919
5	0xc0032648	-2.0492115
6	0xc037511c	-2.8643255
7	0xc06d5401	-3.7082522
8	0xc07af8b3	-3.9214294
9	0xbfb9a0db	-1.4502214
10	0xbff5ddc5	-1.9208304
11	0xc0785f30	-3.8808098
12	0xbebb0744	-0.3652898
13	0xc077b495	-3.8703969
14	0xbf824e16	-1.018008
15	0xc0620c94	-3.5320177
16	0xc0527fd3	-3.2890518
17	0x3ea49882	0.32147604
18	0xc06f85ab	-3.7425334
19	0xc033368a	-2.8002038
20	0xc06fd90a	-3.747622
21	0xc055fb1a	-3.343451
22	0xc055ff17	-3.3436944
23	0xbcd01525	-0.025400707
24	0xc06b3ad9	-3.6754668
25	0xc06e49ac	-3.7232466
26	0xc064813d	-3.570388
27	0xbf9ad53b	-1.2096323
28	0xc0487234	-3.1319704
29	0xbf81655d	-1.0109059
30	0xbf7a1d21	-0.977007
31	0xc0791d68	-3.8924198
32	0xc052e2e5	-3.2950985
33	0xbf16e057	-0.58936065
34	0xc051df15	-3.2792408
35	0xbf282964	-0.6568816
36	0xc06f10a3	-3.7353904
37	0xc0440bfd	-3.0632317
38	0xc08033a1	-4.0063024
39	0xc0404be1	-3.0046313
40	0xbfac939a	-1.3482544
41	0xc075e26e	-3.8419452
42	0xbf2f23ae	-0.6841382
43	0xbf62f856	-0.8866018
44	0xbf1ea8c3	-0.6197626
45	0xbed23a0e	-0.41059917
46	0xc0141cdd	-2.3142617
47	0xbe86cce0	-0.26328182
48	0xc0761507	-3.8450334
49	0xc075d21b	-3.8409488
50	0xc04a25ef	-3.1585653
51	0xbf2166b6	-0.6304735
52	0xc0630fbd	-3.5478356
53	0xc0739c00	-3.8063965
54	0xc081c251	-4.0549703
55	0xc05980c1	-3.3984835
56	0xc062b555	-3.5423176
57	0xc075a71b	-3.8383243
58	0xc058b44f	-3.3860052
59	0xc015bb9c	-2.3395758
60	0xc0735a2b	-3.8023784
61	0xc04552fd	-3.0831902
62	0xbf1725b7	-0.59041923
63	0xbfa84068	-1.3144655
64	0xc07bcda6	-3.9344268
65	0xbe7a7cf6	-0.24461731
66	0xbf253e9f	-0.6454868
67	0xc05c9794	-3.4467516
68	0xbf51c9e5	-0.8194869
69	0xc0302845	-2.7524579
70	0xbf807287	-1.0034951
71	0xbf82ee1f	-1.0228919
72	0xbf84af43	-1.0365986
73	0xbf9f5f6a	-1.2450993
74	0xbfeb99e1	-1.8406335
75	0xc017a5a7	-2.3694856
76	0xc05fda62	-3.497704
77	0xc05794a4	-3.3684473
78	0xc06a8f00	-3.664978
79	0xc0550d31	-3.3289301
80	0xbfc3c2a8	-1.5293779
81	0xbf966381	-1.1749116
82	0xc082c3d6	-4.0864058
83	0xbf15d05c	-0.58521056
84	0xc077acfe	-3.8699336
85	0xbf3e900c	-0.7443855
86	0xc07bfd3d	-3.9373314
87	0xbf7950ec	-0.973891
88	0xc0634a04	-3.5513926
89	0xbe32c678	-0.17458522
90	0xbfad3607	-1.3532113
91	0x3ce5c1df	0.028046547
92	0xbfc1cf7b	-1.5141443
93	0xbe01612e	-0.12634727
94	0xc062839c	-3.5392828
95	0xbffd4204	-1.9785771
96	0xbfb54607	-1.4161996
97	0xbfb7868b	-1.4337934
98	0xc03c94a1	-2.9465716
99	0xbf4eb339	-0.8074222
100	0xbfeea1ca	-1.8643124
101	0xbf9ebc68	-1.2401247
102	0xc0051504	-2.0794077
103	0xbeb40832	-0.35162503
104	0xbfba6e03	-1.4564823
105	0xbf91cef8	-1.1391287
106	0x3e095738	0.13412178
107	0xc00d6ee2	-2.2098927
108	0xc003b292	-2.057774
109	0xbfad0dd5	-1.3519846
110	0xc005df55	-2.091756
111	0xbfa0fa40	-1.257637
112	0xbfd8d76b	-1.694074
113	0xc00e36d9	-2.2220976
114	0xbfc7cc88	-1.5609293
115	0xbf24331b	-0.6414048
116	0xc05301e3	-3.2969902
117	0xbf655327	-0.89580005
118	0x3e83ade5	0.25718608
119	0x3ec243ab	0.37942252
120	0xc0079a02	-2.118775
121	0xbfb44fe7	-1.4086884
122	0xbcf5fef5	-0.0300288
123	0xbfbd6bed	-1.4798561
124	0xbcec6425	-0.028856346
125	0xbeade90d	-0.33966866
126	0xbf92498b	-1.1428694
127	0xbffdd139	-1.9829475
128	0xc016c562	-2.3557973
129	0xc04e169b	-3.2201297
130	0xbfcdd711	-1.6081258
131	0x3dea9535	0.1145424
132	0x408e5a31	4.4485097
133	0xbf424512	-0.7588664
134	0x3f173b59	0.5907493
135	0xc00c02b8	-2.187666
136	0xc08db0af	-4.427818
137	0xbfc80ed5	-1.5629526
138	0xc012be9f	-2.2928846
139	0xc02a8521	-2.6643755
140	0x3eca2288	0.3947947
141	0xc00de209	-2.216921
142	0xbecc571d	-0.39910212
143	0xbfdf1de0	-1.7430992
144	0xbfb7ee1c	-1.436954
145	0xbff755c2	-1.9323046
146	0xbfdd2c1e	-1.7279088
147	0xc0026392	-2.0373273
148	0x3ee27802	0.44232184
149	0xc00e5780	-2.2240906
150	0xbff0ccf5	-1.8812548
151	0x3df3f70c	0.11912355
152	0x3ead84af	0.33890292
153	0xc0021869	-2.0327399
154	0xbed75edb	-0.42064556
155	0x3f30c6ae	0.6905316
156	0xbfc23ead	-1.5175377
157	0x3f035924	0.5130789
158	0xbf1b4d1e	-0.60664546
159	0xbfb0fb97	-1.3826779
160	0x3ce3fff8	0.027832016
161	0xbe191c35	-0.14952166
162	0xbf997b2f	-1.1990718
163	0xbfebb95e	-1.8415945
164	0xbf65146d	-0.8948429
165	0xbfc79c31	-1.5594541
166	0xbfeb613d	-1.838905
167	0xbfb20990	-1.3909168
168	0xc011f471	-2.2805445
169	0xbe89d5db	-0.2692097
170	0x3f21ec99	0.63251644
171	0xbeabb4e8	-0.33536458
172	0xbea62025	-0.324464
173	0xbff140d8	-1.8847914
174	0xbd327044	-0.043564096
175	0xc009f11f	-2.1553419
176	0x3f226861	0.6344052
177	0xbfe4cf67	-1.7875794
178	0x3daf6b5a	0.085653976
179	0x3e8d6d25	0.27622333
180	0xbe31c22c	-0.17359227
181	0x3e28bbe1	0.1647792
182	0x3cea5718	0.028605983
183	0x3e0cdc81	0.1375599
184	0xbe4a1bcf	-0.1973717
185	0xbe33deee	-0.1756551
186	0x3df79ec4	0.12090829
187	0xbd3f0d60	-0.046643615
188	0x3d534f69	0.051589403
189	0xbdeaf980	-0.114733696
190	0x3ef7a88c	0.4837078
191	0x3e884364	0.26613915
192	0xbe2fbd98	-0.17162168
193	0xbcc8f3f2	-0.024530385
194	0xbdf33c64	-0.11876753
195	0xbe80ceba	-0.2515772
196	0x3ed6182d	0.4181532
197	0xbd766c46	-0.06016185
198	0x3e8136a9	0.25237015
199	0x3eb5cfd8	0.35510135
200	0x3e4570d6	0.19281325
201	0xbf00c290	-0.5029688
202	0x3de46e77	0.11153882
203	0x3e88e164	0.2673446
204	0x3f11f5fd	0.57015973
205	0x3f96ddad	1.17864
206	0x3de07860	0.1096046
207	0xbde62da8	-0.11239177
208	0xbe662a96	-0.22477183
209	0xbe8aef5c	-0.27135742
210	0xbe204c97	-0.15654217
211	0xbe70edfb	-0.23528282
212	0x3d987b09	0.07445342
213	0x3e5d2a79	0.21598233
214	0x3e9c2a11	0.30500844
215	0x3f0a3970	0.5399389
216	0xbe04979f	-0.12948464
217	0x3ec6baf8	0.3881452
218	0xbe8a53bf	-0.27017018
219	0xbde5fc94	-0.11229816
220	0x3a1e4c6f	0.0006038611
221	0xbc9e6471	-0.019335004
222	0x3e1807bc	0.148467
223	0x3cbb6af5	0.02287815
224	0xbecd8725	-0.4014217
225	0xbe6a037d	-0.22852893
226	0x3e83a447	0.2571127
227	0xbe30637b	-0.17225449
228	0xbe2ecef5	-0.17071135
229	0xbd3f4d72	-0.046704717
230	0x3ef00341	0.46877483
231	0x3d9aa00b	0.07550057
232	0x3d59b12d	0.053147484
233	0xbea2888b	-0.317448
234	0xbe9843a2	-0.297391
235	0xbd89b6ab	-0.06724294
236	0x3eea00ae	0.45703644
237	0x3d45094c	0.04810457
238	0xbeaebab5	-0.3412682
239	0x3e34f437	0.17671286
240	0x3e8d0879	0.27545527
241	0x3b8b1b57	0.0042452025
242	0x3e0a98c3	0.13534836
243	0x3d924083	0.07141211
244	0xbe62467c	-0.220972
245	0xbe82f13f	-0.2557468
246	0x3d8411e8	0.06448728
247	0x3ea091e6	0.31361312
248	0x3d8b0de9	0.067897625
249	0xbea7f586	-0.32804507
250	0x3cf2f144	0.02965606
251	0x3e4dc74d	0.20095558
252	0x3e54cd91	0.20781542
253	0x3ce75d06	0.0282426
254	0xbdf65eff	-0.12029838
255	0x3e96f977	0.29487202

lstm.weight_ih_l1 f4 [356, 89]
0	0xbe3a05ee	-0.18166324
1	0xbe0062ef	-0.1253774
2	0x3f18bd28	0.5966363
3	0xbbb38749	-0.0054787737
4	0xbe0ec737	-0.13943182
5	0xbcc38f50	-0.023872048
6	0xbdcbcb4c	-0.09950885
7	0xbd60516b	-0.054765146
8	0x3e14443f	0.14479159
9	0xbfbf8c8e	-1.4964769
10	0xbe3cdc00	-0.18443298
11	0xbd597511	-0.05309016
12	0x3efc4209	0.4926913
13	0xbdf78172	-0.120852366
14	0x3ec6ba0f	0.38813826
15	0xbcd9bc19	-0.02657895
16	0x3cb6b499	0.022302913
17	0xbe678f0e	-0.22613165
18	0x3cd2be87	0.025725616
19	0x3e569828	0.2095648
20	0xbe0fda4e	-0.1404812
21	0x3dbb6a52	0.09151138
22	0xbd06124b	-0.03273229
23	0x3f10632d	0.5640133
24	0x3c86d2d9	0.016457962
25	0xbe0d9552	-0.13826492
26	0xbe04c047	-0.12963973
27	0xbf2e9d2a	-0.68208563
28	0xbd57121e	-0.052507512
29	0xbe9a991b	-0.30194935
30	0x3e86f24f	0.26356742
31	0xbd0fa2c0	-0.03506732
32	0x3d13d405	0.03609087
33	0xbed6d3d9	-0.41958502
34	0x3dfbf380	0.12302303
35	0x3ffb2ac7	1.962243
36	0x3eb74392	0.3579374
37	0x3fafbb9e	1.3729131
38	0xbc7e61a1	-0.015526206
39	0xbd607d84	-0.0548072
40	0xbebb67d4	-0.36602652
41	0x3dc8b0f8	0.09799379
42	0x3c9e5ced	0.01933142
43	0x3e510397	0.20411526
44	0x3e87d782	0.26531607
45	0x3f92be9d	1.146442
46	0x3ef1df23	0.47240552
47	0x3f1dd2b9	0.6164966
48	0xbe022630	-0.1270988
49	0x3de47b00	0.11156273
50	0x3d64ad0c	0.055829093
51	0x3eac8fbb	0.33703408
52	0xbe0c471c	-0.13699001
53	0x3e6c5938	0.23080909
54	0xbbb82a5a	-0.005620283
55	0x3c83ab89	0.016073005
56	0x3e113a06	0.1418229
57	0x3e3e158a	0.18562904
58	0xbdb3d6bb	-0.08781191
59	0xbe4f0903	-0.20218281
60	0x3ba7db37	0.005122568
61	0x3cbbf9eb	0.022946319
62	0xbf5e404e	-0.8681687
63	0xbfacc414	-1.3497338
64	0x3dd88a7c	0.10573289
65	0xbfeb1293	-1.8365043
66	0x3e75c7ff	0.24002074
67	0x3c951426	0.018198084
68	0xbfb38af5	-1.4026781
69	0xbc55e5db	-0.01305529
70	0x3dad3681	0.084576614
71	0xbfc74606	-1.5568244
72	0xbe85cd45	-0.2613317
73	0x3f216cee	0.6305684
74	0xbe925cfa	-0.2858656
75	0xbe0104b3	-0.12599449
76	0x3e00f3ee	0.12593052
77	0xbab84a9a	-0.0014060319
78	0xbde1be14	-0.11022583
79	0x3d72687c	0.059181675
80	0x3e48d2cd	0.19611664
81	0x3e92ff94	0.28710616
82	0x3d6cb478	0.057789296
83	0x3f17ca93	0.5929348
84	0x3c7c794a	0.015409777
85	0x3fe00890	1.7502613
86	0x3d879677	0.06620496
87	0xbf98b728	-1.1930895
88	0xbda5d50c	-0.08097276
89	0xc00e35a2	-2.2220235
90	0x3edfec32	0.4373489
91	0x4087c374	4.242609
92	0xbd1fe174	-0.03903337
93	0x3e61f9a2	0.22067884
94	0x3f5e5472	0.86847603
95	0xbeb8a3b0	-0.36062384
96	0xbdf9170c	-0.12162599
97	0x3f7e0e30	0.992404
98	0x3f8d9b75	1.1063067
99	0x4055ea8a	3.3424401
100	0xbe265539	-0.16243447
101	0x405938ef	3.3941
102	0xbd9ef639	-0.07761807
103	0xc046c5ae	-3.1058154
104	0xbd84df8b	-0.0648795
105	0x3f2cf8fd	0.67567426
106	0xc096b541	-4.7096257
107	0x3f58b685	0.846535
108	0x3f9ee608	1.241395
109	0x3e37d282	0.17951396
110	0xbe734a02	-0.237587
111	0xbf03d6d8	-0.514997
112	0xc00c3d48	-2.1912403
113	0xbf01db34	-0.507251
114	0xbf184028	-0.59472895
115	0xbef256a5	-0.4733173
116	0xbf1a4d2c	-0.60274005
117	0xbf5b7226	-0.8572105
118	0xbfa7ae13	-1.3099998
119	0x3fab6048	1.3388758
120	0x3f71f05f	0.945074
121	0xbd3defe5	-0.04637136
122	0xc0679582	-3.6185002
123	0x3f5d4bc8	0.8644376
124	0xbf517057	-0.8181204
125	0xbee0912e	-0.43860763
126	0x3ef67931	0.48139337
127	0x3e17b3a4	0.14814621
128	0xbe20eac9	-0.15714563
129	0x407eafbb	3.9794757
130	0x3eac30b8	0.3363092
131	0xbf01e543	-0.5074045
132	0x4002e316	2.0451102
133	0x3fefa59d	1.8722416
134	0x40101f07	2.2518938
135	0x3e2534cf	0.16133426
136	0xbd99518c	-0.07486257
137	0x3e87d22b	0.26527533
138	0x3fa1caf7	1.2640065
139	0x3e85daf5	0.26143613
140	0x3d672581	0.05643225
141	0xbf88985b	-1.0671495
142	0x3f188ce9	0.5959001
143	0x3ec07a32	0.37593228
144	0xbf56934b	-0.838185
145	0xbdbbf21e	-0.091770396
146	0x3f0a6245	0.540562
147	0xbef03a1c	-0.46919334
148	0xbdd9785e	-0.10618661
149	0x3f01142d	0.5042141
150	0x3f1e10ff	0.61744684
151	0x3f87ae22	1.0600016
152	0x3fc9d6a2	1.5768626
153	0x3e6c2823	0.23062186
154	0xc01b5956	-2.4273276
155	0x3fd2d4a5	1.6471144
156	0xbe745e59	-0.23864116
157	0x3cf265e3	0.029589599
158	0xbf0bea54	-0.5465443
159	0xc0646fe4	-3.5693293
160	0x4028605b	2.630881
161	0xbf3e4385	-0.74321777
162	0xbfb153f3	-1.3853744
163	0x40a01684	5.0027485
164	0xbd82eee0	-0.06393218
165	0xbe0361bd	-0.12830253
166	0xbe66411c	-0.22485775
167	0x3dc7fbe9	0.09764845
168	0xbdf91197	-0.12161558
169	0xbce4b4b3	-0.027918195
170	0xc0bf6bb1	-5.981896
171	0xbc3a852c	-0.01138429
172	0xc03b43ff	-2.9260252
173	0x3d9d0f3b	0.076689206
174	0xc0194265	-2.3946774
175	0x3e6b83cb	0.22999494
176	0xc0768c8d	-3.8523285
177	0x3d8ac5fa	0.06776042
178	0x3e980418	0.29690623
179	0x3dbe5c95	0.09295002
180	0xbd91f9ac	-0.07127699
181	0x3e534fe1	0.2063594
182	0x3eb9b381	0.36269763
183	0x3c7018ee	0.014654381
184	0xbd9d9426	-0.07694273
185	0x3d35a524	0.044346943
186	0x3eb44fd2	0.35217148
187	0xbdfeb7d6	-0.12437408
188	0x3c8e3cff	0.01736307
189	0x3d8e338c	0.069434255
190	0xbe2b29a3	-0.16715102
191	0xbd8b1d20	-0.067926645
192	0xbd39c7ae	-0.045356445
193	0xbe4d1346	-0.20026883
194	0x3e3fb780	0.18722343
195	0x3df23fdc	0.118285865
196	0x3e5e0c5e	0.21684405
197	0x3ef6a4c1	0.48172572
198	0x3ddcf4e3	0.10788896
199	0x3c8e9f69	0.017409997
200	0xbe0a536d	-0.13508387
201	0xbfeb8015	-1.8398463
202	0xbd2f54b3	-0.042805385
203	0xbe8d1603	-0.27555856
204	0x3d8efc74	0.06981745
205	0x3f0d4752	0.5518695
206	0xbe396e40	-0.18108463
207	0xbec2e19e	-0.38062757
208	0x3f78950e	0.9710244
209	0x3ee91bfb	0.4552916
210	0x3c3b9aff	0.011450528
211	0x3f055da8	0.52096033
212	0x3eb18c1b	0.34677204
213	0x3e718dc0	0.2358923
214	0x3ec63761	0.38714126
215	0x3feb222d	1.8369805
216	0x3e084880	0.13308907
217	0x3e33ef06	0.17571649
218	0xbe1f7fb5	-0.1557606
219	0xbde182e9	-0.11011297
220	0xbd855e86	-0.065121695
221	0xbbe65a7a	-0.0070298286
222	0x3f779184	0.96706414
223	0xbee435c4	-0.4457227
224	0xbed9aca2	-0.4251452
225	0x3eae9e13	0.34104976
226	0xbd071ee8	-0.03298846
227	0x3e8fc71a	0.2808159
228	0x3c3a45e7	0.011369205
229	0xbee10ced	-0.43955174
230	0xbec6e211	-0.3884435
231	0x3e582ab8	0.21110046
232	0x3da14eea	0.0787638
233	0xbe045df0	-0.1292646
234	0x3b70ec11	0.00367618
235	0xbca0e211	-0.019639047
236	0xbe6cdcdd	-0.23131128
237	0xbef0026b	-0.46876845
238	0x3e8b3336	0.27187508
239	0x3e8b3feb	0.27197203
240	0x3ceb5cf4	0.028730847
241	0x3f703d41	0.93843466
242	0x3e1847a6	0.14871082
243	0x3f56e269	0.83939224
244	0xbea585e4	-0.32328713
245	0xbbcfad22	-0.0063377777
246	0x3ef7b643	0.48381242
247	0xbf1201f6	-0.5703424
248	0xbe91ddd7	-0.28489563
249	0x3fac3b83	1.3455662
250	0xbdec583b	-0.11540266
251	0x3d8025b6	0.06257193
252	0xbed13df7	-0.40867588
253	0x3d939b56	0.07207362
254	0xbe30a64f	-0.17250942
255	0x3e02fe26	0.12792262

lstm.weight_hh_l1 f4 [356, 89]
0	0x3d818131	0.063234694
1	0xbf54ae78	-0.8307872
2	0x3c6c8a93	0.014437336
3	0xbe5677ac	-0.20944089
4	0xbcf735da	-0.030177046
5	0x3de3a888	0.11116129
6	0x3d918888	0.071061194
7	0x3fe763d2	1.8077338
8	0x3f210e87	0.6291279
9	0x3f38559b	0.72005624
10	0x3ff4eb36	1.9134281
11	0xbdce9b29	-0.10088188
12	0x3e9f128f	0.31068847
13	0x3f8f8ca6	1.1214797
14	0xbf3e916f	-0.74440664
15	0x3f47ca67	0.78043216
16	0x3e67411e	0.22583434
17	0x3de5ba69	0.112171955
18	0xbdb271d8	-0.0871312
19	0x400fc3bb	2.2463214
20	0xc08199f0	-4.050041
21	0x3fe21d04	1.7665105
22	0xc00e4dde	-2.2235026
23	0x3f8f0f41	1.117653
24	0xbff266ad	-1.8937584
25	0xbe5786a7	-0.2104746
26	0xbf149cb5	-0.58051616
27	0xbf9e2520	-1.235508
28	0xbf0a0435	-0.5391267
29	0x3c6df01a	0.014522577
30	0xbe2a2027	-0.16613828
31	0xbcc73131	-0.024315448
32	0x3f8c8807	1.0979012
33	0x3f02a6d8	0.51035833
34	0x3f4672e8	0.77519083
35	0xc00127e6	-2.0180602
36	0x400bc7b6	2.1840644
37	0x3f03cf58	0.51488256
38	0x3ebd07ee	0.36920112
39	0xbd91fd69	-0.07128412
40	0xc01d1563	-2.4544303
41	0x3df28e26	0.11843519
42	0xbd22b321	-0.039721612
43	0xbd43c638	-0.047796458
44	0xbfa7579d	-1.3073612
45	0x3e86bd9c	0.26316535
46	0xbea1a87a	-0.3157385
47	0x3fd67c12	1.6756613
48	0x3e627e24	0.22118431
49	0xbfdcad26	-1.7240341
50	0x3fbb9c79	1.4657127
51	0x3e84dc39	0.25949267
52	0x3eea6325	0.45778766
53	0xc0243aa7	-2.5660799
54	0x3ea648a5	0.32477298
55	0xbe34093e	-0.1758165
56	0xbea2caa0	-0.31795216
57	0xbaaaa636	-0.0013019505
58	0xbd2c8585	-0.04211952
59	0xbf852a6b	-1.040357
60	0x3d3ea215	0.046541292
61	0xbf892b0d	-1.0716263
62	0xc01a5510	-2.4114418
63	0xbce6cb3a	-0.028173078
64	0x3e507905	0.20358665
65	0x3dbd9a2d	0.09257922
66	0xbe3da6ea	-0.18520704
67	0xbfb2b812	-1.3962424
68	0x3eeccbae	0.46249145
69	0xbfff18c1	-1.9929429
70	0xbe087d60	-0.13329077
71	0xbe464d7d	-0.19365497
72	0x3e12f5b1	0.14351536
73	0x3d49762f	0.049184974
74	0xbe965df4	-0.29368556
75	0x3f245287	0.64188427
76	0x3fb61bfc	1.422729
77	0x3f92a207	1.1455697
78	0x3ea3234d	0.3186287
79	0xbe5607cd	-0.20901413
80	0xbfa8d75c	-1.3190722
81	0x401fad83	2.4949653
82	0xbf1f5877	-0.6224436
83	0x4016851f	2.351875
84	0xbdb1fcd5	-0.08690802
85	0xbf9cf22e	-1.2261407
86	0xbd397282	-0.04527522
87	0xbef1533f	-0.47133824
88	0x3dea5e57	0.11443775
89	0x3eabe00a	0.33569366
90	0x3ec37b2c	0.3817991
91	0xbe7bccb3	-0.24589805
92	0xbf31bb02	-0.69425976
93	0x4030c09e	2.7617564
94	0x3ef5f9dd	0.48042193
95	0x3f8a4656	1.0802715
96	0x3fcbd235	1.5923525
97	0xbda59ffb	-0.080871545
98	0x3f90b3e4	1.1304898
99	0xc065cdc4	-3.590684
100	0xbee449b9	-0.44587496
101	0xc047e708	-3.123476
102	0x4018f907	2.3901994
103	0x406bcad0	3.6842537
104	0xbf3f41ba	-0.74709666
105	0x3fad5ef3	1.3544601
106	0x3edde81e	0.43341154
107	0x3e88701c	0.26648033
108	0x40872b46	4.2240324
109	0xbeca8141	-0.39551738
110	0x3f8c75ec	1.0973487
111	0xbf5195ff	-0.818695
112	0xc06ea4c7	-3.7288072
113	0x403b149f	2.9231336
114	0xc0ce17c5	-6.4404016
115	0xbe38236b	-0.17982261
116	0xc014b4e6	-2.3235412
117	0xbe7e97a9	-0.24862541
118	0x3ee7eac5	0.45296302
119	0x3f6fdea6	0.9369911
120	0x3c86fff6	0.016479474
121	0x3fb33259	1.399974
122	0x3eb73d29	0.3578885
123	0x3ee878b2	0.45404583
124	0x40616dee	3.5223346
125	0x3d6b8567	0.05750027
126	0xbf0075ca	-0.5017973
127	0x3fbf37da	1.493892
128	0xbf16c917	-0.5890059
129	0xc05da374	-3.4631014
130	0xbc8bc9e6	-0.017064046
131	0xbe0436d7	-0.12911545
132	0x3d3d3c4a	0.046200074
133	0x3ef04bba	0.46932775
134	0x3e4f807d	0.20263858
135	0x3fd4f575	1.6637408
136	0x3f62e46f	0.8862981
137	0x3f83668f	1.0265673
138	0x3f2eae8a	0.68235075
139	0xc085d128	-4.181782
140	0x3fb1658b	1.3859113
141	0xbec5ac1a	-0.38607866
142	0x3f2ca8eb	0.6744525
143	0xbee4b129	-0.44666412
144	0x3e7a8911	0.24466349
145	0x3f05f62a	0.5232874
146	0x3f1e30df	0.6179332
147	0xbed2099d	-0.4102296
148	0xbdf4913d	-0.119417645
149	0x3e1000de	0.14062831
150	0x3fbb0d4f	1.4613436
151	0xbffe1496	-1.9850032
152	0xbd8cb8fd	-0.06871221
153	0xbf69fbb6	-0.91399705
154	0x3c7100d6	0.014709672
155	0xc03a2818	-2.9086971
156	0xbf36b36d	-0.7136753
157	0x3fb85c37	1.4403142
158	0x3e90470b	0.281792
159	0xbe3f52fd	-0.18684001
160	0x3fbb13d6	1.4615428
161	0x3fdb9847	1.7155846
162	0x3ef54bff	0.47909543
163	0x4054876c	3.3207655
164	0x3d9a7f48	0.07543808
165	0x40736a57	3.8033655
166	0x40637cd2	3.5544934
167	0x3f6833a4	0.907038
168	0x3e47444f	0.19459651
169	0x3f7e83d7	0.9941992
170	0x40268552	2.6018872
171	0xbed2fafa	-0.41207105
172	0xc0002024	-2.0019617
173	0xbcd7b79e	-0.026332673
174	0x407cb34b	3.9484432
175	0x3c01a53d	0.007912931
176	0xbfcb0f39	-1.586402
177	0xc03537af	-2.8315237
178	0xbda48d97	-0.080348186
179	0xbd5441f8	-0.051820725
180	0x3e5e611b	0.2171673
181	0x3cab2418	0.020891234
182	0x3dc49f7d	0.096007325
183	0xbdc718ec	-0.0972155
184	0xbd799237	-0.060930457
185	0xbe89994e	-0.26874775
186	0xbe86945d	-0.26285067
187	0xbf347028	-0.70483637
188	0xbdb65912	-0.089037076
189	0x3d08066b	0.033209246
190	0x3f454975	0.7706521
191	0x3ec3a541	0.38212016
192	0x3e5c92a9	0.21540321
193	0x3e0aaca3	0.13542418
194	0xbe2166cb	-0.15761869
195	0x3e568e54	0.20952731
196	0xbe1dd996	-0.15415034
197	0x3ee0c912	0.43903404
198	0x3e4cd222	0.20002034
199	0xbddaf958	-0.1069209
200	0x3e8a3f6d	0.27001515
201	0x3f229d7d	0.6352156
202	0xbf2be51f	-0.67146486
203	0x3db2c0da	0.0872819
204	0xbcf5068a	-0.029910345
205	0x3dc1e7b9	0.09468026
206	0xbd313ed5	-0.043272812
207	0xbdff6e88	-0.12472254
208	0x3d61101c	0.054947004
209	0x3e632299	0.22181167
210	0x3e79786f	0.24362348
211	0xbee48500	-0.4463272
212	0xbe812d1a	-0.25229722
213	0xbe377f72	-0.1791971
214	0xbe22d675	-0.15902121
215	0x3e12aa60	0.14322805
216	0xbcadbc17	-0.021207852
217	0x3e31b65b	0.1735472
218	0x3e70ee34	0.23528367
219	0xbd3a9fa3	-0.045562398
220	0x3d83ab92	0.06429209
221	0xbe206bb8	-0.15666091
222	0xbda8fbe6	-0.08251171
223	0x3f8580ca	1.0429928
224	0xbdbe66b5	-0.092969336
225	0x3be861cc	0.0070917364
226	0xbedf7c53	-0.4364954
227	0x3f19002b	0.5976588
228	0xbf8cd6bb	-1.100303
229	0x3e2224e3	0.15834384
230	0xbe5e5e00	-0.21715546
231	0x3da13e45	0.07873205
232	0xbdaa28f4	-0.083085924
233	0xbe1ba566	-0.15199813
234	0xbc5bc08c	-0.013412606
235	0x3e6d10fe	0.23151013
236	0x3e3a1c12	0.1817477
237	0xbede8cd5	-0.4346682
238	0x3d0334d1	0.03203279
239	0x3cda2f29	0.026633816
240	0x3b54f92e	0.0032497155
241	0x3e31b72a	0.17355028
242	0xbf8bcf2a	-1.0922596
243	0x3d542584	0.05179359
244	0x3e4a8bc0	0.19779873
245	0x3ea9cef8	0.33165717
246	0x3e751499	0.23933639
247	0xbe4840a0	-0.19555902
248	0xbdab65cf	-0.08369028
249	0x3e522aaa	0.20524088
250	0x3dec3f00	0.11535454
251	0xbdeb0e1e	-0.11477302
252	0xbeb1126a	-0.3458436
253	0xbd20c6ab	-0.039251965
254	0xbe8be561	-0.2732344
255	0x3dbc8899	0.092057414

lstm.bias_ih_l1 f4 [356]
0	0xbfabb70e	-1.3415239
1	0xbfcc4acd	-1.5960327
2	0xc05f2396	-3.486547
3	0xc046e293	-3.107579
4	0xbfaf413c	-1.3691783
5	0xc08626a7	-4.1922183
6	0xbf7dfd2e	-0.99214447
7	0xbee4af00	-0.44664764
8	0xbf6a301d	-0.91479665
9	0xbfd5039d	-1.6641728
10	0xbf9d253d	-1.2276989
11	0xc0842813	-4.129892
12	0xbfa73a97	-1.3064755
13	0xbfb1157c	-1.3834682
14	0xbf834bb2	-1.0257475
15	0xbfaf7c8d	-1.3709885
16	0xc015c190	-2.339939
17	0xc034eeb4	-2.8270693
18	0xc08d7fce	-4.421851
19	0xbfdc5107	-1.7212228
20	0xbfda91f9	-1.7075797
21	0xbf41855c	-0.75594115
22	0xbfe2e21e	-1.7725255
23	0xbf4efbe9	-0.80853134
24	0xbf124e8b	-0.571511
25	0xbee8dfbd	-0.454832
26	0xc013bee7	-2.3085268
27	0xbfde9a41	-1.7390825
28	0xbf994246	-1.197335
29	0xc08f81fc	-4.484617
30	0xbfb8d9d9	-1.4441482
31	0xc0468d87	-3.1023881
32	0xbf6f6c1a	-0.93524325
33	0xbf02a5e3	-0.51034373
34	0xbfa1a4b6	-1.2628391
35	0xbec83bcf	-0.3910813
36	0xc00edb1f	-2.232124
37	0xbfbaff7b	-1.4609216
38	0xc00cf1ae	-2.202251
39	0xc07f8d4c	-3.992999
40	0xbefaa99a	-0.4895752
41	0xc07d991e	-3.9624705
42	0xc0844e6a	-4.134572
43	0xc084718f	-4.138862
44	0xbfbf03bd	-1.4923016
45	0xbe10bc7b	-0.141344
46	0xbf6b4538	-0.91902494
47	0xc040f482	-3.0149236
48	0xc0115a01	-2.2711184
49	0xbf42ac6d	-0.7604435
50	0xbff50115	-1.9140955
51	0xbfd55aec	-1.6668372
52	0x3fc34a24	1.5257001
53	0xbfb85ce2	-1.4403346
54	0xc01cb2d9	-2.448416
55	0xc03c48e6	-2.9419494
56	0xc04c25be	-3.1898036
57	0x3f64ea3b	0.8941991
58	0xc07cb0ba	-3.9482865
59	0x3e180ca4	0.14848572
60	0xc080383e	-4.0068655
61	0xbfa8d286	-1.3189247
62	0xbf8134fa	-1.0094292
63	0xc084a6ad	-4.145346
64	0xc01dbc59	-2.4646208
65	0xc064d887	-3.5757158
66	0xbfa424ea	-1.2823765
67	0xbff1e753	-1.889872
68	0xc0279f5a	-2.619101
69	0xbfd0bb6c	-1.6307197
70	0xc0807b56	-4.0150557
71	0xbfa46627	-1.2843674
72	0xc00b8656	-2.1800742
73	0xc076950b	-3.8528469
74	0xbfb97c32	-1.4491026
75	0xbfbf1526	-1.4928329
76	0xbfab7b3f	-1.3396987
77	0xc00617d3	-2.095204
78	0xc02ce99d	-2.7017586
79	0xbfc517e5	-1.5397917
80	0xbff0954f	-1.8795565
81	0x3d9af700	0.07566643
82	0xbf1d4ac9	-0.6144224
83	0xbf2e50e1	-0.6809216
84	0xc07e12a1	-3.969887
85	0xbfc698a6	-1.5515335
86	0xc0732ccf	-3.79961
87	0xbff37be6	-1.9022186
88	0xc007e064	-2.1230707
89	0xbf6966d4	-0.9117253
90	0xc03afbb2	-2.9216123
91	0xbfcf1f18	-1.6181364
92	0xc001da70	-2.0289574
93	0xbec60f91	-0.3868375
94	0xbf6e2513	-0.9302532
95	0xc00a72f3	-2.163266
96	0xbf260eb9	-0.64866215
97	0xbfcb8d1e	-1.590244
98	0xbef58ede	-0.47960562
99	0x3f89f326	1.0777328
100	0xbfbd12a3	-1.4771312
101	0xbf85b151	-1.0444738
102	0xbf8b2af3	-1.0872482
103	0xc025813e	-2.5860133
104	0xbf9015e9	-1.1256686
105	0x3e51d030	0.20489573
106	0xbf9c2ca1	-1.220112
107	0xbfbd6048	-1.4795008
108	0xbfee0433	-1.8595031
109	0xc001566f	-2.0209005
110	0xbf906141	-1.127968
111	0xbf36427f	-0.71195215
112	0x3ddc6be6	0.107627675
113	0x3f554b2e	0.8331784
114	0xc0170eb3	-2.3602722
115	0xbeafdce2	-0.34348208
116	0x3ec3f943	0.3827611
117	0xbfa8e0a6	-1.3193557
118	0xbfd8cc49	-1.6937343
119	0xbf69710c	-0.9118812
120	0xbfc59e82	-1.5438998
121	0xbea564cb	-0.3230346
122	0xbf342150	-0.7036333
123	0xbfa3ccf6	-1.2796924
124	0xbf30b0dd	-0.6901987
125	0xbef91255	-0.486468
126	0xbed1b9e0	-0.40962124
127	0xbf89307b	-1.071792
128	0xc0256418	-2.5842342
129	0x3f4e8c29	0.8068262
130	0xbf974df4	-1.1820664
131	0xbfb09d16	-1.3797939
132	0xc012f082	-2.2959294
133	0x402e485f	2.7231672
134	0x3e4fa4a0	0.20277643
135	0xbfc0b923	-1.5056499
136	0xbea9ee21	-0.3318949
137	0xbf947713	-1.1598839
138	0xbf06cb8c	-0.5265434
139	0x3ffc0126	1.968785
140	0xbf5f5e95	-0.87253696
141	0xbf346d61	-0.704794
142	0xbf96fd69	-1.1796085
143	0xc04bac0e	-3.1823764
144	0xbf9d4063	-1.2285274
145	0xc00748f7	-2.1138284
146	0x3e7007e3	0.23440509
147	0xbfb1765d	-1.3864247
148	0xc026ca8d	-2.6061127
149	0xbfb89b78	-1.4422445
150	0xc0123684	-2.2845774
151	0xbe1f8bf8	-0.15580738
152	0xbfaedd47	-1.3661278
153	0xc027a1a8	-2.6192417
154	0xbfd1e2cb	-1.6397337
155	0xbf831a57	-1.0242413
156	0xbf9c9692	-1.223345
157	0xbffa1e97	-1.9540585
158	0xbfa93a6e	-1.3220956
159	0xbf6f413c	-0.93458915
160	0x3f9afb58	1.2107954
161	0xc0c4210d	-6.1290345
162	0xbfbc3edc	-1.4706683
163	0xc0d0d6ff	-6.5262446
164	0xbfd09a8d	-1.6297165
165	0xbf38b5bb	-0.721523
166	0x3f478314	0.77934384
167	0xbf763789	-0.9617849
168	0xc016cdbf	-2.3563077
169	0x3fa45236	1.2837589
170	0xbf9e6001	-1.2373048
171	0xc0184097	-2.3789423
172	0x3cb6ec9e	0.022329625
173	0xbfb84eec	-1.4399085
174	0xbeb16059	-0.3464382
175	0xbfae6715	-1.3625208
176	0xbda6031b	-0.08106061
177	0xbfd5ce4d	-1.6703583
178	0x3d91f2a0	0.07126355
179	0x3db98e33	0.090603255
180	0xbe983f1e	-0.29735655
181	0x3f22f857	0.63660187
182	0xbe40e086	-0.18835649
183	0xbe2d6c9d	-0.16935964
184	0x3e776797	0.2416061
185	0xbe947b84	-0.29000485
186	0x3edc44df	0.43021294
187	0x3e059811	0.1304629
188	0x3f1ce9e8	0.6129441
189	0xbe3a9e92	-0.18224552
190	0x3cdb18d0	0.02674523
191	0xbde535b0	-0.11191881
192	0x3e73c639	0.23806085
193	0x3c2cfbaa	0.010558048
194	0x3f41d31c	0.7571275
195	0xbe74d8c7	-0.23910819
196	0x3e7352fa	0.23762122
197	0x3e23ba0b	0.15988939
198	0xbf0d21f5	-0.5512994
199	0xbee4e23a	-0.44703847
200	0xbf12a581	-0.5728379
201	0xbe32cbeb	-0.17460601
202	0x3de58fdc	0.112090796
203	0xbecdcad5	-0.4019381
204	0xbe4ac99c	-0.1980347
205	0xbe0b482e	-0.13601753
206	0xbe7e3f6b	-0.2482888
207	0xbe43d393	-0.19123678
208	0xbe1fc959	-0.15604152
209	0xbe02a02c	-0.12756413
210	0x3f900979	1.1252891
211	0x3efbc96c	0.4917711
212	0x3ee70c94	0.45126784
213	0x3f08e12e	0.53468597
214	0x3e33d05a	0.17559949
215	0xbcf48c13	-0.029851949
216	0xbfa50996	-1.289355
217	0x3df96d6f	0.12179076
218	0xbf60b3f8	-0.8777461
219	0xbd3dd88f	-0.046349104
220	0x3d9fa208	0.07794577
221	0xbcf1cb03	-0.029515749
222	0xbf1557bc	-0.58337
223	0x3e629725	0.2212797
224	0x3f3da524	0.7408011
225	0x3eeb21d3	0.45924243
226	0x3e049533	0.1294754
227	0xbcbb3dc8	-0.022856608
228	0xbf684e99	-0.9074493
229	0xbe8e9f5d	-0.2785596
230	0xbe2f7176	-0.17133126
231	0x3ddfc3e1	0.10926033
232	0xbf8c21c6	-1.0947807
233	0xbe6966f9	-0.22793187
234	0x3ec88ae0	0.39168453
235	0x3e8dfada	0.27730447
236	0x3de4926b	0.111607395
237	0xbe7e7e2f	-0.24852823
238	0x3dd4e617	0.10395449
239	0xbc1ba784	-0.009500388
240	0xbea222e7	-0.31667253
241	0x3ed5ce66	0.41759032
242	0xbdf130df	-0.117768995
243	0xbd0789b0	-0.033090293
244	0x3ca4e688	0.020129457
245	0x3ffca7a2	1.9738657
246	0x3e8ed983	0.27900323
247	0xbeec5841	-0.46161082
248	0x3ec9e253	0.39430484
249	0xbf1a5f7b	-0.6030194
250	0x3e98dce5	0.2985603
251	0xbe0c7cd1	-0.13719489
252	0x3f95be20	1.1698647
253	0x3e844101	0.25830844
254	0x3e998e0d	0.2999119
255	0x3e9f80d7	0.31152984
