ConfigToTask/best_inv_model.pt (torch, 191704 bytes, 20 tensors)

lstm.weight_ih_l0 f4 [180, 3]
-0.4690615 -1.3969065 -0.51045465 -0.0970993 1.4392532 -0.031243524 -0.5760271 -0.16922875
-0.6753364 0.58688843 -0.090289466 -0.41032544 -1.4818022 0.39037266 -0.33473882 1.297913
-1.1647995 -0.07691763 1.0400424 -1.1818457 -0.4063437 -1.1651883 -0.22306173 -0.38545188
-1.3449011 -0.0039136526 -0.41834632 0.2639417 0.13685592 -1.2189044 -0.3818063 -0.21717401
-0.36559868 2.8615181 0.5612619 -1.4082136 0.0036518585 0.5623441 -1.57538 1.2271934
-0.82050884 -0.2344035 1.539573 -2.7044091 -0.3779439 0.9786283 -2.0577803 -0.032215647
0.6390592 1.7426122 -0.31390986 1.5169603 1.0674651 -1.7673955 0.6326701 0.031224005
-1.340087 1.1760503 -0.7437673 0.033407886 0.5292933 -1.4541047 -0.7227449 1.2057965
0.97808444 -1.053259 -0.3847233 0.19981885 -0.45207763 1.2359668 -1.0547023 -0.29154912
-0.5600171 0.6958672 -0.50785965 -0.7228237 0.3299132 -0.9882013 1.4583867 0.025703043
-0.65635735 -1.0887209 -0.84347844 -0.11205454 -0.5677016 -1.817106 -0.41325065 1.0373349
1.1300712 -1.0719019 0.41324666 -0.115946464 1.3882989 1.3134053 -0.98878396 -1.1879346
0.7508983 0.29519218 -1.0857891 0.016218992 1.1603725 -0.22049777 1.1845251 -0.33910954
-1.0949972 0.7247891 -1.3524225 0.79570436 0.9683377 -3.0041323 -0.013703855 -0.68645406
-0.22546749 0.37971136 -0.2693448 -1.6393952 -1.8436321 0.7736602 -1.8262187 0.44066206
-0.4554138 0.91392124 -0.29862717 -0.57683784 -0.016993329 0.72039384 1.0179046 -1.2013905
-0.5740608 0.86557335 -0.25779966 -0.8033692 0.27765656 -1.6118709 -0.8437226 -0.46815735
-2.1085298 -1.0659679 -0.9351964 1.3900205 -0.021529404 -0.6205552 0.042913683 -1.3015364
0.7109663 0.11883854 -0.95256615 -0.61280143 0.038017455 -0.62980074 1.3933952 -1.1090653
-0.23731792 0.67431676 -1.0898272 -0.5544782 -1.6324288 0.5140027 -0.12442882 -0.78373927
0.37016118 -0.7491021 -0.38575414 0.1729148 -0.96698177 -1.0486511 -0.0006031295 -0.30497962
1.6695546 0.39002028 -2.0113053 -0.6215202 0.6751291 -1.3678203 1.3861134 -0.69438356
-0.6203507 1.6399745 -2.9208417 -0.82979506 0.5476942 -2.3523076 -0.20266458 0.13025147
2.1733942 -0.6559344 1.5674006 0.98227924 -2.3970032 0.40876672 -0.5191694 -1.8171452
1.1189207 -0.9947309 -0.32514256 0.46934018 -1.3416169 -1.4045722 0.36850163 0.97502124
-1.4961529 -0.8636507 0.8023896 -0.4587936 0.8177112 -0.9954694 -0.49715367 -0.22722378
0.12802859 -0.37775114 -0.7989502 0.83050543 -0.5311295 0.7745149 -0.25938436 -0.70510495
-1.6226658 -0.80233157 -0.019248202 -0.13632575 -1.8034335 -0.39297462 0.8900328 0.43625683
-1.3658005 0.6280914 0.17472924 0.3127854 0.46981922 -1.3942496 -1.3018966 0.90474546
0.551045 -1.1934954 0.36237454 1.7108629 -0.91056263 0.29933444 -0.82793134 -1.2206562
0.5460955 -1.3812027 0.29720423 1.6271539 -3.0093384 -0.72934455 0.23111643 -0.09947288
-0.45454955 -0.9829461 -1.0573602 -1.8115618 0.7013057 -1.8949418 0.06647968 -0.31410006
00000000: d428 f0be d5cd b2bf 28ad 02bf ffdb c6bd
00000010: 7339 b83f 6bf2 ffbc 8376 13bf 4d4a 2dbe
00000020: d9e2 2cbf 523e 163f afe9 b8bd 2d16 d2be
00000030: b2ab bdbf edde c73e e362 abbe 0322 a63f
00000040: 2618 95bf fe86 9dbd 1c20 853f b846 97bf
00000050: 480c d0be e424 95bf 4b6a 64be f359 c5be
00000060: b825 acbf 193e 80bb 7d31 d6be 5e23 873e
00000070: f523 0c3e 0f05 9cbf 1e7c c3be dd62 5ebe
00000080: c02f bbbe 1d23 3740 dcae 0f3f 5840 b4bf
00000090: 0554 6f3b c8f5 0f3f 0da6 c9bf ac14 9d3f
000000a0: de0c 52bf 7907 70be ba10 c53f 0a15 2dc0
000000b0: dd81 c1be 6287 7a3f acb2 03c0 8ef4 03bd
000000c0: 6299 233f eb0d df3f cbb8 a0be c12b c23f
000000d0: b2a2 883f 043a e2bf abf6 213f 7cc9 ff3c
000000e0: f987 abbf d188 963f 8967 3ebf b5d6 083d
000000f0: c47f 073f 1a20 babf cf05 39bf 8a57 9a3f
00000100: be63 7a3f 31d1 86bf 74fa c4be 509d 4c3e
00000110: b876 e7be 2934 9e3f 7c00 87bf ed45 95be
00000120: 485d 0fbf 5a24 323f 1703 02bf f90a 39bf
00000130: 62ea a83e c3fa 7cbf 6aac ba3f 308f d23c
00000140: 0907 28bf 355b 8bbf 34ee 57bf da7c e5bd
00000150: e454 11bf ee96 e8bf 9795 d3be 64c7 843f
00000160: 2ca6 903f 1534 89bf 1195 d33e 5775 edbd
00000170: c7b3 b13f aa1d a83f f220 7dbf 3e0e 98bf
00000180: df3a 403f 6e23 973e 23fb 8abf b1dd 843c
00000190: 1687 943f 2bca 61be 859e 973f c49f adbe
000001a0: de28 8cbf c78b 393f 2e1c adbf 48b3 4b3f
000001b0: fbe4 773f b443 40c0 2286 60bc 74bb 2fbf
000001c0: f3e0 66be 8769 c23e 90e7 89be b4d7 d1bf
000001d0: 23fc ebbf 980e 463f 89c1 e9bf 759e e13e
000001e0: ff2b e9be bef6 693f a9e5 98be a5ab 13bf
000001f0: 9835 8bbc bb6b 383f b34a 823f 2ac7 99bf
00000200: a6f5 12bf 3796 5d3f 51fe 83be 9ba9 4dbf
00000210: 0029 8e3e c951 cebf 34fe 57bf 52b2 efbe
00000220: 27f2 06c0 a371 88bf 0869 6fbf 31ec b13f
00000230: 6f5e b0bc b5dc 1ebf 42c6 2f3d bf98 a6bf
00000240: e301 363f 9f61 f33d 60db 73bf 8ee0 1cbf
00000250: 31b8 1b3d 9f3a 21bf c65a b23f daf5 8dbf
00000260: 7803 73be 06a0 2c3f 757f 8bbf 49f2 0dbf
00000270: 6df3 d0bf ae95 033f 8ad4 febd 23a3 48bf
00000280: c485 bd3e 28c5 3fbf 9181 c5be 9410 313e
00000290: 1e8c 77bf 333a 86bf 561b 1eba 4a26 9cbe
000002a0: f7b3 d53f bdb0 c73e 3ab9 00c0 f31b 1fbf
000002b0: 43d5 2c3f bc14 afbf 2a6c b13f 1fc3 31bf
000002c0: 4ecf 1ebf afea d13f 12ef 3ac0 736d 54bf
000002d0: b035 0c3f 358c 16c0 4e87 4fbe a460 053e
000002e0: e418 0b40 51eb 27bf 95a0 c83f a776 7b3f
000002f0: 8068 19c0 df49 d13e 49e8 04bf 3798 e8bf
00000300: cb38 8f3f afa6 7ebf 1679 a6be 5b4d f03e
00000310: 1aba abbf 06c9 b3bf 3fac bc3e fe9a 793f
00000320: f081 bfbf 3618 5dbf 6869 4d3f ffe6 eabe
00000330: 8555 513f 15d7 7ebf ed8a febe 5aad 68be
00000340: ed19 033e 9968 c1be 0088 4cbf 019c 543f
00000350: 1af8 07bf 9c46 463f 07ce 84be c281 34bf
00000360: 83b3 cfbf 9a65 4dbf 68ae 9dbc fa98 0bbe
00000370: e9d6 e6bf f833 c9be 31d9 633f 0e5d df3e
00000380: 8dd2 aebf 99ca 203f 39ec 323e 6825 a03e
00000390: 258c f03e c576 b2bf 8ca4 a6bf 669d 673f
000003a0: 4911 0d3f 75c4 98bf 2889 b93e 8efd da3f
000003b0: a21a 69bf 5d42 993e 4ff3 53bf 763e 9cbf
000003c0: eacc 0b3f 40cb b0bf 272b 983e 9446 d03f
000003d0: 0099 40c0 53b6 3abf c9a9 6c3e 70b8 cbbd
000003e0: b8ba e8be 5ba2 7bbf 9457 87bf 42e1 e7bf
000003f0: c588 333f 748d f2bf 8026 883d b9d1 a0be

lstm.weight_hh_l0 f4 [180, 45]
0.8878179 -0.08064837 -0.8087226 -0.5494602 0.29177582 0.7267993 0.7640062 0.3486434
0.6659647 0.6517178 0.8637968 0.4411091 0.6957569 -0.5748976 -0.7026335 -0.8611443
-0.41258645 -0.36948436 0.129645 0.2307035 -0.8249477 0.09900215 -0.6864562 0.6582204
0.029532325 -0.026868556 -0.29353604 -0.78447455 -0.23061305 0.3703234 0.32535762 0.19734888
0.11288603 -0.40452334 0.6690747 -0.5257335 0.64372164 -0.2951592 0.32573223 -0.35996047
0.5016582 -0.31364805 -0.46890548 -0.69464636 -1.1636815 0.10486327 0.029617 0.21196891
-0.42083082 0.55826247 0.7498846 0.72170573 -0.32385004 -0.09498279 0.39734936 0.20967805
-0.17798063 0.16874275 -0.3868595 -0.53674024 -0.41345024 0.17760462 -0.022031654 0.16773425
0.5287134 -0.41927698 -0.6555868 0.049029008 0.7331995 0.73329127 0.6421514 -0.55040735
-0.2888358 -0.25780475 0.49455932 0.42388946 0.7039024 0.22689073 -0.13956553 0.7236042
-0.7048428 0.46307507 -0.25471273 0.43480292 -0.7151222 0.65358734 -0.53714126 -0.4573489
-0.641945 -0.42413238 0.40712002 -0.024419114 -0.28891268 0.014759813 -0.10347873 0.010610882
-0.04473165 0.34145513 -0.03746411 0.1496065 0.36358 0.23419762 0.44410864 0.045411855
-0.3203583 -0.48313925 -0.02917466 -0.8577008 -0.24805674 -0.07672037 -0.43371353 -0.021380814
-0.21436934 0.072821915 -0.013070182 0.07707461 0.105408944 -0.5309356 0.096317045 0.10073376
-0.08118879 -0.11332153 -0.029785572 -0.02579294 0.20019978 -0.15705301 0.38300395 -0.12997423
-0.32017016 -0.2972227 0.07628542 0.1326988 0.37354952 -0.013676772 -0.59975904 0.79072815
0.15130399 -0.48959047 -0.45444432 -0.25752422 0.49190608 0.109081216 -0.08009785 0.8284818
-0.09667414 0.1180207 0.16991308 0.03425266 -0.30622143 -0.20171396 -0.09082059 0.061716158
-2.1046627 -0.272828 -0.047342528 -0.2608381 0.46091175 -0.4327567 0.13402222 -0.4124714
-0.73823774 0.3443472 -0.11134594 -0.124628924 -0.59173286 0.17685238 0.25718388 0.5862667
-0.42046002 0.1536836 -0.53580505 0.55471885 -0.96973485 0.15237527 -0.72358024 0.071670696
0.7665945 -0.12430747 -0.10137308 -0.11086356 -0.16992666 -0.49547794 0.32337993 0.20800924
0.14457338 -0.029036047 -0.30844897 0.06986576 -0.398557 -0.2043092 0.12046975 0.21335196
0.17640582 0.23889841 0.26167285 0.22548507 -0.19070098 -0.62776744 0.18942423 -0.008626382
0.030735835 0.059662763 0.05195652 -0.06589808 -0.008512525 -0.1204953 0.60689175 -0.3329594
0.2520984 -0.19400956 -0.031746786 0.1316527 0.08040788 -0.044566058 0.16463166 -0.11768497
0.00013582753 0.35233924 -0.23611313 -0.049655028 -0.2281742 0.09183983 0.4263032 0.27755308
0.050063275 0.92134327 0.13297449 -1.0787413 -0.63948494 -0.39920232 0.09076797 0.22834913
0.02865833 0.61721516 0.08851332 0.21977739 -0.54882884 0.41463363 0.095810115 -0.15961784
-0.013345218 -0.3628026 -0.82231957 -0.24073248 -0.21677211 -0.76777136 0.12145609 -0.72092634
0.034410533 -0.4520911 -0.8794781 0.086275905 -0.2697562 -0.29011852 -0.051948745 0.060356434
00000000: 0948 633f f92a a5bd 7208 4fbf 6ca9 0cbf
00000010: a463 953e 850f 3a3f e995 433f 6381 b23e
00000020: aa7c 2a3f fad6 263f c921 5d3f 0dd9 e13e
00000030: 201d 323f 7d2c 13bf cadf 33bf f473 5cbf
00000040: 883e d3be 0e2d bdbe a9c1 043e 8a3d 6c3e
00000050: c62f 53bf a4c1 ca3d 98bb 2fbf 2281 283f
00000060: c6ed f13c 721b dcbc 5b4a 96be 53d3 48bf
00000070: d425 6cbe 079b bd3e 4695 a63e d315 4a3e
00000080: ca30 e73d af1d cfbe 7b48 2b3f 7896 06bf
00000090: f1ca 243f 1b1f 97be 60c6 a63e bd4c b8be
000000a0: ac6c 003f 7a96 a0be 6114 f0be 58d4 31bf
000000b0: 84f3 94bf 8ec2 d63d 5a9f f23c 610e 593e
000000c0: 2377 d7be 4aea 0e3f 70f8 3f3f b5c1 383f
000000d0: accf a5be 5686 c2bd 6071 cb3e d8b5 563e
000000e0: 8e40 36be e6ca 2c3e 7312 c6be cf67 09bf
000000f0: c0af d3be fcdd 353e ba7b b4bc 87c2 2b3e
00000100: c359 073f 79ab d6be 89d4 27bf a4d2 483d
00000110: f6b2 3b3f fab8 3b3f 0964 243f 7fe7 0cbf
00000120: 49e2 93be fcfe 83be e136 fd3e 0a08 d93e
00000130: f332 343f 0b56 683e 44ea 0ebe 203e 393f
00000140: 9470 34bf 2d18 ed3e b569 82be 7d9e de3e
00000150: 4012 37bf 8051 273f 1782 09bf a329 eabe
00000160: 8256 24bf e127 d9be 0972 d03e 980a c8bc
00000170: 5dec 93be 25d3 713c a8ec d3bd 44d9 2d3c
00000180: 8938 37bd 35d3 ae3e f773 19bd 7232 193e
00000190: 2827 ba3e 80d1 6f3e 3562 e33e c801 3a3d
000001a0: 0106 a4be 075e f7be b2ff eebc 4892 5bbf
000001b0: 9602 7ebe 921f 9dbd b30f debe d126 afbc
000001c0: a383 5bbe a823 953d 5124 56bc 4bd9 9d3d
000001d0: a5e0 d73d 65eb 07bf df41 c53d 804d ce3d
000001e0: 4f46 a6bd 1e15 e8bd df00 f4bc b74b d3bc
000001f0: 2c01 4d3e 81d2 20be 1819 c43e f717 05be
00000200: 58ed a3be 932d 98be 883b 9c3d 32e2 073e
00000210: e241 bf3e 8a14 60bc cf89 19bf 296d 4a3f
00000220: 6fef 1a3e 9aab fabe edac e8be 37da 83be
00000230: 1ddb fb3e f965 df3d 570a a4bd 6217 543f
00000240: 17fd c5bd d6b4 f13d b2fd 2d3e 844c 0c3d
00000250: 0ec9 9cbe 1b8e 4ebe 2500 babd 15ca 7c3d
00000260: cbb2 06c0 1db0 8bbe 3dea 41bd 928c 85be
00000270: a0fc eb3e 4992 ddbe 1f3d 093e 742f d3be
00000280: 26fd 3cbf 474e b03e 5709 e4bd 733d ffbd
00000290: ce7b 17bf ca18 353e 9bad 833e 9315 163f
000002a0: 8946 d7be 3c5f 1d3e 852a 09bf 0e02 0e3f
000002b0: 8b40 78bf 4308 1c3e 8e3c 39bf 16c8 923d
000002c0: 8a3f 443f ea94 febd b09c cfbd 6f0c e3bd
000002d0: 4101 2ebe 49af fdbe 0e92 a53e 6000 553e
000002e0: 0b0b 143e 01dd edbc 06ed 9dbe c815 8f3d
000002f0: aa0f ccbe 6e36 51be d8b8 f63d f078 5a3e
00000300: baa3 343e c9a1 743e fcf9 853e 8fe5 663e
00000310: 1e47 43be 5eb5 20bf 6df8 413e ab55 0dbc
00000320: b8c9 fb3c f160 743d 5cd0 543d 93f5 86bd
00000330: 1e78 0bbc 3dc6 f6bd 425d 1b3f a879 aabe
00000340: 0b13 813e 71aa 46be eb08 02bd f7cf 063e
00000350: e3ac a43d e68a 36bd 3495 283e d104 f1bd
00000360: ed6c 0e39 cf65 b43e a4c7 71be 1263 4bbd
00000370: 7fa6 69be 8516 bc3d 6a44 da3e 701b 8e3e
00000380: 260f 4d3d 27dd 6b3f 772a 083e 3214 8abf
00000390: 49b5 23bf 3f64 ccbe 8fe4 b93d 5bd4 693e
000003a0: e0c4 ea3c d001 1e3f 7946 b53d 530d 613e
000003b0: 0c80 0cbf dc4a d43e 1838 c43d dc72 23be
000003c0: e7a5 5abc 43c1 b9be 8983 52bf 9382 76be
000003d0: 82f9 5dbe aa8c 44bf f8bd f83d a18e 38bf
000003e0: 0ff2 0c3d 7c78 e7be 7a25 61bf 6cb1 b03d
000003f0: 7c1d 8abe 6a8a 94be 35c8 54bd 4f38 773d

lstm.bias_ih_l0 f4 [180]
-0.35776615 -0.01611797 -0.6062384 -0.376381 -0.21503651 -0.37574157 -0.504322 -0.5622721
-0.07553945 -1.2125351 -0.5788658 -1.278621 -1.4481704 -0.32983273 -0.5551726 -0.093463756
-0.29887107 -1.0396008 -1.0229305 -0.123733535 -0.7409627 -0.73257107 -0.23949246 -0.36788055
-0.02910444 -0.83380103 -0.4684752 -0.16392231 -0.35818598 -0.8484888 1.2175242 -1.0789648
-0.91684645 -0.1887227 -1.3602723 0.66009396 -0.3441742 0.81048375 -1.3631437 0.4336103
-0.147727 1.1204624 -0.7763694 -0.9472419 -0.9646055 -0.68408793 -0.03548499 -1.0703483
-0.9079538 -0.25947863 -0.39735162 -0.34500128 -0.021620458 -0.50079495 -0.868706 -0.3118906
-0.7429773 -1.1176839 -0.5449082 -0.7927479 -0.15705433 -0.62152004 -0.82582945 -0.7914746
-0.48073187 -1.4477775 -0.5698735 -0.3461489 -0.54777455 -0.34237078 -0.076065436 -0.7313156
-0.05761256 -0.38099682 -1.036373 0.035513047 -0.9058687 -1.1800301 -0.7304185 -0.9974471
0.05363198 -0.65175384 -0.13686353 -0.871123 -0.043005265 -0.23197833 0.18648306 -0.8535441
-1.0299261 -0.6602611 0.0417798 0.099828 0.036050837 -0.11568111 -0.11281218 -0.12975778
0.07175648 0.0021588055 -0.026845245 -0.13915746 0.096858226 0.014206458 0.15163463 -0.085379116
-0.030864058 0.04389566 0.047878146 -0.02747676 0.032205895 0.015601519 0.06581523 -0.04162178
0.15254526 -0.08016678 0.044496637 -0.007579402 0.0028574693 0.023095015 0.021113409 0.09723304
0.11712637 -0.0031744991 -0.080468 -0.01580684 0.10371307 -0.080172196 -0.005151881 -0.009728144
0.067940526 0.082477115 -0.0020588674 -0.044665124 0.075172506 -0.120609045 -0.00899992 -0.40155593
-0.09551844 -0.7417986 -0.49725953 -0.11543319 -0.24645649 -0.50790006 -0.25075436 0.0054663965
-1.2120428 -0.6761828 -1.1255472 -1.4698586 -0.43341362 -0.49482387 -0.22072421 -0.20540802
-0.8252724 -0.9843311 0.026388917 -0.74205244 -0.6087027 -0.24435805 -0.42776683 0.053549614
-0.73266244 -0.5193514 -0.23293108 -0.44051188 -0.83462346 1.110513 -1.0110223 -0.97200066
-0.21990044 -1.0995188 0.598653 -0.19382818 0.9760755 -1.4499439 0.44837168 -0.22310916
1.1507534 -0.7605839 -1.0909243 -0.99237126
00000000: 202d b7be d509 84bc 7132 1bbf 03b5 c0be
00000010: 8832 5cbe 3361 c0be 3f1b 01bf 10f1 0fbf
00000020: 6db4 9abd 5a34 9bbf 8d30 14bf daa9 a3bf
00000030: a65d b9bf d6df a8be cb1f 0ebf ed69 bfbd
00000040: a105 99be a411 85bf 63ef 82bf 0268 fdbd
00000050: bbaf 3dbf c789 3bbf 833d 75be d75a bcbe
00000060: 6f6c eebc fc73 55bf fbdb efbe 40db 27be
00000070: 2764 b7be 9036 59bf d5d7 9b3f 851b 8abf
00000080: 73b6 6abf 8640 41be 671d aebf ebfb 283f
00000090: 9a37 b0be dd7b 4f3f 7e7b aebf 2b02 de3e
000000a0: bf45 17be 506b 8f3f 25c0 46bf 727e 72bf
000000b0: 63f0 76bf 6320 2fbf b558 11bd 2c01 89bf
000000c0: a96f 68bf 62da 84be ac71 cbbe 02a4 b0be
000000d0: 631d b1bc 1934 00bf 8463 5ebf 20b0 9fbe
000000e0: c333 3ebf 4410 8fbf 1b7f 0bbf 87f1 4abf
000000f0: dad2 20be f01b 1fbf 8f69 53bf 149e 4abf
00000100: 7d22 f6be c650 b9bf 3be3 11bf 6e3a b1be
00000110: f43a 0cbf 394b afbe 32c8 9bbd 8037 3bbf
00000120: 26fb 6bbd 0412 c3be dfa7 84bf 2176 113d
00000130: 03e7 67bf 3a0b 97bf b5fc 3abf b158 7fbf
00000140: 35ad 5b3d 57d9 26bf f425 0cbe eb01 5fbf
00000150: 4a26 30bd ba8b 6dbe 6af5 3e3e de81 5abf
00000160: 9ed4 83bf df06 29bf 4c21 2b3d 9f72 cc3d
00000170: 0baa 133d 38ea ecbd 120a e7bd 39df 04be
00000180: 10f5 923d bf7a 0d3b 8fea dbbc 4b7f 0ebe
00000190: 9b5d c63d 34c2 683c 1c46 1b3e 3fdb aebd
000001a0: 9fd6 fcbc f0cb 333d e01b 443d f116 e1bc
000001b0: 54ea 033d 839d 7f3c 23ca 863d 997b 2abd
000001c0: d334 1c3e 7b2e a4bd 1b42 363d a25c f8bb
000001d0: 6144 3b3b c231 bd3c 07f6 ac3c 1e22 c73d
000001e0: f3df ef3d 420b 50bb 68cc a4bd 597d 81bc
000001f0: 8567 d43d 5231 a4bd 1cd1 a8bb cb62 1fbc
00000200: 6724 8b3d c3e9 a83d 10ee 06bb c7f2 36bd
00000210: 0bf4 993d e001 f7bd 6774 13bc bd98 cdbe
00000220: 2c9f c3bd 83e6 3dbf cd98 febe 3c68 ecbd
00000230: 175f 7cbe bd05 02bf e062 80be 751f b33b
00000240: 3824 9bbf 511a 2dbf ee11 90bf 5424 bcbf
00000250: 64e8 ddbe 8e59 fdbe 8705 62be 7b56 52be
00000260: 0d45 53bf 1ffd 7bbf 922d d83c 26f7 3dbf
00000270: f1d3 1bbf ff38 7abe 4104 dbbe d756 5b3d
00000280: c48f 3bbf 37f4 04bf 7c85 6ebe c68a e1be
00000290: e2a9 55bf 4a25 8e3f 2e69 81bf 09d5 78bf
000002a0: 952d 61be 08bd 8cbf 5341 193f e57a 46be
000002b0: 15e0 793f c397 b9bf f990 e53e ba76 64be
000002c0: e34b 933f a0b5 42bf 68a3 8bbf 0b0c 7ebf

lstm.bias_hh_l0 f4 [180]
-0.3563095 -0.24017033 -0.76364416 -0.4357077 -0.055527568 -0.36090767 -0.47491267 -0.3853365
-0.109787844 -1.2447739 -0.57514495 -1.0665601 -1.5362785 -0.43472987 -0.6685151 -0.19170131
-0.058774963 -0.9252034 -1.0676397 -0.113766365 -0.9106323 -0.58915824 -0.21491615 -0.43863568
-0.07888061 -0.68216866 -0.56294817 -0.045709636 -0.29574177 -0.9786437 1.121201 -1.0765959
-0.8600523 -0.20767406 -1.1193808 0.4993128 -0.12683688 0.67408806 -1.4280148 0.2471551
-0.10243235 0.99973893 -0.8858036 -0.83930993 -0.7922244 -0.66798925 -0.15476164 -1.0558683
-0.8805154 -0.20569144 -0.2663259 -0.40617985 -0.069457725 -0.4073784 -1.0770679 -0.56570995
-0.84879607 -1.2001407 -0.5573703 -0.6073364 -0.15261962 -0.57539546 -0.7043957 -0.7279396
-0.33399093 -1.4261594 -0.5713641 -0.43773893 -0.4430935 -0.27858567 -0.21870336 -0.591005
-0.09831183 -0.50016844 -0.91180056 0.15719469 -0.8397494 -1.150677 -0.79476297 -1.0038528
0.13368915 -0.61677 -0.33241233 -0.9901479 -0.14932406 -0.2137358 0.14940478 -0.83314013
-0.80615705 -0.54510885 -0.06781425 -0.094696715 -0.06595161 0.12011129 0.104037836 0.11565033
-0.039253455 0.023336373 0.037886586 0.14936829 -0.1076509 -0.027872512 -0.1394767 0.051481202
-0.026009243 -0.086372994 -0.01756041 0.022369843 0.008247479 0.023118077 -0.037666015 0.04553537
-0.1283707 0.086015396 -0.010636865 0.057626452 -0.053704992 5.8006557e-05 -0.062480986 -0.12941185
-0.085569344 0.011959006 0.10334798 0.009056795 -0.06948351 0.06457954 0.022204481 -0.03612444
-0.068163626 -0.08636847 0.009207126 0.048095528 -0.10334948 0.094870284 0.030891337 -0.5783015
-0.12000299 -0.6097086 -0.47607404 -0.14689274 -0.27557442 -0.26827785 -0.19104993 0.16109762
-1.0861391 -0.6352678 -1.0290556 -1.4943042 -0.24889566 -0.5352568 -0.39151785 -0.043097444
-0.9689269 -1.1150374 0.049330544 -0.9681895 -0.53615195 -0.48983595 -0.46985883 -0.2055662
-0.64413434 -0.55108976 -0.18636072 -0.31239825 -1.0388107 1.1284059 -0.9649302 -0.9772639
-0.26370302 -1.2346097 0.59960175 -0.2415625 0.9863415 -1.2254584 0.32915828 -0.32777065
1.1726793 -0.7219288 -1.0080094 -0.8709608
00000000: 336e b6be 36ef 75be 2f7e 43bf 1415 dfbe
00000010: e070 63bd e4c8 b8be c127 f3be d34a c5be
00000020: 73d8 e0bd c054 9fbf b33c 13bf 0b85 88bf
00000030: c6a4 c4bf ea94 debe ce23 2bbf 594d 44be
00000040: 04be 70bd 21da 6cbf 6ba8 88bf 57fe e8bd
00000050: 331f 69bf 13d3 16bf fb12 5cbe db94 e0be
00000060: 288c a1bd 9ba2 2ebf 5f1d 10bf 073a 3bbd
00000070: 776b 97be 6588 7abf 8483 8f3f e5cd 89bf
00000080: 632c 5cbf 82a8 54be df47 8fbf eda5 ff3e
00000090: 87e1 01be 0991 2c3f 30c9 b6bf 3a16 7d3e
000000a0: 0dc8 d1bd e4ee 7f3f 06c4 62bf 04dd 56bf
000000b0: 38cf 4abf 5801 2bbf d679 1ebe b126 87bf
000000c0: 7569 61bf c7a0 52be de5b 88be cef6 cfbe
000000d0: da3f 8ebd e793 d0be 5cdd 89bf 5ed2 10bf
000000e0: b34a 59bf 369e 99bf d2af 0ebf 667a 1bbf
000000f0: 5148 1cbe 1e4d 13bf 4753 34bf 405a 3abf
00000100: dc00 abbe 648c b6bf eb44 12bf 511f e0be
00000110: 27dd e2be c8a2 8ebe c6f3 5fbe 1b4c 17bf
00000120: b657 c9bd 0a0b 00bf c36b 69bf a5f7 203e
00000130: d1f9 56bf 6249 93bf 9675 4bbf 407e 80bf
00000140: cfe5 083e a4e4 1dbf f331 aabe 557a 7dbf
00000150: 68e8 18be 8fdd 5abe 91fd 183e ac48 55bf
00000160: 4f60 4ebf 418c 0bbf 33e2 8abd 5af0 c1bd
00000170: a311 87bd e8fc f53d ca11 d53d 15da ec3d
00000180: 3bc8 20bd ec2b bf3c f72e 1b3d 00f4 183e
00000190: 1378 dcbd e554 e4bc fbd2 0ebe f4dd 523d
000001a0: 5611 d5bc 53e4 b0bd d9da 8fbc f640 b73c
000001b0: 6f20 073c 1f62 bd3c ae47 1abd 4c83 3a3d
000001c0: 9c73 03be d728 b03d 3f46 2ebc b709 6c3d
000001d0: c4f9 5bbd 114c 7338 10ec 7fbd 8a84 04be
000001e0: fb3e afbd b5ef 433c 1ba8 d33d f462 143c
000001f0: 5f4d 8ebd 4742 843d 2ce6 b53c 39f7 13bd
00000200: 5f99 8bbd f4e1 b0bd 7cd9 163c d1ff 443d
00000210: e4a8 d3bd 5a4b c23d d40f fd3c 910b 14bf
00000220: 21c4 f5bd dd15 1cbf fabf f3be 0d6b 16be
00000230: 1718 8dbe b75b 89be 98a2 43be c6f6 243e
00000240: 9b06 8bbf e9a0 22bf 18b8 83bf 5c45 bfbf
00000250: 81de 7ebe 9706 09bf 0775 c8be f286 30bd
00000260: 980b 78bf 8cb9 8ebf d30e 4a3d 44db 77bf
00000270: 4141 09bf c7cb fabe 5691 f0be f27f 52be
00000280: fde5 24bf 3814 0dbf 58d5 3ebe aaf2 9fbe
00000290: c0f7 84bf 9b6f 903f aa05 77bf f82d 7abf
000002a0: 1504 87be b107 9ebf 807f 193f 295c 77be
000002b0: e080 7c3f d2db 9cbf 6f87 a83e 8ed1 a7be
000002c0: 5b1a 963f 53d0 38bf 7406 81bf 49f7 5ebf

lstm.weight_ih_l1 f4 [180, 45]
0.66482264 -0.71151024 -0.96175855 -0.9806758 -1.1344901 0.7392535 0.4640364 0.47044697
0.41934958 0.48904425 0.40839213 0.35389137 0.29499105 -0.881378 -0.7582478 -0.46494657
-0.6042205 -0.55668014 0.034809936 0.6492931 -0.5170358 -0.24798961 -0.6625034 0.5851516
-0.4218193 -0.076345354 -0.5447594 -0.40511966 -0.47118807 -0.06991153 0.7082693 0.45727426
1.1164259 -1.0634307 0.75852805 -0.6922128 1.1157609 -0.8114667 0.61823744 -0.71455157
0.01206025 -0.057399113 -0.88816124 -0.57082826 -0.71901304 0.08236109 -0.064485274 0.08040738
0.45942995 0.8456089 -0.04050494 -0.0066016247 0.5113334 -0.8119854 -0.016083306 -0.11382417
-0.47574347 -0.13078812 0.027764175 0.011129487 0.2147895 0.20457557 0.47437525 0.0735552
-0.15372387 0.09101788 0.42969996 -0.013343974 -0.3010926 0.6557813 0.91585463 0.2652755
-0.24589479 0.3759797 -0.09530972 0.039718352 -0.1573583 -0.7380134 0.45433903 -0.3782065
0.33142057 -0.065808155 1.1088963 -0.3506307 0.57327706 -0.2009531 -1.3321519 0.077319264
0.17486568 0.030422987 0.40056223 -0.2651421 -0.31173366 0.38303792 0.357405 0.09201723
0.23727296 0.3591174 -0.717559 -0.048260093 -0.09358096 0.09757381 -0.20396493 -0.317108
-0.2066402 0.095164575 0.094551004 0.31969061 0.3020616 0.36534685 -0.098879516 0.041250613
-0.30412564 -0.22159608 0.7188904 0.62147325 -0.324511 0.17310797 -0.1411014 0.21437617
0.1498464 0.03842177 -0.42216197 -0.041181862 0.026575312 -0.081870966 -0.065653324 1.9313769
0.88247216 -0.15191023 0.5037791 -1.6215031 -0.53133833 -0.108969614 0.104296654 0.4972487
-0.35431466 -0.4619353 0.21611667 -0.29300657 0.30460274 0.40049306 0.6402607 0.6145917
0.112873286 0.39470822 -0.64300555 -0.10137024 -0.21140388 -0.46158823 -0.73379266 -0.07787985
-0.52905595 -0.45576712 -0.086911865 -0.18818547 0.8076838 -0.5978677 0.2491208 -0.60433596
-0.283332 0.41605452 -0.5909155 -0.5085028 -0.29264 0.3216272 -0.069319956 -0.27690387
0.07722856 -0.045306236 -0.5269545 0.12600046 -0.72620285 0.16195339 -0.062251613 -0.3428593
0.74536455 -0.3244761 -0.13846317 -0.37026703 -0.07468684 -0.30039412 0.14314468 0.14397651
1.1359569 0.07329027 0.14409944 0.3583717 -1.3370973 0.47114632 0.08216011 -0.78959286
0.30828822 -0.016268361 0.035523795 0.32904592 0.12931547 0.8914783 0.70992327 0.74421436
0.062672295 -0.5327454 -0.00023753208 -0.114686504 1.4830517 0.992719 -0.62980235 -0.099268205
0.42825472 1.1021668 0.54781127 0.111548 -0.31167138 0.1425047 0.6071677 -0.14837432
-0.23708278 1.7375468 0.23561855 -0.46106738 1.29186 -1.8818595 0.2831967 -0.134204
-0.02670569 -0.15184784 -0.20268832 0.30864298 0.36960733 0.051702894 -0.5036522 -0.3123218
0.21804109 -0.87064874 -0.36760908 -0.24004985 -0.22696948 -0.28625014 0.47993472 0.27799377
0.35716337 0.4268414 0.4809056 -0.124315076 -0.09389568 0.29225215 -0.22475176 0.11670603
-0.2527648 0.19447567 0.2888066 -0.062278535 0.08081934 0.44751745 -0.01664741 -0.30511084
00000000: d131 2a3f 8925 36bf cf35 76bf 920d 7bbf
00000010: f936 91bf b83f 3d3f 2e96 ed3e 6dde f03e
00000020: fdb4 d63e 0264 fa3e c618 d13e 4031 b53e
00000030: 1109 973e fda1 61bf 871c 42bf 7a0d eebe
00000040: 32ae 1abf 9782 0ebf dd94 0e3d 1338 263f
00000050: 755c 04bf fdf0 7dbe d399 29bf 7fcc 153f
00000060: b3f8 d7be f45a 9cbd 5a75 0bbf d86b cfbe
00000070: 903f f1be c72d 8fbd 2351 353f da1f ea3e
00000080: 0be7 8e3f 7f1e 88bf e52e 423f dc34 31bf
00000090: 41d1 8e3f 48bc 4fbf cf44 1e3f daec 36bf
000000a0: 5b98 453c 551b 6bbd 895e 63bf cd21 12bf
000000b0: 3d11 38bf eeac a83d db10 84bd a0ac a43d
000000c0: 673a eb3e d379 583f 82e8 25bd 7152 d8bb
000000d0: bfe6 023f 46de 4fbf 23c1 83bc a51c e9bd
000000e0: a694 f3be 52ed 05be b271 e33c 7458 363c
000000f0: c7f1 5b3e 427c 513e 50e1 f23e 1ca4 963d
00000100: ca69 1dbe 9567 ba3d a201 dc3e afa0 5abc
00000110: cf28 9abe 49e1 273f 7375 6a3f 31d2 873e
00000120: d8cb 7bbe 6980 c03e be31 c3bd b6af 223d
00000130: 8922 21be 72ee 3cbf 209f e83e 48a4 c1be
00000140: f5af a93e 6dc6 86bd 50f0 8d3f de85 b3be
00000150: 49c2 123f a6c6 4dbe f483 aabf 9059 9e3d
00000160: fd0f 333e a139 f93c 7e16 cd3e b5c0 87be
00000170: 8e9b 9fbe 8c1d c43e cafd b63e 8873 bc3d
00000180: aff7 723e 3cde b73e f2b1 37bf 60ac 45bd
00000190: 60a7 bfbd c7d4 c73d 2fdc 50be fb5b a2be
000001a0: 7d99 53be a5e5 c23d f5a3 c13d 7dae a33e
000001b0: d1a7 9a3e be0e bb3e 5881 cabd 67f6 283d
000001c0: 5bb6 9bbe 15ea 62be 3409 383f df18 1f3f
000001d0: 4e26 a6be 3743 313e e37c 10be 6d85 5b3e
000001e0: 5671 193e 2560 1d3d 9d25 d8be 50ae 28bd
000001f0: 78b4 d93c f7ab a7bd 4075 86bd 5c37 f73f
00000200: b2e9 613f 5b8e 1bbe abf7 003f 6a8d cfbf
00000210: ca05 08bf 762b dfbd 7c99 d53d 6297 fe3e
00000220: bb68 b5be c982 ecbe b04d 5d3e f504 96be
00000230: e4f4 9b3e 6d0d cd3e 20e8 233f e255 1d3f
00000240: 1c2a e73d 3217 ca3e 039c 24bf 339b cfbd
00000250: 427a 58be 4b55 ecbe d6d9 3bbf 797f 9fbd
00000260: 3670 07bf 4f5a e9be d9fe b1bd b1b3 40be
00000270: 5ec4 4e3f dc0d 19bf 8619 7f3e c3b5 1abf
00000280: e410 91be 1905 d53e 3d46 17bf 3d2d 02bf
00000290: e9d4 95be 52ac a43e 9ff7 8dbd 58c6 8dbe
000002a0: 022a 9e3d 0893 39bd 7de6 06bf 4406 013e
000002b0: 6ee8 39bf 1cd7 253e 8cfb 7ebd 418b afbe
000002c0: 36d0 3e3f bb21 a6be 4ac9 0dbe a493 bdbe
000002d0: 6af5 98bd 42cd 99be 8594 123e 946e 133e
000002e0: 0967 913f 3619 963d ce8e 133e 7f7c b73e
000002f0: 0126 abbf 173a f13e 8f43 a83d c222 4abf
00000300: f4d7 9d3e 3a45 85bc 6681 113d b578 a83e
00000310: 466b 043e ec37 643f 88bd 353f d584 3e3f
00000320: 555a 803d 0162 08bf 0812 79b9 c2e0 eabd
00000330: a3d4 bd3f d522 7e3f ba3a 21bf 214d cbbd
00000340: 3444 db3e cd13 8d3f 5c3d 0c3f 4773 e43d
00000350: 6493 9fbe c1ec 113e 586f 1b3f 70ef 17be
00000360: d4c5 72be ef67 de3f fd45 713e 0611 ecbe
00000370: ab5b a53f c6e0 f0bf 28ff 903e c66c 09be
00000380: e4c5 dabc 007e 1bbe 878d 4fbe 7406 9e3e
00000390: 2c3d bd3e 6ac6 533d 5aef 00bf a5e8 9fbe
000003a0: 2a46 5f3e d6e2 5ebf 4237 bcbe a1cf 75be
000003b0: b06a 68be 618f 92be 01ba f53e 3355 8e3e
000003c0: 1ede b63e f58a da3e 4239 f63e e798 febd
000003d0: 614c c0bd 13a2 953e 5325 66be 9203 ef3d
000003e0: 636a 81be a124 473e 75de 933e c717 7fbd
000003f0: 9c84 a53d 0221 e53e 2660 88bc 7d37 9cbe

lstm.weight_hh_l1 f4 [180, 45]
-0.55466384 0.2588813 0.45616397 -0.5492369 0.7404179 0.74247986 -0.22928771 0.057155207
-0.39171508 0.16250595 -0.47735468 -0.04980779 0.01413935 0.12347775 0.19615161 0.39509907
0.040191945 -0.25556728 0.2914203 -0.04119033 0.15366898 0.56773114 -0.9673928 0.10301745
-0.1267997 -0.009395432 0.12745546 -0.42280325 0.38099262 0.14772002 -0.7775903 0.4110338
0.21883523 0.47614416 0.42964408 0.5357833 -0.031872593 0.26168373 -0.0009146061 0.25645137
0.3356367 0.3611209 -0.32112256 -0.17717683 0.09630661 -0.5616029 0.27584174 0.07378706
0.03464928 -0.06957156 0.2645184 0.23490363 -0.14880364 -0.41765684 -0.38756746 -0.34832382
-0.022717925 -0.2507154 0.0079248585 -0.35079253 0.16405046 0.10255144 -0.4490225 -0.07491126
-0.06208174 0.031196607 -0.26997092 -0.20461845 -0.33930224 0.19518687 -0.41667873 -0.07221095
0.21424776 0.38634846 -0.36763334 -0.18622763 0.6267543 0.42380503 0.089453615 -0.35733178
-0.1714119 0.1238376 -0.37743807 0.95368934 -0.40513763 0.31658202 0.7480695 0.110171825
-0.2845511 0.17611435 0.31049514 0.0064638294 0.14136454 -0.66408175 -0.29302114 -0.048993
-0.16559091 -0.18263294 0.38548887 -0.40788573 -0.103294276 -0.20002909 -0.060326535 -0.18733644
-0.041213885 -0.3812518 -0.5429368 0.20799486 0.19059825 0.7140536 0.6686098 -0.13451894
0.0099453395 0.005919121 -0.000106445535 0.10139458 0.37072477 0.059222776 0.027461665 0.33798492
0.123966165 0.2849192 0.17610838 0.12203218 -0.12434857 -0.042669058 -0.37299046 0.4228214
-0.46540457 0.06870066 0.16973945 -0.030590462 -0.7209333 -0.2646904 -0.0733683 0.36296564
0.46216917 0.33292183 -0.1852297 0.56080633 0.7370966 -0.30716038 0.6719153 -0.80922717
0.2738612 -0.71643394 -0.5955364 -0.05539745 0.17368135 0.15235646 0.46042588 -0.024602825
0.76267797 -0.8174283 0.20485167 0.39139736 0.5053545 -1.1008648 0.20242295 -0.26824886
-0.2261595 0.074526474 0.049413923 0.23010658 -0.28256714 0.35810852 0.1869768 0.28857777
-0.11347928 0.21368937 0.37335023 -0.0040151863 -0.004517495 -0.30295083 0.55723435 0.092345335
-0.2679805 -0.4497514 0.6990093 0.22151688 -0.30079675 0.08874765 0.38664645 -0.20666595
0.02291992 0.43565875 0.8218554 -0.1673378 -0.044632874 -0.42142576 -0.16055113 0.21418615
0.13714752 0.35978708 0.043824278 -0.3254471 -0.13334179 0.038108677 0.3362023 0.3836612
0.21572694 0.16436325 -0.24132666 0.44565377 -0.076907195 -0.10908478 -0.52907753 -0.22292463
-0.02192436 -0.19754773 0.028678143 0.6033698 0.314346 0.17692913 0.19401687 0.43036333
0.035261262 -0.24623407 0.32879317 -0.016636427 0.16553833 0.68532145 -0.34180185 -0.108833045
-0.07302582 -0.76388997 0.030055549 -0.071855605 -0.37294635 -0.031752594 -0.2866065 0.5900063
0.13399765 0.75527126 -0.5225637 0.50096077 0.43126178 -0.30054322 -0.36767536 0.26723713
-0.8875263 -0.43855888 -0.3764957 -0.17475612 0.33040267 0.81458414 0.7461005 0.3780896
0.06499056 0.09186735 0.40220746 0.2798822 -0.42887282 0.029001739 0.48049155 1.0822942
00000000: 73fe 0dbf 178c 843e 538e e93e ca9a 0cbf
00000010: 078c 3d3f 2913 3e3f 66ca 6abe 941b 6a3d
00000020: e18e c8be f667 263e d567 f4be 4103 4cbd
00000030: bba8 673c e7e1 fc3d f8db 483e 6d4a ca3e
00000040: 4fa0 243d b7d9 82be 0b35 953e 31b7 28bd
00000050: 675b 1d3e d456 113f 0ea7 77bf d0fa d23d
00000060: c8d7 01be 4cef 19bc af83 023e ab79 d8be
00000070: 7711 c33e eb43 173e 2810 47bf 0673 d23e
00000080: 5816 603e 2bc9 f33e 4ffa db3e 1829 093f
00000090: d68c 02bd 69fb 853e 2dc2 6fba 984d 833e
000000a0: 93d8 ab3e d7e4 b83e 2d6a a4be d86d 35be
000000b0: 663c c53d 35c5 0fbf 213b 8d3e ac1d 973d
000000c0: 67ec 0d3d 897b 8ebd f56e 873e 948a 703e
000000d0: fb5f 18be 1ed7 d5be 3e6f c6be 8057 b2be
000000e0: f11a babc c55d 80be 44d7 013c 149b b3be
000000f0: d8fc 273e 7d06 d23d 47e6 e5be 136b 99bd
00000100: 6c49 7ebd 0790 ff3c a139 8abe 8087 51be
00000110: 06b9 adbe 11df 473e ea56 d5be 56e3 93bd
00000120: c463 5b3e 77cf c53e 703a bcbe 75b2 3ebe
00000130: f872 203f f9fc d83e 7533 b73d 31f4 b6be
00000140: 9a86 2fbe 919e fd3d 903f c1be fc24 743f
00000150: 336e cfbe 0a17 a23e 7c81 3f3f c4a1 e13d
00000160: afb0 91be 5257 343e 38f9 9e3e 88ce d33b
00000170: dec1 103e 4301 2abf de06 96be e2ac 48bd
00000180: aa90 29be 2104 3bbe cc5e c53e 66d6 d0be
00000190: f38b d3bd 6dd4 4cbe f518 77bd 20d5 3fbe
000001a0: e4cf 28bd 7033 c3be e8fd 0abf 9bfc 543e
000001b0: 302c 433e 37cc 363f 032a 2b3f 55bf 09be
000001c0: c7f1 223c 30f5 c13b 833b dfb8 f6a7 cf3d
000001d0: a3cf bd3e 9593 723d 49f7 e03c 5c0c ad3e
000001e0: f9e1 fd3d eee0 913e c155 343e 02ec f93d
000001f0: 77aa febd c0c5 2ebd 9bf8 bebe 0c7c d83e
00000200: 8249 eebe eeb2 8c3d 2ed0 2d3e d998 fabc
00000210: 168f 38bf 8085 87be 1f42 96bd a2d6 b93e
00000220: 70a1 ec3e bb74 aa3e dbac 3dbe 0191 0f3f
00000230: 5db2 3c3f 2044 9dbe a402 2c3f 8329 4fbf
00000240: 8937 8c3e 3768 37bf 1375 18bf 70e8 62bd
00000250: 86d9 313e 5503 1c3e f1bc eb3e dd8b c9bc
00000260: dd3e 433f fb42 51bf a3c4 513e 3c65 c83e
00000270: ea5e 013f 23e9 8cbf f647 4f3e ea57 89be
00000280: 5b96 67be 56a1 983d 4166 4a3d 0fa1 6b3e
00000290: a4ac 90be 005a b73e d976 3f3e 77c0 933e
000002a0: d367 e8bd 63d1 5a3e c327 bf3e d391 83bb
000002b0: 7f07 94bb 5f1c 9bbe e9a6 0e3f 8d1f bd3d
000002c0: bd34 89be d145 e6be 46f2 323f 52d5 623e
000002d0: 0802 9abe 54c1 b53d 86f6 c53e 3da0 53be
000002e0: 8ec2 bb3c aa0e df3e 1e65 523f 9a5a 2bbe
000002f0: f6d0 36bd 1ec5 d7be 8467 24be 9d53 5b3e
00000300: 6670 0c3e 0336 b83e 1681 333d 01a1 a6be
00000310: c08a 08be d817 1c3d b522 ac3e 3e6f c43e
00000320: 86e7 5c3e d74e 283e 561e 77be bb2c e43e
00000330: 8581 9dbd d767 dfbd a071 07bf 5b46 64be
00000340: b79a b3bc f449 4abe 6dee ea3c 7176 1a3f
00000350: f5f1 a03e e92c 353e 5cac 463e 9558 dc3e
00000360: 1d6e 103d c924 7cbe 9457 a83e 1e49 88bc
00000370: e182 293e 3a71 2f3f a700 afbe dce3 debd
00000380: 908e 95bd 4b8e 43bf 0e37 f63c 0829 93bd
00000390: d3f2 bebe 020f 02bd 16be 92be a70a 173f
000003a0: ae36 093e 7559 413f bcc6 05bf f73e 003f
000003b0: 58ce dc3e cde0 99be f23f bcbe 4ed3 883e
000003c0: ec34 63bf ca8a e0be 0bc4 c0be 45f3 32be
000003d0: 8a2a a93e 9688 503f 7100 3f3f f694 c13e
000003e0: c519 853d f324 bc3d 23ee cd3e b84c 8f3e
000003f0: 3895 dbbe 0e95 ed3c fd02 f63e 9e88 8a3f

lstm.bias_ih_l1 f4 [180]
-0.7226497 -0.45239002 -0.35765725 -0.48568085 -0.3825114 -0.6602383 -0.1145871 -0.34286675
-0.41676491 -0.9103184 -0.19423248 0.16126691 0.046880435 -0.4976679 -0.13342963 -0.23420148
-0.45793846 0.2978757 -0.8481609 -0.6502829 -0.6805513 -0.07114178 0.058136422 -0.33829635
-0.2627995 0.35458454 -1.2499688 -0.070326075 -0.3481279 0.00045215525 -0.58684635 -0.42159253
0.32270807 -0.21211337 -0.31064752 -0.45280686 -0.004117258 0.40314218 0.3211639 -0.091848776
0.0020783667 0.50646406 -0.2781304 -0.9478627 -0.68420047 -1.2510881 -0.35410672 -0.6196539
-0.7561428 -0.51597667 -0.2785088 -0.5327795 0.472027 0.21286541 -0.5468182 0.2508802
-0.30696464 -0.8988303 0.70372534 0.04738604 -0.19601776 -0.5703832 -0.27077633 -0.85935146
-0.7209984 0.62036896 -0.7690277 0.38752952 -1.0852413 -0.53398424 -0.4667369 -0.817214
-0.8216229 -0.24934925 0.7619745 -0.20695946 -0.5667962 -0.36663827 -0.44028574 -0.94956577
-0.48644495 -0.47105893 -0.04200904 -0.10877947 -0.7579496 -0.7054825 -0.26378712 -0.45467225
-0.9840595 -0.7475389 -0.053816043 -0.057972044 -0.025053136 0.021192577 -0.075708136 0.08580689
-0.06556518 0.050466113 0.17324865 -0.11212861 -0.010395858 0.0483178 -0.03621068 -0.026606482
-0.06699555 0.066069216 -0.012401018 -0.06765644 0.053043045 -0.024767758 -0.10636017 0.019271404
0.11689083 0.016911814 0.049957108 0.003144053 -0.14121006 -0.04006246 0.1441033 -0.020380177
-0.054221213 -0.12436869 0.051325165 0.011127391 -0.051528737 -0.026147304 -0.039581094 -0.06002991
-0.043832514 0.08461781 0.08552127 -0.07104664 0.08375169 0.026420536 -0.039317414 -0.59849393
-0.6884127 -0.26759174 -0.49900383 -0.33707356 -0.2667202 0.008401326 -0.24257328 0.041589174
-0.8217375 -0.12436362 0.09405938 -0.07479646 -0.29394725 -0.0505107 -0.024175664 -0.5670011
0.20192854 -1.0234146 -0.7872451 0.19499648 -0.00021667386 -0.057875093 -0.25460738 -0.45376533
0.24585901 -0.99710613 -0.16998416 -0.3681825 0.39982003 -0.60090995 -0.3359889 0.27445132
-0.14447075 -0.068243735 -0.15812679 -0.12408154 0.51367486 0.36583382 -0.08596818 0.11277203
0.5434328 0.04766235 -1.0287907 -0.7762059
00000000: 92ff 38bf aa9f e7be da1e b7be 29ab f8be
00000010: 89d8 c3be 6105 29bf a4ac eabd 3b8c afbe
00000020: 3662 d5be a00a 69bf e1e4 46be 2723 253e
00000030: b305 403d 54ce febe c7a1 08be 83d2 6fbe
00000040: e976 eabe 2a83 983e 1321 59bf f178 26bf
00000050: 9c38 2ebf c8b2 91bd 7520 6e3d 2e35 adbe
00000060: a88d 86be 1b8c b53e fafe 9fbf 1e07 90bd
00000070: d23d b2be 400f ed39 903b 16bf fada d7be
00000080: fe39 a53e 3f34 59be 310d 9fbe 4dd6 e7be
00000090: 10ea 86bb a768 ce3e 986f a43e 361b bcbd
000000a0: 3535 083b a1a7 013f 1c67 8ebe 21a7 72bf
000000b0: c327 2fbf a823 a0bf 7a4d b5be a3a1 1ebf
000000c0: 9392 41bf 0c17 04bf b598 8ebe 3d64 08bf
000000d0: 86ad f13e 64f9 593e 47fc 0bbf 5f73 803e
000000e0: 782a 9dbe be19 66bf 5827 343f dd17 423d
000000f0: e1b8 48be a204 12bf 32a3 8abe 75fe 5bbf
00000100: 5a93 38bf 80d0 1e3f 00df 44bf 456a c63e
00000110: 30e9 8abf 31b3 08bf 24f8 eebe f034 51bf
00000120: e155 52bf 6955 7fbe c310 433f 2eed 53be
00000130: 8e19 11bf 03b8 bbbe 226d e1be be16 73bf
00000140: 500f f9be a32e f1be ac11 2cbd c5c7 debd
00000150: fc08 42bf 809a 34bf 1b0f 87be cdca e8be
00000160: 53eb 7bbf b65e 3fbf 366e 5cbd 1874 6dbd
00000170: 3c3c cdbc 0e9c ad3c de0c 9bbd 86bb af3d
00000180: 0947 86bd 8eb5 4e3d 1868 313e afa3 e5bd
00000190: 6453 2abc e3e8 453d a651 14bd d6f5 d9bc
000001a0: f734 89bd 4c4f 873d a42d 4bbc 768f 8abd
000001b0: aa43 593d c1e5 cabc 5cd3 d9bd 10df 9d3c
000001c0: 7664 ef3d a58a 8a3c d39f 4c3d 750c 4e3b
000001d0: 5f99 10be 8918 24bd d18f 133e 54f4 a6bc
000001e0: 1017 5ebd 03b5 febd 563a 523d a94f 363c
000001f0: cc0f 53bd df32 d6bc c91f 22bd ece1 75bd
00000200: b989 33bd 1a4c ad3d c725 af3d e780 91bd
00000210: 0286 ab3d e16f d83c 4c0b 21bd e636 19bf
00000220: d13b 30bf c901 89be 6e7d ffbe e894 acbe
00000230: 8d8f 88be b7a5 093c 2165 78be 6959 2a3d
00000240: 645d 52bf 5bb2 febd 34a2 c03d e32e 99bd
00000250: 4180 96be 4fe4 4ebd 0b0c c6bc fc26 11bf
00000260: 5bc6 4e3e 40ff 82bf e588 49bf 28ad 473e
00000270: f232 63b9 6f0e 6dbd e65b 82be ee53 e8be
00000280: 77c2 7b3e 5942 7fbf 5410 2ebe 6b82 bcbe
00000290: 36b5 cc3e 3cd5 19bf bd06 acbe e284 8c3e
000002a0: 24f0 13be 5fc3 8bbd fdeb 21be 761e febd
000002b0: 3280 033f 924e bb3e 1610 b0bd 06f5 e63d
000002c0: 691e 0b3f 9939 433d 6aaf 83bf 6eb5 46bf

lstm.bias_hh_l1 f4 [180]
-0.5964827 -0.5940493 -0.3302559 -0.37820855 -0.28951612 -0.7297275 -0.13172157 -0.43671295
-0.18453185 -1.0319791 -0.20592232 -0.01679942 0.06773962 -0.3569139 -0.20801735 -0.1391985
-0.50682616 0.22078434 -1.1120231 -0.7343589 -0.4216307 7.0114686e-05 -0.14459914 -0.3977635
-0.46408397 0.27286953 -1.1342536 -0.08545272 -0.56566656 0.070257284 -0.4935747 -0.56684446
0.14766411 -0.09963621 -0.47719434 -0.3851382 0.0358001 0.21430014 0.21673696 -0.22899942
0.07460479 0.3433502 -0.027568683 -0.8662539 -0.79122764 -1.0445089 -0.27246907 -0.5515516
-0.7704219 -0.5876156 -0.18072103 -0.5155529 0.3732057 0.15405422 -0.4722326 0.25019637
-0.3030892 -0.8513334 0.6981232 0.017242339 -0.20835623 -0.42389604 -0.18447287 -0.83808833
-0.74339604 0.6258178 -0.91399425 0.26788473 -0.86531454 -0.33057988 -0.47277534 -0.67739266
-0.84454113 -0.18815498 0.63539875 -0.24784209 -0.44769576 -0.42105997 -0.36043322 -0.8121381
-0.38957614 -0.45309898 -0.010572166 -0.28204736 -0.66505384 -0.7650181 -0.4823702 -0.33399573
-1.0465606 -0.86372334 0.124217875 0.18959352 0.05308594 0.055869587 0.058479104 0.020099418
-0.118055865 -0.12547581 0.09788073 -0.05054956 0.1644181 -0.0020015314 0.004491315 -0.023460863
-0.08810597 -0.04188819 0.0672368 0.18611336 -0.05446893 -0.02055134 -0.1573501 -0.014976793
0.10587203 -0.08390411 0.048641257 -0.002456598 0.13145936 0.15526882 0.14442308 -0.14095774
-0.028431887 0.11608492 -0.05398869 0.030638492 -0.021206213 -0.051495757 0.032769177 -0.057630945
-0.053768706 -0.049057953 -0.048633803 0.0040346226 -0.043799423 -0.054454576 0.17815247 -0.58003795
-0.57648784 -0.34914914 -0.52075756 -0.60523003 -0.2053211 0.17995118 -0.025375172 -0.11983174
-0.7406256 0.08465124 0.026983915 0.20347184 -0.07466289 -0.07940337 -0.059699394 -0.59916914
0.2974058 -1.1213452 -0.7821131 0.2214155 -0.08342831 -0.17590484 -0.2503679 -0.25994602
0.2916489 -1.1805313 -0.15108351 -0.30673844 0.3867669 -0.65751094 -0.5071016 0.32241336
-0.048705548 -0.101253115 -0.3113669 -0.064819634 0.48280904 0.48209494 0.02909833 0.05304903
0.35495272 0.0592125 -1.0696026 -0.86107665
00000000: 17b3 18bf 9d13 18bf 4d17 a9be 8da4 c1be
00000010: 753b 94be 6ccf 3abf 05e2 06be d798 dfbe
00000020: ebf5 3cbe e417 84bf 4ddd 52be f09e 89bc
00000030: 12bb 8a3d 6bbd b6be 8002 55be 0d8a 0ebe
00000040: 5cbf 01bf 4a15 623e c656 8ebf f2fe 3bbf
00000050: fbdf d7be 890a 9338 cc11 14be a8a7 cbbe
00000060: 6a9c edbe 8eb5 8b3e 392f 91bf d601 afbd
00000070: 86cf 10bf 0de3 8f3d d3b5 fcbe b81c 11bf
00000080: 4335 173e 120e ccbd d152 f4be d630 c5be
00000090: 20a3 123d 7f71 5b3e 4bf0 5d3e d37e 6abe
000000a0: 65ca 983d 99cb af3e b8d7 e1bc d1c2 5dbf
000000b0: e58d 4abf 78b2 85bf 1181 8bbe 7c32 0dbf
000000c0: 5f3a 45bf fa6d 16bf ef0e 39be 46fb 03bf
000000d0: d114 bf3e 64c0 1d3e 79c8 f1be bd19 803e
000000e0: 822e 9bbe fcf0 59bf 34b8 323f ce3f 8d3c
000000f0: 565b 55be e708 d9be 75e6 3cbe f58c 56bf
00000100: 344f 3ebf 9835 203f 87fb 69bf 3028 893e
00000110: 4185 5dbf c441 a9be 9c0f f2be 9b69 2dbf
00000120: d933 58bf b3ab 40be 7ea9 223f 51ca 7dbe
00000130: 6138 e5be 2c95 d7be b48a b8be 48e8 4fbf
00000140: 8676 c7be 97fc e7be e136 2dbc 8368 90be
00000150: f840 2abf 3ad8 43bf 3af9 f6be 7d01 abbe
00000160: b3f5 85bf f91c 5dbf f165 fe3d ce24 423e
00000170: a570 593d 82d7 643d c987 6f3d 89a7 a43c
00000180: 46c7 f1bd bb7c 00be b175 c83d 0e0d 4fbd
00000190: 385d 283e 202c 03bb e22b 933b ff30 c0bc
000001a0: e770 b4bd f392 2bbd 73b3 893d 8094 3e3e
000001b0: d01a 5fbd 495b a8bc 6220 21be 3961 75bc
000001c0: 6fd3 d83d ebd5 abbd 0e3c 473d e0fe 20bb
000001d0: 489d 063e cafe 1e3e a5e3 133e 3a57 10be
000001e0: fde9 e8bc eebd ed3d 3f23 5dbd 93fd fa3c
000001f0: a7b8 adbc 37ed 52bd f938 063d 6d0e 6cbd
00000200: 933c 5cbd fef0 48bd 3d34 47bd de34 843b
00000210: 0667 33bd c30b 5fbd 9a6d 363e 5e7d 14bf
00000220: b594 13bf adc3 b2be 5e50 05bf 5bf0 1abf
00000230: b23f 52be 1f45 383e 98df cfbc 586a f5bd
00000240: a499 3dbf a15d ad3d 5f0d dd3c ec5a 503e
00000250: dbe8 98bd 3c9e a2bd 5a87 74bd 2663 19bf
00000260: 9345 983e 3d88 8fbf 9038 48bf bfba 623e
00000270: 76dc aabd 6620 34be 3930 80be a517 85be
00000280: 0153 953e a61b 97bf a3b5 1abe d20c 9dbe
00000290: 5006 c63e a352 28bf 69d1 01bf 5d13 a53e
000002a0: 787f 47bd cb5d cfbd 7b6b 9fbe 28c0 84bd
000002b0: bf32 f73e 26d5 f63e 9f5f ee3c f149 593d
000002c0: 5dbc b53e ce88 723d bde8 88bf 856f 5cbf

lstm.weight_ih_l2 f4 [180, 45]
0.47673482 0.32336953 -0.24700177 -0.36448705 0.0060170256 -0.22208457 0.6591297 -0.14464417
0.8298846 0.1879896 0.19712946 0.4526744 -0.10920174 -0.43770784 0.19091268 -0.51246756
0.115770824 -0.40938765 -0.45306775 0.47904295 0.8743297 -0.053380955 0.28007606 -0.6704176
-0.3257611 0.04525215 0.27946207 0.04362611 -0.3473876 0.7506788 0.563656 0.025707696
0.12056826 -0.4274464 -0.3956747 -0.46300167 0.4692143 0.4342599 0.12764771 0.34633106
-0.23681496 1.3778579 -0.16528866 1.2116841 -1.1943595 1.0338669 1.4517097 1.2391267
0.9476939 0.77010864 0.73470646 -0.49195486 -0.28088033 -0.1382166 -0.066664025 -0.11352839
-0.52716357 -0.37223837 0.06864489 1.1122911 0.5555181 0.68510234 0.6864678 -0.038486734
-0.48684707 0.27732518 -0.949309 -0.38485387 -0.42573714 0.7687056 -0.73275936 -0.3994246
1.2510716 0.9023715 -0.10555089 -1.1425618 -0.5645417 -0.599468 -0.16411728 -1.1682183
-0.35156846 -0.49015346 -0.45716918 -0.13937154 -0.6395331 -0.6926558 -0.03839711 0.76771843
0.10090881 0.4396795 -0.19148251 0.36090413 -0.06406198 -0.011754305 -0.47032738 0.07384741
0.48691502 -0.064006604 0.19950025 -0.07045349 -0.061808858 1.0644255 -0.7804252 0.6391737
-0.39811948 -0.11515819 0.118663274 -0.5741854 0.10721446 -0.068781786 -0.5381582 -0.33149505
0.024565278 -0.39775017 0.06787789 -0.23987076 -0.27899387 -0.2616 0.6934017 -0.21978898
-0.9658283 0.13923109 0.27102125 -0.15624754 -0.092260644 -0.38258252 0.787707 -1.1714604
1.1780713 -0.87087405 0.08376621 0.51726824 -0.109902225 0.019063164 -0.078146264 -0.48455197
-0.989712 -0.17167076 -0.7269578 -0.1159313 -0.2176882 0.8903363 -0.24966474 -0.55299574
0.33956382 -0.21321636 0.6929023 0.47874412 0.7611947 -0.6722262 -0.26292032 -0.31349158
-0.8321669 0.7517226 -0.09567405 -0.6241494 0.9374666 0.09648899 0.5981314 -0.1270945
1.1057035 -0.35382214 -0.8401401 0.33770856 -0.75745106 0.07321796 0.3766978 1.4297988
0.25372773 1.1299415 0.50057214 -0.14845014 0.13048713 0.26484126 0.44723096 0.801209
0.6297446 -1.07563 -0.4470706 0.23012355 -0.6795999 -0.34037873 -0.42683643 0.009212101
-1.1665946 -0.90846896 1.0735734 -0.2931718 -0.07237254 0.5667478 0.73506254 0.83129257
0.059925914 -0.18923646 -0.6087008 -0.3353456 -0.48260078 -0.18423653 0.57029384 0.44873288
-0.8335906 -0.58687335 0.70542026 -0.31799412 -0.2889167 -0.31328648 -0.08169833 0.36893862
-0.35938355 0.4450632 -0.27791166 0.75538695 0.68749166 0.32914117 -0.7479244 0.26689094
0.36642212 0.95807105 0.7089452 -0.14095913 1.0504006 0.9846493 -0.49697426 -0.3916568
0.48179597 -0.19942075 0.07651208 0.05021293 0.03947169 -0.022817995 0.5722287 0.4656155
-0.34539336 0.2530444 0.05590995 0.24397112 -0.34490097 0.22379464 -0.018201329 0.04358065
-0.3086418 -0.16251026 0.35340348 0.2071843 0.451314 0.30302283 -0.08956127 0.03772405
-0.17881256 0.0941908 0.006770025 -0.5575303 -0.14196692 -0.1636645 0.15133436 -0.114517815
00000000: 9616 f43e b190 a53e 08ee 7cbe 0c9e babe
00000010: 782a c53b 236a 63be b9bc 283f 9a1d 14be
00000020: 5173 543f 5880 403e 4edc 493e f0c4 e73e
00000030: 29a5 dfbd 3e1b e0be 9d7e 433e 1331 03bf
00000040: 4119 ed3d 429b d1be 7ff8 e7be 1e45 f53e
00000050: 12d4 5f3f fda5 5abd 2166 8f3e 7da0 2bbf
00000060: 29ca a6be 525a 393d a715 8f3e 4bb1 323d
00000070: cadc b1be 7c2c 403f c24b 103f f298 d23c
00000080: 7eec f63d 41da dabe e095 cabe 8e0e edbe
00000090: db3c f03e 5057 de3e 15b6 023e 4e52 b13e
000000a0: 9f7f 72be a65d b03f 6e41 29be 7718 9b3f
000000b0: c6e0 98bf c055 843f a0d1 b93f b49b 9e3f
000000c0: 119c 723f d725 453f b915 3c3f 82e1 fbbe
000000d0: 8ccf 8fbe a788 0dbe 2687 88bd 9381 e8bd
000000e0: 31f4 06bf 0796 bebe b195 8c3d 8e5f 8e3f
000000f0: 6f36 0e3f de62 2f3f 5bbc 2f3f 44a4 1dbd
00000100: 0544 f9be 91fd 8d3e ea05 73bf 910b c5be
00000110: 38fa d9be e4c9 443f 1e96 3bbf 6281 ccbe
00000120: 1d23 a03f d201 673f 112b d8bd 773f 92bf
00000130: ce85 10bf bc76 19bf 5c0e 28be 2d88 95bf
00000140: c800 b4be 65f5 fabe 1412 eabe 6ab7 0ebe
00000150: 71b8 23bf e451 31bf 4a46 1dbd 3289 443f
00000160: 47a9 ce3d ac1d e13e fe13 44be 6dc8 b83e
00000170: ed32 83bd 2195 40bc c0ce f0be 503d 973d
00000180: ed4c f93e e515 83bd cb49 4c3e eb49 90bd
00000190: 492b 7dbd 183f 883f f2c9 47bf e3a0 233f
000001a0: 51d6 cbbe 0fd8 ebbd bb05 f33d d0fd 12bf
000001b0: 4193 db3d 77dd 8cbd bcc4 09bf b8b9 a9be
000001c0: 1f3d c93c e9a5 cbbe 9003 8b3d aea0 75be
000001d0: 49d8 8ebe 6ff0 85be c682 313f 5d10 61be
000001e0: 8640 77bf 9892 0e3e 4cc3 8a3e 5bff 1fbe
000001f0: 26f3 bcbd dbe1 c3be 2aa7 493f 6af2 95bf
00000200: 0acb 963f 9af1 5ebf 9e8d ab3d b16b 043f
00000210: 6b14 e1bd 5a2a 9c3c 260b a0bd 3217 f8be
00000220: c45d 7dbf 76ca 2fbe e819 3abf 646d edbd
00000230: a8e9 5ebe 14ed 633f 1da8 7fbe 2191 0dbf
00000240: 4fdb ad3e 6455 5abe 0c62 313f f31d f53e
00000250: a8dd 423f 0417 2cbf 7e9d 86be f881 a0be
00000260: e408 55bf e470 403f c2f0 c3bd 41c8 1fbf
00000270: d0fd 6f3f 059c c53d 241f 193f 1025 02be
00000280: b187 8d3f 2d28 b5be 6c13 57bf 23e8 ac3e
00000290: 50e8 41bf 4cf3 953d 89de c03e a603 b73f
000002a0: 9ae8 813e eca1 903f 7f25 003f 5003 18be
000002b0: 6b9e 053e 4699 873e 75fb e43e 081c 4d3f
000002c0: f136 213f 3eae 89bf 70e6 e4be 82a5 6b3e
000002d0: 42fa 2dbf 1f46 aebe 4e8a dabe 5aee 163c
000002e0: f952 95bf 6c91 68bf da6a 893f 9d1a 96be
000002f0: 0e38 94bd 6216 113f 0f2d 3c3f 97cf 543f
00000300: e074 753d 34c7 41be d1d3 1bbf 6bb2 abbe
00000310: 7317 f7be 80a8 3cbe c7fe 113f 51c0 e53e
00000320: 3266 55bf 553d 16bf 6c96 343f 20d0 a2be
00000330: e4ec 93be 1667 a0be 7451 a7bd 86e5 bc3e
00000340: 1f01 b8be 53df e33e 704a 8ebe 0a61 413f
00000350: 74ff 2f3f 3185 a83e f977 3fbf eea5 883e
00000360: ae9b bb3e 2544 753f 6f7d 353f 9757 10be
00000370: 8773 863f fa11 7c3f 6973 febe 3d87 c8be
00000380: f6ad f63e f434 4cbe 5eb2 9c3d 13ac 4d3d
00000390: 11ad 213d ceec babc 957d 123f 2865 ee3e
000003a0: 66d7 b0be 098f 813e d501 653d 91d3 793e
000003b0: dc96 b0be 6c2a 653e f41a 95bc a081 323d
000003c0: 4c06 9ebe 1769 26be 4df1 b43e 1f28 543e
000003d0: a112 e73e cf25 9b3e e66b b7bd 8984 1a3d
000003e0: a41a 37be 1be7 c03d 16d7 dd3b 4eba 0ebf
000003f0: c75f 11be ab97 27be 65f7 1a3e 5188 eabd
