PressureToTask/PressureToTask/best_state_dict_opr_inv.pt (torch, 504443 bytes, 16 tensors)

lstm.weight_ih_l0 f4 [356, 3]
00000000: ff0c 78c0 0fbb 89c0 81a1 16c1 a368 05c0
00000010: b1bf 82bf 6a42 a9c0 cb5a 1b40 8f47 92bd
00000020: 5662 80c1 7d0d f93c c65c 6dc1 b969 933e
00000030: 7c08 73be be23 573e cfb8 5cc0 b97d 1b40
00000040: d8ba d4bf 12ba 9dc0 3412 1dbf 08ea 08bf
00000050: b9a6 5bc0 e1ea 70c1 8872 a640 5108 96c0
00000060: 82a1 1a3f 7798 eebf a163 6cc0 e256 5840
00000070: bc37 cc40 8174 fbc0 b039 aabf edf5 a8c0
00000080: 0c77 a0bf 9a6d e440 8b93 1641 3690 1fbe
00000090: e9ef 3ebf 2b0f 613f e26c 46c0 c341 bb40
000000a0: 3865 5e3f 0154 91c1 c43e 37bf d2e3 6e3f
000000b0: 6310 97c0 613d 93bf eda1 d3bf 84d7 4c3f
000000c0: 3df1 c0c0 1e95 8040 56e3 59c0 aa85 f040
000000d0: 4cb9 39c1 6442 5b3f 586a f03f b768 bdc0
000000e0: 0358 1ac1 e4f3 8bc0 44c7 bcbf 1fcb 70c0
000000f0: 0268 233f eff1 083f 44f3 2cc0 caa1 f63d
00000100: 4548 0e3f d2e5 32c0 f414 04c0 9374 0341
00000110: eb6b b9c0 848d 46c0 97ae de40 d479 23c1
00000120: 36b5 bdbf c207 c7bf 9cdd ecc0 a4f3 8ac0
00000130: 9564 27bf 3558 cac0 b847 963e 4d45 8abd
00000140: 2400 47c0 3072 be3e 3da5 d23e 0563 03c0
00000150: 7d3e 4c41 dd8d 2bbf 9e7b 3b3f e634 643f
00000160: cbde c03e ea97 19c0 c426 acbf 16c1 abbc
00000170: 0c8e 5ac0 a145 febf 6f42 80bf 3e88 67c0
00000180: 043f 7dbf 879b 01c0 cfa4 24c1 4c1f c1bf
00000190: 00b7 ef3e 3edf 63c0 b8c8 833e 3422 b13d
000001a0: 5284 29c0 5da3 56be d90c 503e 896d 4bc0
000001b0: caa0 acbd 3437 fbbf 23f7 67c1 7dec 1e3f
000001c0: 308d 22be 1411 80c0 f59b b7c0 3b48 bbc0
000001d0: 9045 dcc0 78fb 3bbe 6bab 1e40 283d 8bc0
000001e0: 6f31 61c0 84a1 ca3e 745f d0c0 adaf 5bc0
000001f0: 217e c5c0 e222 e540 9de2 f43e 3b8e 06be
00000200: 7dd4 dabf 3f11 93bf e677 cfbe 55f2 37c0
00000210: 317e c93e aba8 793f f34e 31c0 c334 7940
00000220: 9882 5dc0 e29e 64be d9e7 fa3b eba3 0bbf
00000230: bc26 05c0 d156 52c0 33fc d9c0 8cdb ebc0
00000240: eeda 0c3f 6a71 b2be 4b2a 12c0 fdce 4cbf
00000250: 8d6f 53bf fc50 99c0 0880 79bd 0f7c 3bbf
00000260: f498 6cc0 77df 8cc0 19aa 3340 bab2 3dc1
00000270: 3cd9 62be 2a38 afbe 5816 11c0 f967 5cc0
00000280: 365c 0abf 093d e9c0 0225 b0bf b2ad 8ebf
00000290: 8ef3 92c0 900b 7a3e 4612 c13c 6c0d 45c0
000002a0: a7be 49bf 98c4 4fbf 0315 89c0 1007 393f
000002b0: d47f 52be 8c67 90c0 79be af3f a5c0 8c40
000002c0: cf85 ad3c 59d2 b73e 3196 5f40 7b97 04c1
000002d0: 1a50 c5c0 9c26 0dbf 51e1 973f ddf5 2a3f
000002e0: d654 62bf a51a 94be 6393 36c1 bd05 9a40
000002f0: 87ff 7b40 397a 56c0 a742 f140 088e 0441
00000300: 1aed 55c1 830f 1e41 442d 63bf 5535 2a3f
00000310: 4f46 31be a186 0fc0 44a1 f9bf 7caf b23f
00000320: e500 1cc1 80d0 60bf 20bd 3dc0 6d44 3cc1
00000330: 88de 833e 637e 37be 2350 01c0 fc0a db3e
00000340: 7b1e 2240 17a3 2bc0 da2d 8ec1 49fb 8240
00000350: d473 98bf 170a 4a3f 42be 9dbd b930 13c0
00000360: 23f8 8a3e daa3 5f41 f9a0 94bf 0470 d540
00000370: acd5 39c1 babb 773f ed6d 49bf e7a0 78be
00000380: 5caa 64c0 eeb0 8741 0246 7ec0 d9ff 5e3f
00000390: 0159 12bd 9baf f2be bca5 0ac0 5011 4440
000003a0: 7c35 de40 2ce2 31c1 309d bec0 0c35 4ac0
000003b0: 42b8 03c0 d7ce bc3f 06a6 b03f 3d2a a3c0
000003c0: 8a1a 813f c460 8141 fae9 bf3f 5fa1 383f
000003d0: 1f63 6bc0 85e4 0f3f 78bd 4d3d 3787 103e
000003e0: 72fa 20c0 2d24 a13f 5d9e 2cc1 149f 5e40
000003f0: 56a0 4dc0 7ab9 9940 13c0 8cc1 9d93 93c0
-3.8757932 -4.3040843 -9.41443 -2.0845115 -1.021475 -5.289357 2.4274166 -0.07142555
-16.048016 0.03040194 -14.83515 0.28791597 -0.23733705 0.21009728 -3.4487798 2.4295485
-1.661952 -4.9289637 -0.613559 -0.53482103 -3.432051 -15.0573435 5.201481 -4.688515
0.6040269 -1.8640279 -3.6935809 3.380303 6.3818035 -7.8579717 -1.3298855 -5.28002
-1.253633 7.138379 9.411021 -0.15582356 -0.74584824 0.8791377 -3.1003957 5.8517776
0.868732 -18.166018 -0.7158015 0.93316376 -4.7207503 -1.1503106 -1.6533791 0.8001635
-6.029448 4.018203 -3.4045005 7.5163164 -11.6077385 0.8564818 1.8782454 -5.9190326
-9.646487 -4.373522 -1.4748311 -3.7623975 0.6383058 0.5349416 -2.7023478 0.120425776
0.55579025 -2.795277 -2.0637789 8.2159605 -5.7944236 -3.1023874 6.958812 -10.217243
-1.4820926 -1.5549242 -7.402052 -4.3422413 -0.6538785 -6.3232675 0.29351592 -0.06751499
-3.1093836 0.37196493 0.41141692 -2.0529187 12.765256 -0.6701334 0.732355 0.89143217
0.37669978 -2.399897 -1.344933 -0.020966094 -3.4149199 -1.9864999 -1.0020274 -3.6176906
-0.9892428 -2.0251176 -10.290236 -1.5087676 0.46819305 -3.5605006 0.25739074 0.08649102
-2.6487012 -0.20960756 0.20317401 -3.1785605 -0.084291056 -1.9626222 -14.497836 0.620796
-0.15874171 -4.0020847 -5.7377877 -5.852567 -6.8834915 -0.18357646 2.4792125 -4.3512154
-3.5186422 0.39576352 -6.511652 -3.4325974 -6.1716466 7.160508 0.47829142 -0.13140194
-1.7096096 -1.1489638 -0.40521163 -2.8741658 0.3935409 0.9752299 -2.7704437 3.8938453
-3.4610958 -0.22326234 0.007657033 -0.54546994 -2.0804892 -3.2865489 -6.812036 -7.37055
0.5502156 -0.34852153 -2.2838314 -0.8000334 -0.8259209 -4.791136 -0.060913116 -0.73236173
-3.6968355 -4.4022784 2.807257 -11.856134 -0.22153181 -0.34222537 -2.2669888 -3.443846
-0.5404695 -7.2887006 -1.3761294 -1.1146758 -4.592231 0.24418473 0.023568284 -3.0789442
-0.7880654 -0.81159353 -4.283815 0.722764 -0.20556575 -4.51264 1.3730003 4.398516
0.021181969 0.3590267 3.493542 -8.286983 -6.166028 -0.5513704 1.1865636 0.6678141
-0.884107 -0.28926578 -11.410983 4.8132005 3.9374712 -3.3512099 7.5393863 8.284676
-13.370386 9.878787 -0.88740945 0.6648763 -0.17311977 -2.242592 -1.9502339 1.3959804
-9.750218 -0.87818146 -2.9646683 -11.7667055 0.25755715 -0.17919306 -2.0205162 0.42781818
2.5331104 -2.6818292 -17.772388 4.0931745 -1.1910348 0.78921646 -0.077023044 -2.2998488
0.27142438 13.977503 -1.1611625 6.669924 -11.614666 0.96770823 -0.7868336 -0.2428013
-3.572898 16.961391 -3.973023 0.8710914 -0.035729412 -0.473996 -2.1663656 3.0635567
6.944029 -11.117718 -5.956688 -3.1594877 -2.0581212 1.4750623 1.3800666 -5.098906
1.0086224 16.172249 1.4993279 0.7212123 -3.6779249 0.5620807 0.05022952 0.1411408
-2.515286 1.2589165 -10.788663 3.4784594 -3.2129111 4.803891 -17.593786 -4.611769

lstm.weight_hh_l0 f4 [356, 89]
00000000: 989e 57bf bb5f 29bf b159 5b3d e09a 97bf
00000010: 24a8 44bd a373 14bf b4c5 113e dc0a ab3e
00000020: 956a 253e 5e05 e4bc 2e9e b0be 5e49 763e
00000030: 2d2d 25be df80 763e 2c2c e8bd f335 d7bf
00000040: ac5b 89bf 90c6 46bf 50f4 b53e 0410 3c3f
00000050: ebe6 b83d 8cf8 5bbe a9f2 c03c ebf0 88be
00000060: ee16 0f3e 9c84 4dbf 1a7a aebd b3ff 7abd
00000070: 6692 ff3f 3f61 2cbd 2f3f 873c 747e 00bd
00000080: 6bef edbe 004c 693b 4793 18bb 55d5 a4bd
00000090: 172e bdbf b7e1 8d3f 194f 20bf 01bf 1a3d
000000a0: f95e 0ebe 7c56 0e40 72e0 123e 700e 12bc
000000b0: b1b0 6bbd 8b14 69be db23 c7bd 0380 21c0
000000c0: 9d2c 96bd a279 223d fe87 663f 0130 88bd
000000d0: 7858 123e bb5a 32bf 02f0 fc3d 7719 99bd
000000e0: f37a bcbc bc56 c73e 2404 d2be c37e 66be
000000f0: 7f75 a5bf 3560 c0bf d9c1 403f 741b aabf
00000100: 454c bfbf f8e2 6d3c bd2f 843e ed06 7abf
00000110: 680b 8b3a 40e6 073e 7184 debe c294 0cbe
00000120: 2e44 06c0 8736 d73f 94dd c43d 1517 6340
00000130: 8c49 ef3d da75 c33d 04c2 00bc 9282 b2be
00000140: 3f93 b13f e62d 013f fa41 de3b 46ff 563e
00000150: 5d69 2dbf b9ab 9e3e 9ec7 efbf 0e05 95bd
00000160: 403c 853d c81f 2dbf f5fb 08c0 555c dcbd
00000170: 4af4 9cbf 0f7c d9bd 1cdf 1a3d 5ad9 fe3d
00000180: d813 f5bf 0968 30bd d259 2d40 fd48 003f
00000190: 646d 6040 7476 cfbd 17ab 453f 981b 98bd
000001a0: 0627 9b3e 415b 9dbd 33a7 eb3d a751 9e3e
000001b0: 432b cd3d 070e 5ebc 5616 09bc c2b2 a340
000001c0: 8fba 523f 9999 c5bd 1e1a ac3e 32e6 973b
000001d0: 86d7 c0bb f3be 2ebd d4ff c9bc 212f d0bc
000001e0: 6286 063e 8760 67c0 410e 47bd b6ce d0bc
000001f0: bfc6 e13d 405f 63c0 528f 3d3d 7a0c f5be
00000200: 5da4 1ebd 0cc5 d5bd f338 3340 641a c83d
00000210: 6847 8c3c d257 e53b a564 be3b 1f26 973d
00000220: 7825 f7bf 9760 aabd de58 63bd de19 8b3f
00000230: a2d4 0b3d 23f2 f63c fb8c 5f3e 4a60 a8bc
00000240: 13e3 a03d 613e f1bd 7a7b 31be e2d9 40be
00000250: 475a 193e eda6 b33f de94 4ec0 5d4e 9dbf
00000260: 4de7 3ec0 c9b1 c9bf eab2 0b3c e7bc b23e
00000270: 94be 933d b9cd 783d 27f5 a13d 6de5 e2be
00000280: c597 903c c154 1fc0 4a0d 1d40 203c 963c
00000290: 5dca 7cbf 01b1 d23d 0198 88bf 5f53 773e
000002a0: 70ba ae3c b1a7 ddbd b418 dbbe 366b ed3b
000002b0: 50b8 06be 9c9d 3140 d7a2 433e 9195 c53e
000002c0: 542d 98be ea62 803d 37a5 093f 2604 2ebe
000002d0: 2dd3 e5bf 9cae 9040 c169 debe e0da 1d3f
000002e0: d73b c43d 18a6 abc0 62e0 bcbd b13a adbe
000002f0: 8d0a d53e 6c05 bcbf 2686 84be bc51 633f
00000300: c154 29be df1d 40bf d59a 16c0 6b61 48bf
00000310: aa2d a6bf b6b3 5abf 916d 1fbe 725f e5bd
00000320: 091b 2a40 dfe5 8e3f 9fad c7bd 7fa1 443f
00000330: 37f8 01bc 1180 74bd b343 8e3f 68fe b7bd
00000340: e47c c4bd 7889 493e 041f 6c40 bc79 7bbd
00000350: 1274 9c3d efd1 c23d 92ee 3740 cd5a 9e3e
00000360: 1c78 3c3e 2b69 05be 594e 023e a010 97c0
00000370: d9f9 b8bd 40d2 81bd 2d53 c83e 3c36 983f
00000380: 0016 14be 8743 d53f 02ea a9ba f0cc 1ebd
00000390: 2efe f6bf b2f2 583f bc3d 453d ad61 233e
000003a0: b958 c23d 4fa4 b73d 99c4 c53c 81b2 c63e
000003b0: e68f 49be 2bf7 4e3e 0096 bbbe 5923 26c0
000003c0: 3108 50bf 6184 6b40 6ab5 a1bf a53d 05be
000003d0: 6cef a13e b3cd 123f d06b b83d 4016 643d
000003e0: 8a57 93bf e049 54be 73fa d3bf 4545 183f
000003f0: 0f63 90bc 69b1 3740 92e3 1c3d 235c 96be
-0.8422637 -0.661617 0.053552333 -1.1844139 -0.048011914 -0.5798895 0.14235574 0.33406723
0.16153939 -0.02783459 -0.34495682 0.24051425 -0.16130514 0.24072598 -0.1133655 -1.6813339
-1.0731101 -0.7764673 0.35537958 0.7346194 0.09028419 -0.21481532 0.02355321 -0.26746306
0.1397359 -0.8028047 -0.08519383 -0.06127901 1.9966552 -0.04208493 0.01650962 -0.031370595
-0.46471724 0.0035598278 -0.0023281144 -0.08048502 -1.477969 1.1084508 -0.62620693 0.03777981
-0.13903417 2.2240286 0.14343432 -0.008914575 -0.057541553 -0.22761743 -0.09723636 -2.5234382
-0.07332728 0.03966678 0.9005126 -0.06649781 0.1429156 -0.69669694 0.12350465 -0.0747556
-0.023007846 0.3893336 -0.41018784 -0.22509293 -1.2926482 -1.502936 0.7529579 -1.3289628
-1.4945151 0.014519446 0.2581767 -0.9766682 0.0010608258 0.13271427 -0.4346042 -0.13728622
-2.0979114 1.6813515 0.09612575 3.5482838 0.1168395 0.09543963 -0.007858757 -0.34865242
1.3873061 0.5046066 0.0067827674 0.20995817 -0.67738897 0.3099039 -1.8732793 -0.07276355
0.065056324 -0.6762662 -2.1403782 -0.107597984 -1.2262051 -0.106193654 0.03781043 0.124438
-1.9146681 -0.043067966 2.7086072 0.5011137 3.5066767 -0.10130015 0.7721419 -0.07427138
0.3030321 -0.07683421 0.115065 0.3092167 0.10018017 -0.013553149 -0.008367142 5.115571
0.82315916 -0.09648437 0.33613676 0.0046355957 -0.0058850674 -0.042662572 -0.024658121 -0.025413098
0.131372 -3.6152666 -0.048597578 -0.025489192 0.11024236 -3.5526886 0.04627926 -0.4786108
-0.038730968 -0.10437974 2.800351 0.097706586 0.017123893 0.0069989944 0.0058103376 0.07380318
-1.930831 -0.08319204 -0.055504672 1.0867269 0.03413833 0.030144757 0.21831124 -0.020553727
0.07855811 -0.11779476 -0.17332259 -0.18833116 0.14975844 1.4035317 -3.2278361 -1.228954
-2.9828675 -1.5757381 0.008526543 0.34909746 0.07214084 0.060743067 0.07908087 -0.44315663
0.017650494 -2.489548 2.453936 0.018339217 -0.9874628 0.10287667 -1.0671388 0.24152897
0.021329135 -0.10823 -0.42792284 0.0072454466 -0.13156247 2.7752447 0.19105087 0.38590673
-0.29722083 0.06268866 0.5376772 -0.1699377 -1.7955071 4.5213146 -0.4344006 0.616621
0.09581726 -5.364025 -0.09222485 -0.3383384 0.41609612 -1.4689155 -0.25883597 0.8879659
-0.16536237 -0.7504558 -2.3532002 -0.7827365 -1.2982686 -0.8543047 -0.1556914 -0.111998454
2.6579 1.1163901 -0.097499125 0.76808923 -0.007932714 -0.059692446 1.111441 -0.08984071
-0.095941335 0.19681346 3.689393 -0.06139539 0.07639326 0.09512698 2.8739362 0.3092865
0.18405193 -0.130284 0.127252 -4.7207794 -0.0903203 -0.0633893 0.39125958 1.1891551
-0.14461517 1.6661233 -0.0012963417 -0.038769662 -1.929632 0.84745324 0.048154578 0.15955229
0.09489579 0.08966886 0.024141597 0.38808063 -0.19683799 0.20211475 -0.36637878 -2.5959074
-0.812625 3.6799548 -1.2633488 -0.13011797 0.31627977 0.5734512 0.090049386 0.05568528
-1.151109 -0.20731306 -1.6560806 0.59480697 -0.01762536 2.8702033 0.038302965 -0.2936717

lstm.bias_ih_l0 f4 [356]
00000000: 6172 1bc0 4971 4cbf b8cf 2bc0 ad76 7bbe
00000010: fa31 5dc0 e075 82c0 6ebf 21c0 b603 19bf
00000020: 08e1 44c0 8884 4c3e 469e c3bf e419 85bf
00000030: 5cdb 64c0 f78c 0abf a530 1bc0 0021 ffbf
00000040: 2af3 55c0 69fc 51bf c856 75bf 1916 34c0
00000050: e57a 4fc0 11d5 53c0 e86e 1fc0 2fd1 9dbf
00000060: fe2f 48c0 4d89 58c0 df12 4dc0 2291 4cc0
00000070: 2088 93bf c205 53c0 efe3 5dc0 711e 6ec0
00000080: 6d54 e33f 762e 53c0 4335 64c0 b475 56c0
00000090: 0f77 f13e cf15 42c0 bf02 ddbf db8e 49c0
000000a0: 56f3 5ac0 cde4 c3be e2ce 41c0 a379 54c0
000000b0: 2616 58c0 30e0 05c0 812f 63c0 5b4b 60bf
000000c0: b782 49c0 b106 38c0 bdd5 40c0 9cf0 1ac0
000000d0: e2c4 3cc0 6c8a 5dc0 e451 5ec0 f3fe 66c0
000000e0: f85a 5ec0 c62c 4cc0 e167 03c0 2863 2dc0
000000f0: 551c d33e 4b1f 06c0 ff09 24bf d9a9 17bf
00000100: ef15 4abe 9b0e 40c0 045c 05c0 5deb 23c0
00000110: cf8f 56c0 fac8 32c0 3aff f53d 784c 4ec0
00000120: 2efe bebe 7298 dabe 3d38 63c0 7199 4e3e
00000130: d335 53c0 98e4 d1bf be7a 05c0 bf94 55c0
00000140: 1b6f 003d d547 1cc0 60d1 4ec0 7f42 81be
00000150: 47ff 65bf 65bf 85c0 ec17 d6bf 2115 29c0
00000160: 96e7 933f 0d94 4bc0 0b66 82bf 3428 4dc0
00000170: 7486 60c0 4642 0ac0 dd81 2ec0 9b92 d3bf
00000180: c84b 86c0 1438 0ac0 9de7 87c0 153d 52c0
00000190: afbd 37c0 98ce debf d345 88c0 1018 84bf
000001a0: 11c0 96c0 9706 3cc0 a24d 8ec0 176f 45c0
000001b0: 4c5a 92c0 54c8 6ebf e3d9 19c0 c42c 53c0
000001c0: fb3f 77c0 bc97 0ac0 1026 38c0 49d6 b9bf
000001d0: 717f 9fbf 9636 93c0 1c05 94bf 472b d1bf
000001e0: 8d57 02c0 d06c 78c0 003a 1bc0 19e9 d4bf
000001f0: a0cb e8bf 1169 7fc0 0d81 6ac0 0516 77c0
00000200: 4e81 cebf 5479 38c0 757b d33c 4c00 9bbf
00000210: 7983 d0bf 1cb2 ddbf 2ad2 2dc0 aac7 c9bf
00000220: 6fda 7dc0 3730 d2bf e1b7 00c0 fc7e d03f
00000230: ddd4 79c0 6a37 a9bf f6f2 30c0 2451 e2bf
00000240: 53f3 eebf 01fb 09c0 374f c1bf f900 75c0
00000250: f84a c8bf 0ac3 24c0 e6fa 9140 52b2 4fbf
00000260: c098 85c0 cbf3 94c0 999b 9ebf 1429 04c0
00000270: 39dd 4ec0 9050 b0bf 3299 dabf 1542 92c0
00000280: 4380 b1bf c531 95c0 d2b0 19c0 bf00 e8bf
00000290: fc81 f0bc 58ad a7bf c404 3bc0 c177 a4c0
000002a0: 9e83 0ec0 dbcb 55c0 5120 69c0 8a4e abbf
000002b0: 6864 8bc0 224f 63c0 77ee 2ac0 d104 83c0
000002c0: 96d5 10c0 169b afc0 f5a1 e93f fd19 053f
000002d0: 150e 82bf ff16 dcbe fbe0 423e a30e 23bd
000002e0: ce4f 4fbe 2878 2a3f 620e 1fbf 85de 0abf
000002f0: db78 21be b645 44bf 53c0 903e 02f1 19c0
00000300: 9788 543e 9fdc eebe b657 d33e c428 b93e
00000310: 1593 1dc0 5cba abbc 1dd1 083d 8b38 cabd
00000320: 95ff 1ac0 357d 16c0 a498 803f db55 79bf
00000330: dc2e 6dbe 9401 73bb d42c bbbf e4d9 8bbe
00000340: 41c2 283e 594c 053f bd40 a33f 9af8 d73b
00000350: 855b 993d 89bb f83e 0e8a 5e40 83ac fd3e
00000360: a597 0b40 ebdd d93e a852 52bf 8517 c73d
00000370: cbe6 28bd 3375 19be f7e1 13be aaf3 eebf
00000380: f7ee 173d 06cf 2f40 1b2c 95be 507d 933f
00000390: 0eb4 36be 4179 54bf 6475 f1be 2c56 3fbf
000003a0: 030b 373e 17b7 443d e2df db3e 097d f43e
000003b0: a338 9d3e 3eaf 14bf d532 bfbd 8d9a 2740
000003c0: 28d6 40be a7d4 84be d9b0 4640 c5f9 f33d
000003d0: 5f9f 41bf 1af7 ec3f f432 3cb9 77c1 f63e
000003e0: c2fb 9f3d e8ed 71bd f56d 8e3f ae03 debf
000003f0: 1188 a53e 5e0d 10c0 bbc7 92bd 3d8b 0640
-2.4288561 -0.7986036 -2.6845531 -0.2455699 -3.4561753 -4.076889 -2.527309 -0.5977129
-3.0762348 0.19972432 -1.5282676 -1.0398526 -3.5758886 -0.54121345 -2.424844 -1.9931946
-3.3429666 -0.8202577 -0.9583554 -2.8138487 -3.241876 -3.3098795 -2.4911442 -1.2329463
-3.1279292 -3.3833802 -3.2042768 -3.1963582 -1.1525917 -3.2972264 -3.467037 -3.720608
1.776014 -3.2997108 -3.5657508 -3.350934 0.47161147 -3.032581 -1.7266463 -3.1493442
-3.421102 -0.382605 -3.0282521 -3.319924 -3.3763518 -2.0918083 -3.5497744 -0.87614983
-3.1486032 -2.8754084 -3.0130455 -2.4209356 -2.9495168 -3.4615736 -3.4737482 -3.6093109
-3.4743023 -3.1902328 -2.0532153 -2.709177 0.41232553 -2.09566 -0.6407775 -0.5924354
-0.1973493 -3.0008914 -2.0837412 -2.5612404 -3.3525274 -2.7935166 0.12011571 -3.2234173
-0.373033 -0.42694432 -3.5503075 0.20175721 -3.3001602 -1.6397886 -2.0856166 -3.3372037
0.03135596 -2.4418843 -3.2315292 -0.25246045 -0.8984265 -4.1796136 -1.672605 -2.6419146
1.155505 -3.1809113 -1.0187391 -3.2055788 -3.5082064 -2.160295 -2.7266762 -1.6529115
-4.1967506 -2.1596727 -4.247023 -3.2849782 -2.8709524 -1.7406797 -4.2585235 -1.0319843
-4.7109456 -2.9379022 -4.4469767 -3.0849054 -4.5735226 -0.93274426 -2.4039237 -3.2996073
-3.86328 -2.1655111 -2.8773232 -1.451852 -1.2460767 -4.6004133 -1.1564059 -1.6341332
-2.0365937 -3.8816414 -2.425415 -1.6633636 -1.8187141 -3.9907877 -3.6641266 -3.860719
-1.6133211 -2.8824053 0.025815705 -1.2109466 -1.6290122 -1.731998 -2.7159524 -1.5764058
-3.9664571 -1.6420964 -2.011223 1.6288753 -3.9036171 -1.3220036 -2.7648292 -1.7681012
-1.8668007 -2.155945 -1.51023 -3.8281844 -1.5647879 -2.5744042 4.5618773 -0.8113147
-4.1748962 -4.65476 -1.2391235 -2.0650072 -3.2322524 -1.3774586 -1.7078001 -4.5705667
-1.3867267 -4.6623254 -2.4014173 -1.8125228 -0.029358856 -1.3099775 -2.9221659 -5.1396184
-2.2267833 -3.3405674 -3.6425974 -1.3383343 -4.3560066 -3.551705 -2.6708047 -4.094338
-2.2630363 -5.4876814 1.825255 0.5199278 -1.0160547 -0.42986295 0.19031136 -0.03980888
-0.20245287 0.66589594 -0.6213132 -0.5424579 -0.15768759 -0.7666887 0.28271732 -2.405335
0.2075523 -0.46652696 0.41277856 0.36163914 -2.4621022 -0.020962887 0.03340255 -0.09874066
-2.4218495 -2.351392 1.0046582 -0.9739663 -0.23162407 -0.0037079798 -1.4623055 -0.27314675
0.16480352 0.5206962 1.2754132 0.006590915 0.07488159 0.48580578 3.4771762 0.49545678
2.1811306 0.42552122 -0.82157373 0.09721283 -0.041235726 -0.14986114 -0.14441667 -1.866811
0.03709313 2.7470107 -0.29135212 1.1522617 -0.17842123 -0.8299752 -0.47159874 -0.7474086
0.17875294 0.04802617 0.42944247 0.47751644 0.30707273 -0.580799 -0.09335867 2.618808
-0.18831694 -0.2594349 3.104544 0.11912874 -0.75633806 1.851291 -0.00017948059 0.48194477
0.07811691 -0.059064776 1.1127306 -1.7344873 0.32330373 -2.2508159 -0.07167002 2.1022484

lstm.bias_hh_l0 f4 [356]
00000000: 5de6 17c0 cd5a 58bf cf38 23c0 0e0d 3bbe
00000010: 7237 5bc0 1b54 84c0 0bbe 25c0 1956 41bf
00000020: 6f9b 3bc0 cdb3 173e 0045 b8bf 3d8a 8fbf
00000030: 435f 5ec0 f6d9 21bf 9cf0 14c0 fd2d febf
00000040: 9dfa 53c0 8b4e 4dbf e68a 8bbf 3b8f 38c0
00000050: f6ba 47c0 146e 5bc0 a6a2 25c0 e71e a3bf
00000060: d710 3fc0 df09 58c0 657c 47c0 a89a 51c0
00000070: fd6d 98bf dee6 4ec0 f19b 62c0 9663 70c0
00000080: 5da9 e83f dfe0 58c0 c1e4 5dc0 da26 56c0
00000090: 52cd dd3e 6f97 4bc0 3421 f2bf ea92 45c0
000000a0: 0837 58c0 bc86 5fbe 6195 48c0 a38e 5cc0
000000b0: e848 58c0 c6e9 04c0 aee3 59c0 d000 6fbf
000000c0: 0748 40c0 06d1 3ac0 f6f2 3ec0 03c2 16c0
000000d0: cce6 40c0 dcf7 5cc0 267f 55c0 4ed8 6bc0
000000e0: ac23 59c0 2f7f 40c0 aa62 01c0 b205 2ec0
000000f0: db51 e53e 9213 f9bf 35a5 35bf 69a9 30bf
00000100: f412 42be 5c9e 44c0 3eab 0fc0 0cd4 1bc0
00000110: bc9c 5ac0 d768 2ec0 9e5d 7c3d 3b4b 46c0
00000120: 016d c9be 6673 16bf c2b3 67c0 e8ec 1b3e
00000130: 6bd7 48c0 5331 d0bf 2ef5 04c0 61da 49c0
00000140: 7158 1b3e ae27 1bc0 b3e3 58c0 163f 09be
00000150: a0c2 55bf 7e44 88c0 78ee d5bf ec92 29c0
00000160: 8994 a13f fcc3 46c0 c941 79bf c563 53c0
00000170: f9e3 66c0 84bc 0ec0 54d8 29c0 37ac d5bf
00000180: aef2 89c0 10e8 15c0 5042 88c0 0211 4ec0
00000190: ffb5 3fc0 bf07 f1bf f29b 8ac0 f577 8bbf
000001a0: d265 96c0 17a8 43c0 80e9 8cc0 d7b3 43c0
000001b0: 14af 90c0 0ca0 77bf 8f17 1dc0 b8ac 56c0
000001c0: 1aa0 7ac0 91bc 0ac0 4149 32c0 5d79 adbf
000001d0: ece8 a6bf 8721 98c0 858e 99bf 6111 cebf
000001e0: dfc0 03c0 ce00 6cc0 5b30 1bc0 6530 cabf
000001f0: 5a7d eabf 0231 81c0 a0df 6fc0 9225 76c0
00000200: 3329 babf ad4a 37c0 2444 563d bc98 92bf
00000210: 3a92 d6bf 231d d7bf 7347 2fc0 64a1 cbbf
00000220: 8191 7dc0 52b8 dcbf 0afc 01c0 bcfe e23f
00000230: 5d57 70c0 a7bf afbf 9b3d 36c0 40a6 dbbf
00000240: 4a54 f0bf 0fc8 0cc0 1816 cabf 6177 78c0
00000250: 7e9f c8bf 4cbf 24c0 cffb 9140 69a2 60bf
00000260: cc02 87c0 151b 95c0 48db 97bf 89dd 05c0
00000270: 6233 54c0 ad69 a0bf 12d7 debf 22f3 92c0
00000280: 0353 babf 7266 96c0 71c1 20c0 8d24 e8bf
00000290: 5a12 843d 45f3 a3bf f54d 35c0 6f6c a8c0
000002a0: 62d0 0ac0 b9db 5ec0 ecd8 6cc0 dc0a 9abf
000002b0: 708a 8cc0 9d94 62c0 ce1b 2ac0 00ad 82c0
000002c0: dbac 17c0 88e3 b0c0 2081 e83f 803e 1c3f
000002d0: 608b 60bf 787c f5be da4f e73c 6e4e 02be
000002e0: 7fc5 8fbe c0b0 f73e ba6a 3fbf 2699 0abf
000002f0: ebdc 19be 557d 43bf c73b 623e 5913 22c0
00000300: 3113 ed3d dd7a 86be 8bb0 f23e 9c3e a03e
00000310: e231 1fc0 de78 f73d bd8d 91bc a8f4 cbbd
00000320: 25a8 14c0 cca5 17c0 5e38 853f 3231 7dbf
00000330: c96e 8fbe 166c 563d 82a2 b5bf 2f24 96be
00000340: 21b8 793e b228 1f3f 874c 9b3f a179 d33c
00000350: 0948 543c bd52 c83e 8525 5f40 051f c53e
00000360: bab0 0040 824d fb3e c5e3 2cbf c3fc 983d
00000370: 566a e8bd af99 afbd 790e 60be d8dd 03c0
00000380: 036e e9bd bd21 3040 35ff 54be d1c1 923f
00000390: f046 80bd 7e7d 5cbf 5046 dabe 1801 34bf
000003a0: 61f3 883e 9365 703e 2de2 ea3e b560 de3e
000003b0: ed67 913e fe11 1fbf 4af1 cdbd 84cb 3240
000003c0: a498 dbbd bc30 9ebe 2a2f 4240 e844 0cbd
000003d0: 2f75 27bf e01c ef3f 469b 143e c261 a33e
000003e0: 8cad 2b3e 4d74 79bc 4fae 8c3f f9a7 dbbf
000003f0: 2305 353e b12d 0ec0 4934 15bd 40bc 0640
-2.3734353 -0.8451355 -2.5503423 -0.18266699 -3.425259 -4.135267 -2.5897243 -0.75522
-2.931362 0.14814682 -1.4396057 -1.1214062 -3.4745643 -0.63223207 -2.3271856 -1.9857785
-3.3121712 -0.8019797 -1.0901763 -2.883742 -3.1207862 -3.4285936 -2.5880523 -1.2743806
-2.9854028 -3.3756025 -3.1169674 -3.2750645 -1.1908566 -3.232841 -3.540768 -3.7560782
1.8176686 -3.388725 -3.467087 -3.3461213 0.4332071 -3.1811178 -1.8916383 -3.087092
-3.3783588 -0.21828741 -3.1341174 -3.4462059 -3.3794498 -2.0767684 -3.4045215 -0.93360615
-3.0043962 -2.9190078 -2.9835792 -2.3555915 -3.0140867 -3.4526281 -3.3358855 -3.6850772
-3.3928022 -3.0077627 -2.021647 -2.7190976 0.44789013 -1.9459097 -0.7095521 -0.690085
-0.18952543 -3.0721655 -2.2448268 -2.4348173 -3.4158163 -2.725149 0.061612718 -3.0983417
-0.39340976 -0.58769834 -3.6203465 0.15227091 -3.138148 -1.6265053 -2.0774646 -3.1539538
0.15170456 -2.4242969 -3.3888977 -0.13402972 -0.835001 -4.258361 -1.67134 -2.6495924
1.2623454 -3.105712 -0.97366005 -3.3029644 -3.6076643 -2.230256 -2.6538286 -1.6693181
-4.310874 -2.342289 -4.258095 -3.219788 -2.9954832 -1.8830489 -4.3315363 -1.0895983
-4.699929 -3.0571344 -4.4035034 -3.0578516 -4.521372 -0.9672859 -2.454563 -3.354292
-3.9160218 -2.1677592 -2.785721 -1.3552662 -1.3039832 -4.7540927 -1.1996619 -1.6099054
-2.058647 -3.687549 -2.4248264 -1.5796019 -1.8319504 -4.0372324 -3.748024 -3.846043
-1.4543823 -2.8639328 0.052311078 -1.1452861 -1.6763375 -1.6805767 -2.738736 -1.5908628
-3.9620059 -1.724375 -2.0310082 1.7733989 -3.7553322 -1.3730363 -2.84751 -1.716011
-1.8775723 -2.1997106 -1.5787992 -3.8822863 -1.5673673 -2.5741758 4.5619884 -0.8774782
-4.2190914 -4.659556 -1.1863794 -2.0916464 -3.3156362 -1.253225 -1.7409384 -4.5921793
-1.4556583 -4.7000055 -2.5118067 -1.8136154 0.06448813 -1.2808615 -2.8328831 -5.2632365
-2.1689687 -3.4821608 -3.7007399 -1.2034564 -4.391899 -3.5403206 -2.657947 -4.083618
-2.3699253 -5.527775 1.8164406 0.6103287 -0.8771267 -0.47946525 0.028236318 -0.12725231
-0.28080365 0.48377037 -0.74772227 -0.54139936 -0.1502568 -0.76363117 0.22093116 -2.532431
0.11575926 -0.26265612 0.47400317 0.31297767 -2.4874196 0.120836005 -0.017767781 -0.09958774
-2.3227627 -2.3694944 1.0407827 -0.9890319 -0.2801421 0.052349173 -1.4190218 -0.2932448
0.24386646 0.6217147 1.2132729 0.025814833 0.012956628 0.39125624 3.486665 0.3850023
2.0107865 0.4908257 -0.6753505 0.074700855 -0.11348407 -0.08574235 -0.21880521 -2.0604153
-0.11397936 2.7520592 -0.20800479 1.1465398 -0.0626353 -0.86128986 -0.4263177 -0.7031417
0.26748183 0.23476247 0.45875683 0.43433157 0.28399602 -0.6213683 -0.10055788 2.7936716
-0.10722473 -0.30896556 3.0341287 -0.0342454 -0.6541318 1.8680687 0.14512357 0.3191052
0.16765422 -0.015225482 1.0990695 -1.7160636 0.17677741 -2.2215388 -0.036426816 2.1052399

lstm.weight_ih_l1 f4 [356, 89]
00000000: 6b4d b93c 672e 28be 32b0 d1bd 9d19 813f
00000010: 9047 96bd 391d c23d 92cd 31bd f928 ddbe
00000020: 66fd a53c e684 ab3d 4e97 3abe 5b9c bc3e
00000030: b68e a33d d6c4 333d db2d 103d 1428 73bf
00000040: 27be 52bd d9a3 5ec0 5f41 bb3e b51c 473f
00000050: 83ae b6bc 3ffa 0fbd 3f89 9abd d2c2 cd3d
00000060: 5024 8fbb 33df b1bd 8677 7f3d 6d86 ccbc
00000070: 6ef3 1a40 0eac b7bc 1665 4a3d e652 a63d
00000080: 14e1 d43e 71a9 2ebd 74dd a23d 38a5 36bc
00000090: a765 e2bd c3db 1a3d 4d54 d63c b267 62bd
000000a0: 3965 c7bd fccf 42bf bae9 12bd 5e57 61bb
000000b0: 57e7 103d eaed 383b 15e0 b73d 584a 66be
000000c0: 1a49 bc3c 26fa 92bd 8366 5d3f d35d 28bd
000000d0: 8e9e 6abd b278 3abd 2da8 a0bc dce5 833d
000000e0: 4390 df3c 791c adbd 38c8 86bc a453 b138
000000f0: 63a7 313f 04ec 94bf 28b4 983d b303 693f
00000100: 8986 d03e c12d 36bb a470 893d e4a9 4e3e
00000110: df93 ad3d b122 d7bd 2f8e 6cc0 47ed 1abd
00000120: 3a31 aebd c080 8c3e 61b4 443d 5dac 4740
00000130: 17bc f13d d2b1 ac3d 9480 7a3f 9f8a 97bd
00000140: 3880 5740 ecfb bc3d d110 513d 81e8 6abc
00000150: d9da 173f b3ad 123e 0f9e a0bf e885 f5bb
00000160: dadc 433f 8dd3 c6bd debd 2dbe 19bf 0abf
00000170: 93c3 fc3f 976a 07bd aed8 f73e 570b 173e
00000180: d851 09c0 d5ba 3f3a cf74 2f3e e58a 71bf
00000190: 5a4f f4bf f257 823d 0d25 48bf 3220 a13d
000001a0: e114 0e3d b240 85bf ae3b 0dc0 ff4c 3bbf
000001b0: 696c 4440 e38c ec3d 4aec a5be 2450 093f
000001c0: bc87 363e 8822 1b3e 3e40 89bf e2cd 8b3d
000001d0: e5e7 d0bd 1ebd 7940 0f66 253c a0a6 75bd
000001e0: dd7a a03d 1e6c 0d40 085e 0dbd d734 46bd
000001f0: 739e 983c d712 d23f 8595 b13f 8c3b a63e
00000200: ee7b 093e 6e52 9b3d 3d12 ddc0 e127 403d
00000210: 04b8 f6bd b788 313d 102b 5b3f be74 77bc
00000220: 56bf ab3e 5c64 a0bd dd99 43bc af57 a0be
00000230: 848f a9bc 5a6d 3c3d 6b1c 87bf 7344 6a3c
00000240: 6137 a13c 44aa cb3d 870b 833d 90ec c0bf
00000250: f8a0 b5bd b457 3e40 d81e e2bf 9059 9840
00000260: 287b dc40 fb3d 1fbf 6976 95bd d7e2 7a3e
00000270: 53cf 093f 3e6e f03c 9fa6 ca3d 4f6d fdbf
00000280: e954 09bc 4a96 7c3e 3e74 40c0 5e4a 183d
00000290: b70b a440 394a a0bc a61f 98bd 6a81 87bf
000002a0: e06f 46be c6c9 9840 3a37 a0bf 9fd3 41bd
000002b0: a82d cb3e dcfe c33f e2d6 403f 1ee9 2bc0
000002c0: 4ae1 1bbd 401d 803f a512 3abd 177b f9ba
000002d0: 7677 09bd 4697 873d c8e6 a5bc 09e7 c7bc
000002e0: e756 dc3c 8947 b53d e969 663d 85af 913d
000002f0: b27a 8abe ac12 1c3f 80fb 5d3d 19b9 583a
00000300: 09d5 aabb d6e3 7cbc 16fd ef3b 3aa9 e2be
00000310: cee0 bf3d 3647 89bd 243f 9abd 2273 203d
00000320: eea9 2abe 0393 0c3d d10a 46bd 55c7 fbbc
00000330: 236f d2bd 5906 c0bd 2378 c9bd fe40 3b3d
00000340: 4ddc 05be 361c e83d bf59 65bd 4876 713b
00000350: 6d88 5cbc dce9 483d 714e f63b a1fc c2bc
00000360: 9703 8d3d b028 80bb 0c8d 92bd 026e 633d
00000370: fe13 673c d7dc 9e3d 9a41 ca3b 05ef 963c
00000380: b4b0 9fbb f63c 913a fda0 2f3c 2108 ab3b
00000390: 84d4 603f 475a 04be 6f90 163e 710e 32be
000003a0: 0a87 333b cc0a 833d 3bec 89bc 6c9b 4bbd
000003b0: c8e2 99bd 2d2c 7abd 8846 af3d 77b0 57bf
000003c0: 400e c73b a782 173f ce1f 8ebe 78fc 72bc
000003d0: 5df5 77bd 1b61 6c3d 1099 a63a 3a50 143d
000003e0: b3a4 a9bd b1fa 8dbd 099f 083e 5e37 d4be
000003f0: 2f21 093d 5999 953d c5b0 97bc 1332 67bd
0.022619924 -0.16423951 -0.10238685 1.0085942 -0.07337868 0.0947823 -0.043408938 -0.43195322
0.020262431 0.08374958 -0.1822178 0.3683804 0.07986204 0.04388889 0.03519998 -0.9498303
-0.051450875 -3.4787505 0.36573312 0.7777818 -0.02230001 -0.035150763 -0.07545709 0.10046925
-0.0043683425 -0.0868515 0.062369846 -0.024966443 2.4211078 -0.02242091 0.04941281 0.0812128
0.4157797 -0.04264206 0.07952395 -0.01114779 -0.11054545 0.037807237 0.026163245 -0.055274673
-0.097361036 -0.7609861 -0.03586743 -0.003438435 0.035376873 0.002821798 0.08978287 -0.22489297
0.022984076 -0.07176618 0.86484545 -0.041105103 -0.057280116 -0.04552526 -0.019611442 0.064403266
0.027290469 -0.08452696 -0.016452894 8.455597e-05 0.69396037 -1.1634526 0.07456237 0.9102127
0.40727642 -0.0027798268 0.067109376 0.20181996 0.0847547 -0.10504664 -3.6961782 -0.03782394
-0.08505483 0.27441978 0.048023585 3.1198952 0.118034534 0.08432354 0.97852445 -0.07399487
3.3672009 0.09227738 0.051041428 -0.01433766 0.5931831 0.14324073 -1.2548236 -0.0074927695
0.7650887 -0.09708319 -0.1696696 -0.5419784 1.9747185 -0.033060636 0.484075 0.1475042
-2.1456203 0.0007313912 0.17134403 -0.9435256 -1.9086716 0.063644305 -0.78181535 0.07867469
0.03468788 -1.0410368 -2.2067676 -0.7316436 3.0691168 0.115503095 -0.32406837 0.5363791
0.17825216 0.15149891 -1.072273 0.068263784 -0.1020048 3.9021678 0.010095133 -0.05997336
0.07835934 2.209724 -0.034513503 -0.048390236 0.018630242 1.6412 1.3873755 0.32467306
0.13426182 0.075840816 -6.9084764 0.04691303 -0.12046817 0.043343272 0.85612583 -0.015103517
0.33544415 -0.07831642 -0.011938539 -0.31316897 -0.020698316 0.046002723 -1.0555547 0.014298546
0.019679727 0.09944585 0.06398683 -1.5072193 -0.08868593 2.974103 -1.7665663 4.760933
6.8900337 -0.6220395 -0.072979756 0.24500595 0.53831977 0.029349443 0.09895062 -1.9798983
-0.008382061 0.24666706 -3.0070949 0.037180297 5.12643 -0.019566642 -0.074279115 -1.0586369
-0.19378614 4.7746305 -1.2516854 -0.04732096 0.3968327 1.5312152 0.75327885 -2.6861033
-0.03805665 1.0008926 -0.045427937 -0.0019033876 -0.033561192 0.0662065 -0.020251647 -0.024402158
0.026896907 0.08851535 0.056253348 0.07113556 -0.27046734 0.6096599 0.054194927 0.0008267328
-0.005213384 -0.01543518 0.0073238714 -0.44269735 0.0936905 -0.067030355 -0.07531574 0.0391723
-0.16666386 0.03431989 -0.04835016 -0.030734697 -0.10275104 -0.09376211 -0.098373674 0.04571628
-0.1307232 0.11333506 -0.05599379 0.0036844183 -0.013460261 0.04905115 0.007516675 -0.023802103
0.0688545 -0.0039111003 -0.07155809 0.055524834 0.014103888 0.077569656 0.006172371 0.01842452
-0.0048733596 0.001108079 0.010719535 0.005219475 0.87824273 -0.12925063 0.14703535 -0.17388321
0.0027393722 0.06398544 -0.016836276 -0.04970877 -0.07513958 -0.061077286 0.08558375 -0.8425364
0.006074697 0.59183735 -0.2775864 -0.014830701 -0.06053673 0.057709794 0.0012710411 0.036209323
-0.08283367 -0.06932581 0.13341917 -0.41448492 0.033478912 0.07304639 -0.018516907 -0.05644424

lstm.weight_hh_l1 f4 [356, 89]
00000000: 5cbc c7bd c856 073e 9168 b33b 513b 15bf
00000010: 7c93 2bbf 3307 fc3e 6f6a db3c 4b77 3a3e
00000020: c257 cb3d d4b1 10be 35a5 8d3f f118 2a3f
00000030: 5a35 963c 46b4 c9bd 49f5 b83b 3d67 bc3c
00000040: 90a5 d1bd da3a 74bf 56c5 313f ee95 97be
00000050: 350f 973d 1870 2e3e e3d7 c63e 4b43 943f
00000060: dae1 5c3f 547a d23f 8298 bbbd 225a 203e
00000070: 1361 00be 263c 46bf 5856 983c 28f5 4e3d
00000080: 239e e73d 8745 67bf 8eb6 613d 0bc8 37bd
00000090: f914 503f 842d f23b 5263 263e c084 d83a
000000a0: c852 ccbd 5806 08be c0d2 1b3c 8589 4f3b
000000b0: 6e18 b8bd 3855 9c3f 7bbb 5f3d de09 87be
000000c0: 317f 2a3e dfb3 e1bc 291a 13bd c0fe f53c
000000d0: 8c45 07bd 2438 0b3e cf2f 76bf 5747 d3bb
000000e0: 0b43 c83f 2a20 0b3d e902 303f 837c 893d
000000f0: 5ed6 863e e4cb d9bc 1833 1fbd 74ea 9cbd
00000100: 47a2 73bd 9e7e ecbe 586a cdbd 9c61 bc3e
00000110: 6a52 243f 55e6 3d3f df47 823f d092 b0be
00000120: d4d2 7d3d 3b01 d03c fef3 7fbd 2284 33bf
00000130: 33c1 183f 3915 a5be 0021 ea3d 4d2d ed3c
00000140: b46c 82bf 7fff b1bd 37a4 193e b753 32bd
00000150: 44ea c63d ee30 683f dcd2 aabd 9e82 90bf
00000160: 8639 eabd 9b7f 14be 9bfd 02bf 18f4 de3d
00000170: 122a 07c0 ed43 90bf 9d75 bb3d 8bd7 c8be
00000180: c9ab dbbe 2af6 523e 7d1c ddbf 3918 0240
00000190: 3413 9fbe 8afc 0d3e 18b1 c8bd a8b0 593d
000001a0: 761b babd 01d3 afbf b834 31bf 8abb 5dc0
000001b0: b342 01be be19 723d 24d4 91bf d28e dbbf
000001c0: 9b69 eabe be22 a2bf 5e4d e2bf 9646 883d
000001d0: d341 883d 4f2a b3bc 8211 4ec0 e3d3 873f
000001e0: d8dc f9bd aded d4be 7c9f fec0 bae1 c93c
000001f0: 3650 02c0 c2d2 a7be caa6 9cbc 45b6 1e3e
00000200: a6b7 74be 1547 5b3e efd1 193d fb74 14be
00000210: e1bb eebd 7bb4 5fbd 9e91 983f beea 5f3c
00000220: a7b3 0a3f 1921 cc3b 4066 953d 25ef 7d3a
00000230: f756 0dbe 5ec6 1a3e 28e0 77c0 cc2f 4040
00000240: 5bf6 be3d 7cc5 15bf 57c0 333e fb3d 7840
00000250: 0c65 75bc c51d 6c3e 1b90 2cc0 c718 383b
00000260: 8cb4 62bc 410e 113f 3d9a 0f40 62e8 d2bd
00000270: 3290 febf 562c d03f f55b db3f 6ab8 45c0
00000280: fc15 ae3f f66e 513d 7447 953d e7f8 51be
00000290: 6727 5dbf 9d2d 3440 b183 e8be 8318 823b
000002a0: fb57 963d 28dd 433f 0e8d e53e 6a03 c6bf
000002b0: ba20 ed3d be77 eebb 94c7 d4bf 48c8 b4bd
000002c0: 0a55 82bf a5a8 eabd feff ae3b 509b 513d
000002d0: 0637 973d 1cd7 fe3d 16bc 923d a65f 923d
000002e0: 93db 2f3c 98d1 ddba a69a 273e 9235 18bd
000002f0: 38a7 523c 615e dabd db43 d0bb 94bb 1e3d
00000300: 194c b2bd e5c3 613d 91b1 22bd 1086 e13d
00000310: 575c 473c 75d3 53be 5c9e e63d 4e83 cfbd
00000320: f97b 11bd c91a b53d 63ee 6d3d 0c27 13be
00000330: 1157 f7bd 5790 613c 9ec1 e83c 660d 22bf
00000340: f11a 173e 6a31 5fbc 8978 1d3d f4b4 98bd
00000350: 9e45 093d 862b 3abe 8b58 8c3d e346 423c
00000360: fd19 053e 0d9b 32bd 0933 ee3e 651f 02bc
00000370: 3126 b63d e576 983d 881a f4bd 2c28 c53e
00000380: 32b7 a23d b6f3 913d 807c 8cbd acf6 fd3d
00000390: 5f41 80bd f92f ce3d d912 b13b 26d9 903d
000003a0: 08de 4ebe 3853 92bc 2e99 ccbd 5541 9a3d
000003b0: 169e 3b3d 097f 8abd bd1f 90be 9c25 2bbd
000003c0: b615 1cbc 00ec a03d 7189 d1bd 4e48 e53d
000003d0: 5141 81bc 0ed0 07be 4526 123e 0a10 a7bd
000003e0: c72b 283e cf57 063e 5fc3 5a3d f7fd 8c3c
000003f0: ea57 c23d e917 33be b4e3 1f3e 32e8 fabd
-0.097527236 0.13216698 0.005475112 -0.58293635 -0.6702192 0.49224243 0.02678415 0.18209569
0.09928848 -0.14130336 1.1066042 0.6644431 0.018335987 -0.098488376 0.0056444746 0.022998447
-0.10236657 -0.954023 0.69441736 -0.29606575 0.073759474 0.17034948 0.38836583 1.1583036
0.8628212 1.6443582 -0.09159948 0.15659383 -0.12537031 -0.7743553 0.01859586 0.050526768
0.11309459 -0.90340465 0.05510574 -0.04486851 0.81282 0.00739068 0.16248825 0.0016519055
-0.09976727 -0.1328367 0.009510696 0.0031667661 -0.089890346 1.2213507 0.054622155 -0.26374716
0.16650082 -0.02755159 -0.03591362 0.0300287 -0.03302531 0.13595635 -0.961667 -0.0064477134
1.564546 0.03396622 0.6875444 0.06713202 0.26335424 -0.02658648 -0.038867086 -0.07661906
-0.05948093 -0.4619035 -0.10030049 0.3679322 0.64188254 0.74179584 1.0178183 -0.3448701
0.06196864 0.025391212 -0.06248855 -0.70123494 0.596698 -0.32242754 0.114320755 0.028952265
-1.0189424 -0.0869131 0.15004049 -0.043536868 0.09712651 0.9069966 -0.083409995 -1.1289861
-0.11436753 -0.14501803 -0.5116822 0.10886401 -2.1119428 -1.1270729 0.09153292 -0.39226946
-0.429045 0.20601717 -1.7274319 2.0327284 -0.31069338 0.13865867 -0.09799403 0.05314699
-0.09087269 -1.3736268 -0.6922107 -3.4645715 -0.126231 0.05910658 -1.1392865 -1.715296
-0.45783696 -1.2666852 -1.767986 0.06654088 0.0665318 -0.02187076 -3.2198186 1.0611538
-0.12200326 -0.41587582 -7.9569683 0.024643768 -2.0361457 -0.32777983 -0.0191225 0.15499218
-0.23898181 0.21413834 0.037553724 -0.1449775 -0.11656929 -0.05461548 1.1919439 0.013666807
0.5418038 0.0062295315 0.07294893 0.00096868194 -0.13802706 0.15114734 -3.8730564 3.0029173
0.09324332 -0.5850446 0.1755384 3.878783 -0.014977705 0.23058231 -2.6962955 0.002809094
-0.013836991 0.56662375 2.243789 -0.1029823 -1.9887755 1.626353 1.7137438 -3.0893807
1.3600459 0.05113121 0.07289019 -0.20505105 -0.8638825 2.815284 -0.45412973 0.003970207
0.07341 0.7650933 0.4483418 -1.5469792 0.11578508 -0.007277458 -1.6623406 -0.08827263
-1.0182202 -0.11457948 0.0053405752 0.05117351 0.07383542 0.124433726 0.07164781 0.0714715
0.010733503 -0.0016923426 0.16367587 -0.037160464 0.012857251 -0.106625326 -0.0063557453 0.038753107
-0.08705921 0.05511846 -0.03972012 0.110118985 0.012168012 -0.20686133 0.112606734 -0.10132466
-0.03551862 0.088429995 0.05808867 -0.14370364 -0.120771535 0.013767323 0.028412636 -0.63301694
0.14756371 -0.013622621 0.03844503 -0.07456389 0.033513658 -0.18180665 0.06852826 0.011857721
0.12998195 -0.0436049 0.46523312 -0.007942055 0.08894003 0.07444552 -0.11919123 0.3850721
0.07945098 0.07126562 -0.06859684 0.124005646 -0.062624685 0.10067744 0.005403858 0.07072668
-0.20201886 -0.017861947 -0.09990154 0.07531992 0.04580506 -0.06762511 -0.28149214 -0.041783914
-0.009526661 0.078575134 -0.10231293 0.11195432 -0.015778216 -0.1326296 0.14272411 -0.08157356
0.1642295 0.13119434 0.053408977 0.017210944 0.094894245 -0.1748959 0.15614206 -0.12251319

lstm.bias_ih_l1 f4 [356]
00000000: bfbf 08c0 01ff 1dc0 7e22 4fc0 7b7a babf
00000010: f15b 1bbe 272d 82be 5d83 d4bf 23d7 c4bf
00000020: 559d 06c0 ad3b bfbf 5e70 2fbf ec9b 81bf
00000030: f164 d9bf 7474 69bf 3017 e7bf 86d6 4fc0
00000040: a7f1 52c0 9c63 e7bf b5eb 173e 3052 36bf
00000050: a29f 1cc0 02b3 eabf 2bbe 51bf 237e 35bf
00000060: 525d edbe 1977 a0bf c10c 3fc0 6336 fcbf
00000070: f0be 31c0 e4db dd3e 0fb0 2bc0 3489 5cc0
00000080: fe82 d4bf f7a3 78be 453f 48c0 354b 87bd
00000090: de9d 9bbf d5ab 20c0 e0a3 33c0 8a28 89bf
000000a0: 3a3d 1dbf 1e3e 4cc0 71ae 8fbf f8fc 5cc0
000000b0: ffad 2fc0 50ad 1bc0 0765 42c0 5f8c eabf
000000c0: b0e3 36c0 ac1e 39c0 049d eebf 7c60 57c0
000000d0: 2b34 18c0 34c6 19c0 c6e8 40bf b1e5 24c0
000000e0: 3507 673f 7820 4fc0 63fa aabf e106 14c0
000000f0: ba1c 86bf e771 7640 b7ea 11c0 a1ad 47c0
00000100: 6809 38c0 c23b 323f adb8 22c0 ab6a f9bf
00000110: 289f 35c0 d737 863e b042 783e a6e0 a9bf
00000120: f1d0 2bc0 816a 47c0 6659 7bbe 6aaa e7be
00000130: 73cb e8be e78e cebf e600 4fc0 6bc8 55c0
00000140: 6be5 eebf 4496 0cc0 f247 30c0 80ec 46c0
00000150: 73fa 2ac0 d22d cebe bda5 3fc0 1b5f d7bf
00000160: 72dc 37c0 710c f9bf 1f2a 5ac0 5d1f 8fbf
00000170: 6676 5dbf 2596 9ec0 ae8f 43c0 6f7a 6dc0
00000180: c9cb 75c0 3f12 16c0 16d7 6ebf 9b2d 8ac0
00000190: 2d56 26c0 dc1c 58c0 109f 03c0 65cf 10c0
000001a0: d36c a1bf 2369 7bc0 bf4e 7ac0 e3be 51bf
000001b0: c51a 4cbe 9cec e0bf b923 9cc0 be9f dabf
000001c0: 788f d8bf 7b91 90bf 59bc 94c0 b288 a0bf
000001d0: 436a 29c0 25e5 9abf 9b7d 89bf 7de1 89c0
000001e0: 1d40 d8bf d594 86c0 b545 04bf 4ae6 8abf
000001f0: ca7e 08c0 81cd 9ec0 f4b0 50bf a6b1 fbbf
00000200: dd1b 8ec0 1126 efbe 88fb c5bf 87b6 84c0
00000210: a4ac 90bf 6e6b 11bf 4e90 e8be 53a0 c6be
00000220: 568f 7dc0 b984 11c0 d211 18bf 1838 debf
00000230: bdbb f9bf 88fd 07c0 1050 843f e19a 50c0
00000240: a5f8 27bf 91cf 643f dd21 e1bf cb6a 53bf
00000250: d6cd 3abf 5a87 2940 5ff5 33bf 090e 34bf
00000260: 89e7 58bf c8b2 22c0 5c09 f7bd 79b1 3dbf
00000270: 66b0 4340 5ba3 95c0 0583 61c0 1066 88bf
00000280: 232b e9bf 4268 c3be 2069 5fbf 11ae 80c0
00000290: 381d 00c0 5449 66bf ed62 71c0 409a afbf
000002a0: 25c4 b5bf 0bdc 93bf 3377 49c0 11bf 5940
000002b0: e2b3 cdbf 1371 5abf 3467 90c0 5262 03c0
000002c0: 066c a640 b63f 9ebe 055b 723f 7f71 403f
000002d0: a82c 61be 2344 a13e 13f1 4d3e 86ca 37bf
000002e0: 99f4 d53f c90b 833f c02f d6ba 8583 853f
000002f0: 4b06 393d f222 1ac0 8489 18c0 5dd0 693f
00000300: cc19 a63e e5ea ac3e 9ab5 0740 c061 883f
00000310: a69f 863e 0b9e 06c0 4af5 633f 295b 1bc0
00000320: 600f 83bf 65e5 b8bf 0342 9f3d 32dc 6f3e
00000330: 5c27 3bbd 6111 ab3f 4dad 1fbf b463 cb3f
00000340: 0d90 da3e e52c 613d 64cb 0ebf b40e 0540
00000350: 8e20 5e3e d3cb 6840 e381 fcbe 3f7a febe
00000360: 893b d63e 8389 5ebf 5392 bcbf 6584 b4bd
00000370: e143 2b3f c3c7 2a3d 26e0 adbe eb72 24bd
00000380: 7184 95be 1ba2 1640 d961 b7be 1111 be3e
00000390: e85a 29bf 613a 153e 7a26 a03f e26c c0be
000003a0: 257f 813f 8456 47bf f387 57bf f816 8bbe
000003b0: 5ce7 f5bf 362e 083f 14b4 233f 6e67 483f
000003c0: 1433 2fbf 6e21 22bd 463b 52bf 452a 6cbf
000003d0: 1aec ad3e 91f9 8a3d b52b 8e3e 3704 c3bf
000003e0: dfea a8be 3083 57bd a5c9 0fbf af1f d3bd
000003f0: a915 81bf bfbe f73d dbfd e6bf c1ba 8f3f
-2.1367033 -2.4686892 -3.2364802 -1.4568628 -0.15171792 -0.25425074 -1.6602589 -1.5378155
-2.1033528 -1.4940087 -0.68530834 -1.0125709 -1.698393 -0.9119332 -1.8053951 -3.2474685
-3.2959993 -1.8077273 0.14836009 -0.7121916 -2.4472432 -1.8335879 -0.819308 -0.70895594
-0.4636026 -1.2536346 -2.9851534 -1.9704098 -2.777279 0.43331826 -2.6826208 -3.4458742
-1.6602476 -0.24281298 -3.1288617 -0.066061415 -1.2157552 -2.5104878 -2.8068771 -1.0715497
-0.6142155 -3.1912913 -1.122511 -3.45294 -2.7449949 -2.4324532 -3.0374162 -1.8324088
-2.857647 -2.892497 -1.8641667 -3.365264 -2.378184 -2.4027224 -0.75355184 -2.5765193
0.9024537 -3.2363567 -1.3357662 -2.3129199 -1.0477517 3.850702 -2.2799509 -3.1199725
-2.875574 0.69622433 -2.5425217 -1.9485677 -2.8378391 0.26214477 0.2424419 -1.3271682
-2.6846278 -3.1158755 -0.24545822 -0.45247203 -0.4546772 -1.613736 -3.2344298 -3.3403575
-1.8663763 -2.1966715 -2.7543912 -3.1081848 -2.6715362 -0.40269333 -2.9944909 -1.6825899
-2.87283 -1.9456922 -3.4088209 -1.1181446 -0.86508787 -4.955828 -3.0556445 -3.7105978
-3.840563 -2.3448637 -0.93296945 -4.318067 -2.5990098 -3.3767614 -2.0565834 -2.2626584
-1.2611336 -3.928292 -3.9110563 -0.81931895 -0.19932087 -1.7572207 -4.8793607 -1.708
-1.6918783 -1.1294397 -4.6479917 -1.2541716 -2.6471107 -1.2101179 -1.0741457 -4.3087754
-1.6894566 -4.205668 -0.51668864 -1.0851529 -2.1327386 -4.962586 -0.8152001 -1.9663589
-4.4409013 -0.4670873 -1.5467386 -4.147281 -1.1302686 -0.5680455 -0.45422596 -0.38794193
-3.9618735 -2.2737257 -0.5940219 -1.7360868 -1.9510418 -2.1248493 1.0336933 -3.259453
-0.65613776 0.8937922 -1.7588459 -0.8258483 -0.7297033 2.6488862 -0.7029628 -0.70333916
-0.84728295 -2.542162 -0.12062332 -0.74098927 3.0576415 -4.676191 -3.5236218 -1.0656147
-1.8216289 -0.3816548 -0.87269783 -4.0212483 -2.0017834 -0.8995564 -3.771663 -1.3718948
-1.4200484 -1.1551527 -3.1479003 3.4022868 -1.6070521 -0.8532879 -4.512598 -2.052876
5.2006865 -0.30907983 0.94670135 0.7517318 -0.21989691 0.31497297 0.20111494 -0.717934
1.671527 1.0237972 -0.0016341135 1.0430762 0.045172017 -2.408383 -2.3833933 0.9133356
0.32441556 0.3377296 2.120459 1.0654831 0.26293677 -2.1033962 0.89046156 -2.427439
-1.0239067 -1.4445006 0.077762626 0.23423842 -0.045691833 1.3364679 -0.6237381 1.5889802
0.42688027 0.054974455 -0.557791 2.0790224 0.21692106 3.6374404 -0.49317846 -0.4970264
0.41842297 -0.86928576 -1.4732155 -0.08814315 0.6690045 0.041694414 -0.33960074 -0.040148657
-0.29202607 2.3536441 -0.3581684 0.37122396 -0.66154337 0.14573051 1.2511742 -0.3758307
1.0116926 -0.7786639 -0.8419182 -0.2716596 -1.921123 0.5319551 0.6394665 0.7828282
-0.68437314 -0.039582662 -0.82121694 -0.92252 0.33969194 0.06785882 0.2776772 -1.5235661
-0.32991692 -0.052615345 -0.5616706 -0.103087775 -1.0084735 0.12096929 -1.804622 1.1228868

lstm.bias_hh_l1 f4 [356]
00000000: dac3 11c0 b34b 1cc0 3791 54c0 7bc2 b2bf
00000010: 4fb7 9fbe 5ad2 81be b471 cdbf 282f d2bf
00000020: c90d 00c0 bc37 bfbf 3a5e 24bf a4a4 7abf
00000030: 5aea cdbf f84d 8bbf 3b51 f3bf 257c 4bc0
00000040: ae3c 53c0 3d57 d7bf a7ad 743d a398 60bf
00000050: 0cd3 18c0 f943 f9bf 8e19 5bbf d16c 4bbf
00000060: acd8 eebe c7c8 a9bf e417 3ec0 b44c f8bf
00000070: 8308 30c0 38b8 a43e 3d7a 31c0 65a3 5ec0
00000080: a030 cdbf cb74 4cbe 6615 41c0 b5b4 05be
00000090: 30ff 85bf fd83 1ac0 4fdd 30c0 d3fb 7dbf
000000a0: e0b1 2bbf 59b6 4ec0 88d0 99bf 7a51 5bc0
000000b0: 6fe1 31c0 9550 1bc0 722c 36c0 7020 e4bf
000000c0: 2683 2fc0 7ade 3dc0 f7f3 f5bf 6935 57c0
000000d0: 390a 17c0 1ef4 14c0 f504 2abf 2084 1ec0
000000e0: c577 723f e5b4 45c0 5108 b0bf c4b2 0cc0
000000f0: 86a0 97bf b81e 6f40 aff2 0ec0 c3d0 46c0
00000100: b918 3ac0 50ea 023f 95d6 2cc0 c0cc f6bf
00000110: 7e2b 3ec0 9f9e 353e 30e7 933e b505 aebf
00000120: c253 20c0 ed2f 44c0 13ac b6be d2e6 00bf
00000130: 4711 f2be 0a0c d8bf ea8f 51c0 df86 4ec0
00000140: 1e8a fdbf 44cc 14c0 c492 35c0 8497 44c0
00000150: f29a 2ec0 967f 4cbe 4229 37c0 e958 dabf
00000160: 8c1d 3ec0 f637 01c0 b189 57c0 e57e 99bf
00000170: 2b17 6ebf 0666 9dc0 954a 4bc0 1cfb 6dc0
00000180: 8be0 6cc0 c5a1 19c0 ae3e 74bf 231f 8cc0
00000190: 156b 26c0 349e 5bc0 18a1 efbf 1f82 0dc0
000001a0: 5abd a8bf 0cfb 79c0 f8dc 80c0 7584 66bf
000001b0: 99fc a1bd 5147 d5bf 1387 a0c0 8a9c cabf
000001c0: b69f cabf 5f99 87bf 322c 99c0 ac82 8fbf
000001d0: 3bb0 2bc0 6f34 a3bf ed17 95bf aa81 8dc0
000001e0: 27d0 cbbf cb24 87c0 4c6e fabe a5fc 7ebf
000001f0: 34d7 fcbf 7610 99c0 d447 51bf a118 ffbf
00000200: 11f3 8bc0 a3e3 c9be 34d1 d1bf 7fac 80c0
00000210: 26d5 87bf bd14 43bf 9ac5 e6be c4ef d7be
00000220: c1d4 70c0 e3ca 07c0 a5c1 19bf 3ae8 dbbf
00000230: 8213 e9bf 3eca 12c0 50cc 8b3f 1db8 4bc0
00000240: 463f 1cbf 7d07 4f3f 15f5 e1bf f767 42bf
00000250: d327 1bbf bc78 2b40 cefe 14bf b047 34bf
00000260: 5833 44bf 3a02 1fc0 8f04 6ebe f87b 1cbf
00000270: aa3a 3d40 f5b2 96c0 db35 61c0 d21a 85bf
00000280: 02c0 dfbf c7bc cabe 8ada 6ebf 8da7 80c0
00000290: c3c3 ffbf 37b1 47bf c2b6 70c0 8b5d 9bbf
000002a0: 8604 b8bf 7a43 9fbf d410 4bc0 4138 5c40
000002b0: 0ad4 ccbf 544c 49bf 6a78 8bc0 339a 08c0
000002c0: a807 a740 9a5d 5abe 27ae 773f 69be 623f
000002d0: 1841 8bbe 4754 ca3e 1642 3c3e 0853 56bf
000002e0: 7694 cc3f 9e16 913f 7f37 fbbc 2a99 7e3f
000002f0: 51d0 f43c a7de 15c0 21d1 21c0 1e28 763f
00000300: 5741 823e 2f5f 993e 4edb f73f cb01 903f
00000310: f71c 8c3e dda1 01c0 823d 5b3f 9a44 17c0
00000320: 5e24 83bf ae55 c4bf 374d 133d 80c2 bb3e
00000330: 993a 033c 2bf7 ab3f cdb5 3bbf b68a c83f
00000340: ee0e c73e 8a6d 353e 52c7 08bf 6078 0440
00000350: 56e9 893e e4f6 6140 ad4e 0fbf d826 26bf
00000360: 2280 e43e 0272 6fbf 374b bebf 0f4e 81be
00000370: 3e1e 2e3f 6520 ac3d b04d c9be d872 23bc
00000380: 44f3 45be 68f9 1640 f16c f8be 1640 983e
00000390: 6048 2bbf 416b 2b3e 9ed0 9f3f 8c9c 85be
000003a0: f251 823f a04f 6ebf fd5c 33bf 55d5 4cbe
000003b0: 5042 eabf 3f9d f63e 6c0c 383f 788e 703f
000003c0: 953a 1abf 108c 9ebd 03e2 79bf b307 5cbf
000003d0: 2fe0 de3e 0179 373d 5dd1 3c3e 0d95 bdbf
000003e0: a575 7ebe 3775 a3bd 41e7 0cbf 3294 8abe
000003f0: 722a 6fbf faa4 593e 9f11 e8bf ba78 893f
-2.2775788 -2.4421203 -3.3213632 -1.3965601 -0.3119454 -0.25355798 -1.6050324 -1.6420641
-2.0008414 -1.4938884 -0.6420628 -0.9790747 -1.6087143 -1.0883169 -1.9009165 -3.1794522
-3.3005786 -1.6823498 0.05973592 -0.87732905 -2.3878813 -1.9473869 -0.8558587 -0.79462916
-0.46649683 -1.3264397 -2.9702082 -1.9398408 -2.7505195 0.32171798 -2.7730858 -3.4787228
-1.6030464 -0.19966428 -3.016931 -0.13057216 -1.0468502 -2.414306 -2.7635076 -0.9921238
-0.6706829 -3.2298796 -1.2016764 -3.426848 -2.7793844 -2.4267933 -2.8464627 -1.7822399
-2.7423797 -2.966704 -1.9215077 -3.362635 -2.359999 -2.3273997 -0.66413814 -2.4768143
0.94714004 -3.089166 -1.3752538 -2.198411 -1.1845863 3.73625 -2.2335622 -3.1064918
-2.907759 0.5113878 -2.700597 -1.9281235 -2.9714046 0.1773629 0.2888732 -1.3595492
-2.5051122 -3.0654252 -0.35678157 -0.50352204 -0.47278807 -1.6878674 -3.2744088 -3.2269819
-1.9807775 -2.3249674 -2.8370829 -3.0717478 -2.728207 -0.19970545 -2.8618932 -1.7058383
-2.9705534 -2.0190406 -3.367779 -1.199185 -0.930041 -4.918704 -3.1764271 -3.7184515
-3.701205 -2.4004986 -0.9540814 -4.378801 -2.6002858 -3.431531 -1.8721037 -2.211067
-1.3182786 -3.9059477 -4.0269737 -0.90045863 -0.07909507 -1.6662389 -5.0164886 -1.5829022
-1.582999 -1.059368 -4.786645 -1.1211753 -2.6826313 -1.2750376 -1.1647927 -4.422078
-1.5922898 -4.2232413 -0.48912275 -0.99604255 -1.9753175 -4.7832594 -0.81750226 -1.9929391
-4.373421 -0.39431486 -1.6391969 -4.0210567 -1.0611923 -0.7620352 -0.45072633 -0.42175114
-3.7629855 -2.1217582 -0.60061103 -1.7180245 -1.8209078 -2.293594 1.0921726 -3.1831124
-0.6103405 0.808708 -1.7652918 -0.7593989 -0.6060764 2.679244 -0.582013 -0.70421886
-0.76640844 -2.484511 -0.23243926 -0.6112666 2.9567056 -4.7093453 -3.518912 -1.039881
-1.7480471 -0.3959715 -0.93302214 -4.020453 -1.9981617 -0.78004783 -3.7611547 -1.2137922
-1.437638 -1.2442467 -3.172902 3.4409335 -1.6002209 -0.7863209 -4.358449 -2.1344116
5.2196846 -0.21324769 0.9675011 0.8857179 -0.271981 0.39517424 0.18384585 -0.83720446
1.5982807 1.1335027 -0.030666111 0.9945246 0.02988449 -2.3417146 -2.5283892 0.96154964
0.25440475 0.29955432 1.9363801 1.1250547 0.27365848 -2.0255044 0.8564073 -2.363562
-1.0245473 -1.5338647 0.03596231 0.3667183 0.008009576 1.3434805 -0.7332428 1.5667331
0.38878578 0.17717567 -0.5342914 2.069847 0.26935834 3.530694 -0.55979425 -0.6490302
0.44629008 -0.9353334 -1.4866704 -0.25254866 0.68014896 0.08404616 -0.39317083 -0.009976111
-0.1933108 2.3589725 -0.48520616 0.29736394 -0.6690731 0.16740133 1.248554 -0.26095998
1.0181258 -0.9309025 -0.70063764 -0.20003255 -1.8301487 0.48166844 0.71893954 0.9396739
-0.6024564 -0.077415586 -0.9761049 -0.8594925 0.43530414 0.044793133 0.18439241 -1.4811112
-0.24849565 -0.07981341 -0.55040365 -0.2706619 -0.9342414 0.2125434 -1.8130378 1.0739968
