PressureToTask/PressureToTask/finetune_opr_inv_v2.pt (torch, 504335 bytes, 16 tensors)

lstm.weight_ih_l0 f4 [356, 3]
00000000: 44f9 91c0 4370 a940 60f4 83bf dfa6 2e3f
00000010: 4c5d 053f 6a56 86c0 3d8f 3abf a07a 66bf
00000020: 1426 17c0 ef45 553a b123 3940 2428 85c0
00000030: 15da 81bf d44f 0fbc 96bc 73c0 34a2 9cc0
00000040: 26e0 6bbf ce3f bbc0 3114 2fc0 0645 6bbf
00000050: f97d abc0 871f a9bd 8edf b43e 2285 5cc0
00000060: d563 c3be c564 d5bd 1bd7 89c0 8948 c4c0
00000070: 8b03 883c 223f 80c0 b1b7 50c0 6dcd 53c0
00000080: 7fe4 87c0 95bf d0bd 42b8 2d3f 63e5 45c0
00000090: b9cb 2140 f3c0 d740 aa0a 14c0 f1a7 d2be
000000a0: 3de1 8b3f f966 66c0 e814 9840 f089 d7c0
000000b0: 656d 22c0 80ef ca3f a0aa c6be 6fce 75c0
000000c0: 2e55 b6bf 710e 51bf 0dd2 60c0 07b9 a73f
000000d0: ce1e d140 98f2 21bf 6095 26c0 70aa a3be
000000e0: ee06 d2c0 964a c3bf c36f 60bd 90fb 9cc0
000000f0: 6e1e 483e bea9 86be 0fe4 6fc0 090c 76bf
00000100: 30f6 b73f 740e 94c0 f786 55be 1dd2 853e
00000110: 719c 85c0 2c2e 573e fbbc 3fbf eb56 11c0
00000120: e6ec 08be 7eaa cc3e 2997 7cc0 b0b2 babe
00000130: e068 83bf 4e94 5bc0 5b8f 393f 6a2d edbf
00000140: 7473 87c0 9bef c2bf 476f 84bf 095d e8c0
00000150: ef70 29be e4e5 01c0 b4dd 88c0 8e3d 57c0
00000160: bd3b 30c0 da89 54c0 c3c6 b6bf 7a8c a240
00000170: 0156 85bf 974c ce3e 1cb4 303f 60ff 5bc0
00000180: fddf 223e 6184 a33f 5cbe 8dc0 1ecb c8c0
00000190: c618 2ac0 1221 00c0 3687 78bf c23c 693f
000001a0: a16e 97c0 5ef9 1ac0 d830 b4c0 6013 23c0
000001b0: 7297 89bf 721c 87bf 4952 85c0 50c8 873e
000001c0: 649c 3f3f a4cb 1cc0 81b0 57bd 3506 c7be
000001d0: ec68 4fc0 6ad4 b3bf 9126 353f f8b3 c3c0
000001e0: 37e2 afbf 4e3f f53f 7b13 9dc0 7d87 e4be
000001f0: 8bda 133e cd6a 3ec0 f6e2 d7c0 04c9 4d3f
00000200: c85d eabf 3452 8b40 b285 5440 2b8a 2bc0
00000210: 78f9 9bbf 8624 f83f 42da 36be 6f4b bd40
00000220: db92 83bf 4f90 23c0 f103 313f 0cbf 543f
00000230: 6622 f8c0 75ee aac0 83e7 8740 7ba7 2bc0
00000240: c8c4 003f f899 013f 9d09 5dc0 d572 c3be
00000250: 0079 263f 6f06 79c0 379d 51c0 6929 bbbe
00000260: f26f a2c0 d36d 883f 1f55 8440 4e49 c2bf
00000270: 66cf 383e 3b8d 0a40 0abc 77c0 211b f43e
00000280: e91c 8d3e 405e 8ec0 7a00 4bbf dc80 963e
00000290: bfb1 45c0 b84f 71bf 05cc 25bd e3f7 b0c0
000002a0: 7421 2bbe e81d 22bf ffed 86c0 3fc1 12bf
000002b0: 3ab0 df3e b95f 53c0 d8bc 35bf 22a7 24bf
000002c0: d332 70c0 299e 9cc0 823c 513f 1b96 95c0
000002d0: 6d10 d4be 2d63 153f 58f4 63c0 3260 2bc0
000002e0: f3d5 a0bf ae48 adc0 9dc3 7240 b012 8840
000002f0: a9b7 07c0 fc86 6440 aeca e0bf 42f3 83bf
00000300: 8b31 5dbf 9a75 f2be 4142 4ac0 4066 c53f
00000310: 9f2c 86bf d50e 48bf 2a68 87c0 3427 e5bf
00000320: 1aff d5bf 638f 18bf 9ac0 57be 9715 8cc0
00000330: a9a2 8c40 d3f8 a43f 6e1a 83bf a90b d2be
00000340: b757 1a40 977a b5c0 3aba a9c0 61a8 1e3f
00000350: 11a4 05c0 389f 923f 7b7d 61c0 2380 d2be
00000360: cf76 0fc0 8615 62c0 444b 95c0 da40 9dbe
00000370: 1f27 893f 0580 e6be 81c5 4e3f 4092 5640
00000380: 5f5f acc0 079c 07c0 4069 8040 4a48 a8c0
00000390: e3f2 53be b78d 1240 6b40 a6c0 1734 6540
000003a0: 9a50 843f 40be bdc0 e969 bd3e 0713 903e
000003b0: 3570 4bc0 cdc3 84bf d3bd fa3f 4135 a5c0
000003c0: 1579 b7c0 08c2 c43f c21a 3fc0 49e6 14be
000003d0: 0e8e 8bc0 3170 afbf 7258 083f 21e3 913f
000003e0: a972 86c0 9f4d 8cbf 77e2 31bf 8b91 84c0
000003f0: cab1 19be e58c 143e 05eb 6fc0 b73e cdbe
-4.561678 5.294954 -1.0308952 0.68223375 0.52095485 -4.1980486 -0.72874814 -0.9003086
-2.361699 0.0008135726 2.8928034 -4.16115 -1.0144678 -0.00874706 -3.8083854 -4.8948
-0.921389 -5.8515387 -2.7356074 -0.91902196 -5.3591275 -0.082579665 0.3532681 -3.4456258
-0.38162103 -0.10419611 -4.307508 -6.1338544 0.016603252 -4.0077066 -3.2612116 -3.3094132
-4.2466426 -0.101927914 0.6785928 -3.0921257 2.5280592 6.7423034 -2.313151 -0.41143754
1.0928112 -3.600035 4.752552 -6.735588 -2.537927 1.585434 -0.38802052 -3.8407247
-1.4244745 -0.8166266 -3.5128205 1.3103341 6.5350103 -0.63260794 -2.6028671 -0.3196597
-6.563346 -1.5257137 -0.054794084 -4.9057083 0.19542858 -0.26301378 -3.7482946 -0.96112114
1.4372005 -4.6267643 -0.20852266 0.26136866 -4.175347 0.21013707 -0.74897736 -2.27093
-0.1337162 0.39973825 -3.946726 -0.36464453 -1.026638 -3.4309268 0.7248437 -1.8529484
-4.2328434 -1.5229372 -1.0346459 -7.261357 -0.16546987 -2.0296564 -4.2770634 -3.363132
-2.7536461 -3.3209138 -1.4279407 5.079648 -1.0416871 0.40292808 0.69024825 -3.4374619
0.15905757 1.2774774 -4.429487 -6.2747946 -2.657762 -2.0020185 -0.97081316 0.91108334
-4.7322545 -2.4214702 -5.6309624 -2.5480576 -1.0749342 -1.0555556 -4.1662946 0.26520014
0.7484801 -2.4499292 -0.05265856 -0.38871923 -3.240779 -1.4049199 0.7076197 -6.115719
-1.374091 1.9159944 -4.908628 -0.4463462 0.14438836 -2.9752686 -6.746455 0.8038485
-1.830987 4.3537846 3.32066 -2.680308 -1.2185507 1.9386146 -0.17856696 5.915458
-1.0279192 -2.555683 0.6914664 0.83104014 -7.754199 -5.3416085 4.2470107 -2.6820972
0.50300264 0.5062556 -3.4537117 -0.38173547 0.6502838 -3.8910177 -3.2752206 -0.3655503
-5.076165 1.0658516 4.1353908 -1.5178621 0.18047866 2.16487 -3.870852 0.47676948
0.2756112 -4.449005 -0.792976 0.29395187 -3.0889738 -0.94262266 -0.04047777 -5.5302596
-0.1671198 -0.63326883 -4.2165523 -0.5732612 0.43689138 -3.3027174 -0.7099128 -0.64317524
-3.753102 -4.8943067 0.8173295 -4.6745734 -0.41418782 0.58354455 -3.5617886 -2.6777463
-1.2565292 -5.415122 3.7931893 4.252281 -2.1205847 3.5707388 -1.7561853 -1.0308611
-0.8640372 -0.47355348 -3.1602938 1.5421829 -1.0482367 -0.7814763 -4.2314653 -1.7902589
-1.6718476 -0.5959379 -0.21069565 -4.3776355 4.394856 1.2888435 -1.0242441 -0.4102452
2.4116037 -5.6712146 -5.3039827 0.61975676 -2.0881388 1.145484 -3.5232837 -0.41113386
-2.2416265 -3.5325637 -4.6654377 -0.3071354 1.0715064 -0.45019546 0.8077012 3.3526764
-5.386642 -2.1188982 4.012848 -5.2588243 -0.20698123 2.2898996 -5.1953635 3.5813043
1.0337098 -5.929474 0.36994866 0.28139517 -3.1787236 -1.0372254 1.958918 -5.1627507
-5.7335305 1.5371714 -2.9860082 -0.14540972 -4.3610907 -1.3706113 0.53259957 1.1397439
-4.2014966 -1.0961188 -0.6948618 -4.1427665 -0.15009227 0.14506872 -3.7487195 -0.4008691

lstm.weight_hh_l0 f4 [356, 89]
00000000: 120e 2b3f 57d4 85bf 6d2c 9440 ec82 8fbd
00000010: 6f74 f4bf c5e3 9fbf 24c0 7d3f 389a 433f
00000020: 6037 01bf f1ec 05c0 8af9 e3bd 818d d03e
00000030: f1af 873e 819e 03bf 3532 28c0 2107 513f
00000040: 6a4f c9bf 6203 2dc0 20c2 9bbf cb75 67bf
00000050: eb1c 70bf 468a a73d 861b 243e f029 3140
00000060: 81e6 d63e 9fad 823e 345a e9bd a964 47bf
00000070: 9e13 aebf dd88 6340 9f7f f73e 81e8 f7be
00000080: bd84 e33e 6035 2940 8803 84bf dd6e 88c0
00000090: 6213 a43f 3d81 a6bd a11f d0bd 2c8b d8bd
000000a0: ac31 9ebf 3cb1 bdbd 2f8e 7ebf 4e54 4340
000000b0: 2d44 13bf fef1 8040 2395 66be 6956 c63f
000000c0: ac99 9abe f149 25bf 5507 663f 6349 b5be
000000d0: f01f 463f 15fd d8be 147c 23bf 10d6 933f
000000e0: a94b 733e ed74 fabe eb00 6a3f aae0 14c0
000000f0: d0dc 5abe bd4e c8bd ce53 19c0 4941 36bf
00000100: 0a3f 87be 6e6a d5bf f33b e4be c55d 123f
00000110: 1dad d3be 25d2 d5be f5a4 1c40 0f62 2340
00000120: f140 0a40 cff0 083f af48 71bf 1ee9 613f
00000130: 0a88 73be 63a4 91bf b007 e6be 6dea 86be
00000140: e003 44c0 eac3 bbbf a181 103f 3901 06c0
00000150: 06b3 a43e ed27 3dc0 6f0a e53d 98fb 4cc0
00000160: cee0 713f 1331 35be 3437 a639 7747 11be
00000170: 5e38 c7be 6c5e e93e d200 083e 1418 193d
00000180: 8ca9 f03c 5c57 eabd ce6d c43d 7489 b33e
00000190: 1763 e73d 66fb 12bf 4fab af3c 06b8 58be
000001a0: a4bc 063e c05c e63c 155e 2a3f b93c 81bd
000001b0: 3d80 2b3e 0a4e 11bd c6cc 41bd 8aae 2d3e
000001c0: 7d14 433f c3c4 0f3e 5542 80bd d3d5 493d
000001d0: 6d08 353e 516a c8bd 0915 373f 4bc0 863e
000001e0: 9a11 28be 5e68 b8bc 4914 7ebd 4336 d63d
000001f0: ca45 2bbf 6569 383e 6ad0 db3e d995 9cbd
00000200: 3c2e 2b3e d436 f3bc 91e1 1dbe 60b7 f9bd
00000210: ee2d 16bf f108 413f f69f 803e 756e cebd
00000220: 7e01 573d 0af7 b0bb 29b0 29be 661f 70be
00000230: 31f9 bdbe 6bdb bfbd 500d a93d 0412 883d
00000240: 5d9d 923d bcf2 403b 291a 11bc 9da1 3dbe
00000250: b3f0 953d c0e8 d6bd d75c d93e 415b a2be
00000260: d814 78be 9ba9 f1bc ce40 1ebf cf78 f6be
00000270: 250e a23c db62 b63e b400 413c 43bc cb3e
00000280: 99e2 be3e 2bf3 293e da25 4cbe 4148 a23d
00000290: a19a 55bd 946f 5fbe 912c bd3b 8179 943d
000002a0: 0fa1 913d 11a2 d13e f65b 44be d66b 973e
000002b0: 146c 1dbe ccfe b63d 81ac b7be d7dd 673d
000002c0: 7d01 b5be 9f6b c83d 18d3 4440 b67c eabe
000002d0: 3f21 0bc0 2d17 07bf 85e3 6b3f 701a 26be
000002e0: b060 36bf 70a0 1c3d 6742 dd3e 9fcf 42c0
000002f0: 1e81 c0be cf62 ebb9 20a7 23c0 d59b a93e
00000300: faac 3e3e 3a5c b8be 69ad d6bd f6c5 a13f
00000310: b5fb db3d 177c a63e 4bd3 37be f796 623d
00000320: 8829 dfbc 23b7 a73f 2422 393e cbbc f03d
00000330: b871 743e d4b4 4b40 7a10 083e 8710 f5bf
00000340: 595f 433f 7a9c 603e 63f9 94bd bd88 e7be
00000350: 92f9 0840 aa9c a240 6fcc 13bf e76c 8fbf
00000360: 9d73 74bc c31f 86be 772c 9abd 4655 723e
00000370: 11e0 16c0 4144 99bf e8a0 a43e 88dc 3c40
00000380: 1b0d aebe bd0d 2540 da65 01bf db50 0b3f
00000390: f077 fc3d 0124 40c0 b8f3 1abf 65c3 c33e
000003a0: 3e43 ef3d d296 5dbe faa4 cabd cd41 73bd
000003b0: d8dd 3abe beef e1bd a673 af3e 7738 61be
000003c0: 4eb3 02c0 fcf9 523f 0ff4 ae3e 2b5c 883f
000003d0: 8d7f d83f 3392 6d3e c12e 753e b06d a0bf
000003e0: 7a55 08c0 cd7b b03f c94c 00c0 89af efbf
000003f0: 55de a4bf ed29 91bf 2e62 333f e6a4 4dbf
0.66818345 -1.0455426 4.630423 -0.07007393 -1.9098033 -1.2491385 0.9912131 0.76407194
-0.5047512 -2.0925868 -0.1113158 0.4073296 0.2650142 -0.5141373 -2.6280644 0.816515
-1.572736 -2.7033315 -1.2168617 -0.9041411 -0.93794125 0.081806704 0.16026124 2.7681847
0.41972736 0.25523087 -0.11394158 -0.7788797 -1.3599737 3.5552285 0.48339555 -0.48419574
0.4443721 2.6438828 -1.0313578 -4.263533 1.2818415 -0.08130119 -0.10162283 -0.1057342
-1.2358909 -0.092623204 -0.99435705 3.0520205 -0.57525903 4.02954 -0.22517829 1.549512
-0.30195367 -0.6456595 0.8985494 -0.35407552 0.7739248 -0.42380586 -0.63861203 1.1549702
0.23759331 -0.48917332 0.9140765 -2.3262124 -0.21373296 -0.09780643 -2.39574 -0.7119337
-0.26415282 -1.6673105 -0.44576988 0.5717433 -0.41343012 -0.4176189 2.4475682 2.55286
2.1602137 0.53492445 -0.9425153 0.88246334 -0.23782364 -1.1378292 -0.4492774 -0.26350728
-3.0627365 -1.4669163 0.564478 -2.0938246 0.32167834 -2.9555619 0.11183631 -3.202856
0.9448365 -0.17694502 0.00031703117 -0.14187418 -0.38910192 0.4557985 0.13281563 0.03737648
0.029377721 -0.11442444 0.09591256 0.35065806 0.11298197 -0.57414854 0.021443991 -0.2116395
0.13157898 0.028120399 0.6654981 -0.0631041 0.16748138 -0.035474814 -0.047314428 0.16961113
0.7620314 0.14039902 -0.06262652 0.049276184 0.17678995 -0.09785903 0.7151647 0.26318583
-0.16412964 -0.022510704 -0.062031064 0.10459568 -0.66903365 0.18008955 0.42932445 -0.07645769
0.16716856 -0.02968923 -0.15418078 -0.12193179 -0.58663833 0.7540427 0.2512204 -0.10079662
0.052491657 -0.005400543 -0.16571106 -0.23449478 -0.3710418 -0.093680225 0.08254492 0.06644061
0.07158921 0.0029441556 -0.008856335 -0.18518682 0.073213 -0.10493612 0.42453644 -0.31710246
-0.24226701 -0.02949982 -0.61817634 -0.48139045 0.019782135 0.35622296 0.011779953 0.3979207
0.37282255 0.16596667 -0.19936314 0.079239376 -0.05214942 -0.21819907 0.005773135 0.072497375
0.071107976 0.4094396 -0.19175705 0.2957446 -0.1537326 0.089353174 -0.35873798 0.056608047
-0.35352698 0.09786152 3.0753841 -0.45798272 -2.1739042 -0.5276974 0.9214404 -0.16221023
-0.71241283 0.038238943 0.43214723 -3.0439222 -0.3759851 -0.0004489631 -2.5570755 0.33126703
0.18620673 -0.36007863 -0.10482294 1.2638538 0.10741369 0.32516548 -0.17951696 0.055319753
-0.027241483 1.3102764 0.1807943 0.117547594 0.23871505 3.1829119 0.13287535 -1.9145669
0.76317364 0.21934691 -0.07274129 -0.4522151 2.1402326 5.081624 -0.57733816 -1.1205109
-0.0149201425 -0.26196107 -0.07528012 0.23665342 -2.357426 -1.1973954 0.32154012 2.9509602
-0.33994374 2.5789635 -0.5054604 0.5442025 0.12327564 -3.0021975 -0.60528135 0.38235012
0.11682747 -0.21639565 -0.09894748 -0.059388924 -0.18248689 -0.11032055 0.3426792 -0.21994196
-2.042194 0.82412696 0.34170577 1.0653127 1.6913925 0.23200302 0.23943616 -1.2533474
-2.130217 1.3787781 -2.0046866 -1.8725444 -1.288035 -1.134092 0.70071685 -0.8032974

lstm.bias_ih_l0 f4 [356]
00000000: f9b7 e8bd 1bc9 5bc0 a5bf 0cc0 649a 72c0
00000010: be83 61c0 85d3 55c0 5b97 61c0 165c 62c0
00000020: 4e17 6dc0 b594 b6bf 53b0 35c0 aa3d 73c0
00000030: 8c7c 3abf 0e58 6dc0 fe9d 9dbf cf0f 6cc0
00000040: 803c 6cc0 0430 fdbe dc57 49c0 320f 5ac0
00000050: 1283 70c0 dc03 55c0 d39c 5fc0 b8e0 6b3e
00000060: 82f4 6cc0 7ce9 71c0 03c8 61c0 b055 b7bf
00000070: db3d 5bc0 2598 37c0 2505 84bf 1d9b 70c0
00000080: dd4e 66c0 d872 91bf c292 65c0 0fbc 79bf
00000090: 4889 61c0 b18c 65c0 eedc 71c0 b480 37c0
000000a0: 26be 49c0 d014 70c0 902f 91bf d749 e1bf
000000b0: 577b 25bf 3b34 86bf dc5e 36c0 ef5e 8abf
000000c0: 98d6 60c0 bffc 6fc0 1272 5bc0 1f08 6fbf
000000d0: b469 70c0 5154 6ec0 04e0 6dc0 4679 4bc0
000000e0: 4277 6cc0 abb1 70c0 4307 6ac0 e73e 51c0
000000f0: fbd8 6dc0 d587 49c0 755e 8fbf 06c1 a0bf
00000100: e9cd 63c0 758d 11bf 0abe 16bf 84b9 5bc0
00000110: 25d9 74bf 09ec 57c0 3fc8 eebf 5373 8fbf
00000120: d464 41c0 1d15 bbbf 7e75 41c0 d2b5 44c0
00000130: ad6d 67c0 c188 51c0 c4ac 65c0 f8dd 51c0
00000140: 7c0f e1bf 23a3 d1bf 1881 72c0 b0a8 12c0
00000150: 5cf3 6dc0 e6b1 38c0 cf80 5ac0 198f 61bf
00000160: bee2 55c0 db47 d7be e30d b7bf 4350 ccbe
00000170: e3ea b6bf 2b80 d8bf e427 6dc0 d45d 05c0
00000180: bc0e b4bf 8914 bfbf bd4f 5ec0 1fcc 24c0
00000190: eccd e1bf dd63 83bf c1f7 f8bf 74f0 ebbe
000001a0: fcd5 e3bf 6db7 d0bf 5a02 ccbe 3bfd 09c0
000001b0: c258 11c0 679e aabf d055 0bc0 1b79 bcbf
000001c0: af6e c0bf 0891 14c0 7cc8 ddbf c7bb 1ebf
000001d0: d8eb 11c0 5f64 b8bf 5ae0 96be 4f82 fe3d
000001e0: 5348 0ec0 5bac 9dbf fb7e a4be 3187 ccbf
000001f0: ca62 adbe 38e1 8ebe 3353 b6bf 49b6 edbf
00000200: 5534 1bc0 29c4 27c0 7f23 dabf d59c 46be
00000210: 0fd5 0f40 b899 4fbf 037a 3ebd 5345 1ac0
00000220: bc8b 87c0 735c d7bf 7e78 0fc0 5264 22c0
00000230: d7de 643e b6b7 12c0 5502 98be a39b ebbf
00000240: 402a bbbf 666d ffbf 9140 ecbf 1639 06c0
00000250: 8b4b 5abe 9c96 0ec0 1976 0dc0 40b8 b0be
00000260: 19af bc3d 2fdd 00c0 5642 f7be 0a5f 053f
00000270: 8ef9 c6bf 3f6e a83e 8680 56bf 495e a3bf
00000280: f33d 203e 081d 8fbf 2c9d 41bf e419 d5bf
00000290: 32f7 70bf 6dc6 b5bf 2668 f1bf af28 abbf
000002a0: 8f4d 17c0 1a1f cdbf 703e 2b3f 6752 15be
000002b0: 4a31 88bf 050e fabf 5e5f 0dbf 68f3 0cc0
000002c0: f627 ad3e 68e6 f3bf 087a 97bd fff2 a83e
000002d0: dd87 5abe a0d6 0c3e f85b 2e3e 6113 9a3e
000002e0: bcde f5be 7c2a 14be ff1d de3e b3a4 1d3d
000002f0: dfee d4bd aa56 13be ce3f 1b3e 0b81 e03d
00000300: d0e6 3cbc 8d4f 38be 068c 6a3e a75b cebc
00000310: a29c b23e c670 ed3e c3aa 493e 1e88 6c3e
00000320: 4c6d fdbd 2194 0abf 0487 b8bd 7553 4dbb
00000330: ba79 e1bc 423b 1e3f 0335 243e 9a6a 9ebe
00000340: 491f 5cbe 4c57 693d ffe4 03bd aea6 03be
00000350: 4b84 3b3e 5c10 323e 6de0 f23d e04b a33e
00000360: 3bbd dcbc 2b6e 5b3e 51c8 4bbe f09f c13c
00000370: 31f3 cfbd 91cf 0dbe 3dff dbbd 4e73 f3bc
00000380: 948f 91be 3bc8 1bbe 8c61 293e 9813 593e
00000390: 354c 28be b576 5ebd c144 3f3d a953 a03d
000003a0: 832e ae3d 974f bdbe 00f4 e1be f15e 333e
000003b0: 7f7d 80bd 9878 92bd 4421 eabd 73b5 4e3d
000003c0: 3375 6c3e d1cb a5be 73f9 de3d 6faa 003c
000003d0: a0cb b9bc 9b45 7ebe 5298 9ebb d5cf 803e
000003e0: a51b 83be ea05 1cbe 338d aabe f890 843e
000003f0: 39e3 2a3e 592b 6d3e 4b57 b2bd 1322 e03e
-0.11363215 -3.4341495 -2.199197 -3.7906733 -3.523666 -3.3410351 -3.524863 -3.5368705
-3.7045474 -1.4264132 -2.838887 -3.8006387 -0.72846293 -3.7084994 -1.231384 -3.6884649
-3.6911926 -0.49450696 -3.1459875 -3.4071774 -3.758 -3.3283606 -3.4939468 0.23034942
-3.7024236 -3.7798758 -3.5278327 -1.4323025 -3.4256504 -2.8686612 -1.031407 -3.7594674
-3.5985634 -1.1363173 -3.5870824 -0.9755258 -3.524004 -3.5867121 -3.7791095 -2.8672304
-3.1522307 -3.7512703 -1.134264 -1.7600659 -0.64641327 -1.048469 -2.8495398 -1.0810221
-3.5130978 -3.7498014 -3.4288373 -0.93371767 -3.7564516 -3.7238963 -3.7167978 -3.179277
-3.694779 -3.760844 -3.6566932 -3.2694643 -3.7163684 -3.1489155 -1.1200701 -1.2558906
-3.5594428 -0.5685647 -0.58883727 -3.433198 -0.95643836 -3.3737814 -1.865486 -1.1207069
-3.021779 -1.4615818 -3.0227962 -3.0735974 -3.616069 -3.2739718 -3.5886698 -3.279173
-1.758285 -1.637791 -3.7891293 -2.2915459 -3.7179785 -2.885858 -3.4141119 -0.88108975
-3.3419642 -0.4204701 -1.4301113 -0.39904985 -1.4290432 -1.6914114 -3.7055597 -2.0838518
-1.4066997 -1.4928142 -3.4736168 -2.5749586 -1.7640967 -1.0264851 -1.9450608 -0.4608189
-1.7799678 -1.6305977 -0.39845544 -2.156081 -2.2710423 -1.332959 -2.1771126 -1.4724458
-1.5033778 -2.321352 -1.7326808 -0.62005275 -2.2800198 -1.4405631 -0.29468042 0.12427198
-2.2231643 -1.2318224 -0.32128128 -1.5978757 -0.33864433 -0.27906203 -1.424414 -1.8571254
-2.425069 -2.6213477 -1.7042083 -0.19395764 2.247379 -0.8109393 -0.04650308 -2.4104812
-4.2358074 -1.6825088 -2.2417293 -2.537373 0.22350632 -2.2924628 -0.2968928 -1.8406872
-1.4622269 -1.9955261 -1.8457204 -2.0972342 -0.2131788 -2.2279425 -2.210333 -0.34515572
0.09213085 -2.0135 -0.48292798 0.52098143 -1.5544908 0.3289661 -0.8378986 -1.2763149
0.15648632 -1.1180735 -0.7563045 -1.6648526 -0.9412719 -1.420118 -1.8859909 -1.3371791
-2.3641088 -1.6025116 0.6689215 -0.14582215 -1.0640042 -1.9535528 -0.55223644 -2.2023563
0.3381955 -1.905469 -0.073963225 0.3299789 -0.2134089 0.13753748 0.17027271 0.3009291
-0.48021495 -0.14469332 0.4338226 0.038487148 -0.103971235 -0.14388528 0.15161058 0.10962113
-0.011529639 -0.17999096 0.22904977 -0.025190188 0.34885126 0.46375102 0.19694047 0.230988
-0.12374362 -0.54132277 -0.09010127 -0.0031330262 -0.027523864 0.6180917 0.16035847 -0.30940706
-0.2149631 0.05696802 -0.03220081 -0.12856552 0.18312185 0.17389053 0.11859212 0.31893826
-0.0269457 0.21428744 -0.19900633 0.023635834 -0.10153807 -0.13848712 -0.10742042 -0.029718067
-0.28429854 -0.152131 0.16541117 0.2119888 -0.1643532 -0.054312427 0.04669643 0.07828457
0.08504965 -0.36974785 -0.4413147 0.17516686 -0.062739365 -0.07151908 -0.11432126 0.050466012
0.23091583 -0.32382062 0.108874224 0.007853135 -0.022680104 -0.2483124 -0.0048399353 0.25158563
-0.2560703 -0.15236631 -0.3331085 0.25891852 0.16688241 0.23161067 -0.08708056 0.43775997

lstm.bias_hh_l0 f4 [356]
00000000: ebdd 51be f7d9 56c0 c899 0bc0 98a9 6bc0
00000010: 707d 5fc0 a97e 5bc0 f447 60c0 491e 60c0
00000020: b9e0 6ec0 b3d1 b2bf 0329 38c0 ef4d 6cc0
00000030: 77cb 2bbf 7601 6dc0 30fd acbf de7c 6ac0
00000040: d693 69c0 1ae0 f5be d7e3 46c0 74da 5fc0
00000050: eb1e 6cc0 a511 55c0 8707 6ac0 2b3e c33e
00000060: ac4d 69c0 f9b0 73c0 9842 60c0 f0c5 a7bf
00000070: 335e 53c0 6df3 32c0 bfcf 6ebf d4bb 72c0
00000080: a92b 64c0 3dcd 8ebf 352a 65c0 51fa 63bf
00000090: 7322 6ac0 163c 69c0 8d0c 72c0 e5c3 38c0
000000a0: 7e13 4ac0 b0c9 66c0 a5fe 8abf c066 e6bf
000000b0: b1f8 0dbf 627a 86bf 9bc9 37c0 ed5b 93bf
000000c0: 6ee6 6bc0 bddd 70c0 71fd 63c0 b7a3 4fbf
000000d0: 7ad8 72c0 c342 6cc0 b11e 75c0 0fcf 57c0
000000e0: a252 65c0 1e3c 67c0 259b 6ec0 e4d5 55c0
000000f0: 5302 6ec0 c492 53c0 f590 7fbf a279 a9bf
00000100: 2d78 6dc0 0ec2 0dbf fed4 40bf 24c8 53c0
00000110: 346c 70bf 4899 55c0 1f04 e9bf fc2c 96bf
00000120: eb4a 44c0 2f39 bbbf c8bd 3fc0 6738 4ac0
00000130: c4c7 67c0 069b 59c0 cbaa 62c0 b3c9 50c0
00000140: afb8 ddbf 471f cfbf fb8d 6ec0 b1fe 14c0
00000150: 6d00 6fc0 309b 3cc0 fe79 64c0 a390 7abf
00000160: 8acb 5cc0 2597 e5be 3a9e b7bf c017 aebe
00000170: 6f65 c3bf 39c2 d4bf 8e44 67c0 78ec 04c0
00000180: 4422 b9bf e6e5 b8bf e969 5dc0 0e82 1ec0
00000190: 49cf efbf 36dc 93bf 613c 05c0 dbdf bcbe
000001a0: c235 d5bf 7ccb cebf bfb1 adbe c6e4 0dc0
000001b0: cf13 11c0 f840 b4bf d0b2 07c0 eeff b5bf
000001c0: cad1 bebf 38ca 0ec0 decf cebf 486c 23bf
000001d0: 180b 15c0 9288 bfbf 1a15 6dbe cbe5 923e
000001e0: e80b 08c0 40ef 8ebf 6957 0bbe cd9e babf
000001f0: 1164 9dbe dca1 edbe 7189 a6bf 6626 febf
00000200: c1d0 1ac0 954b 23c0 976e cdbf 958f 8ebe
00000210: c880 1040 51b7 4dbf 5341 143d e4a3 0ec0
00000220: fc6f 8ac0 8ed9 c8bf 4920 13c0 8c35 2cc0
00000230: 5755 7a3e 0bfd 0fc0 6393 a8be 49af dfbf
00000240: fe93 cbbf 4a41 fdbf 3b1a debf 5d7e 05c0
00000250: 8bad 7dbe ed7a 0ec0 67a2 09c0 c593 88be
00000260: 3279 533e 794f 02c0 2a25 02bf 316b ec3e
00000270: e5a6 c9bf 5d70 8b3e c1ab 55bf 4d2e b2bf
00000280: 92f9 2e3d 585e 8ebf 95bd 53bf 51fc d6bf
00000290: 2c5c 77bf 76d8 c1bf 4046 f5bf 81c5 b3bf
000002a0: bbc2 12c0 4b82 e1bf 546b 123f 514c 4fbe
000002b0: 8997 85bf 0d2c f2bf 9758 05bf c77f 0ac0
000002c0: c68f b03e 324e e9bf 6b08 aeba f58b 603e
000002d0: 0a4c d0bd 19ad 473e 5197 883e 0bc6 863e
000002e0: 51f1 e2be 0cdd 52be 7dc1 a73e 376b f6bd
000002f0: cf0d 22be 8017 44be 8c8b b43e 83b0 743e
00000300: 90f6 73bd c7a4 6bbe 0dd7 823e df8b dabc
00000310: 9b33 b33e b070 d23e 2aa2 b03e 3332 a73e
00000320: 644d 04bd 0155 e8be 9537 ccbd b8c4 d23c
00000330: 8281 83bd 35a8 293f 5ad5 ee3d 985a afbe
00000340: 22f6 5cbe 84a6 253d 4895 eabd 9ca2 22be
00000350: 6ffd aa3e f09c 063e 0aa9 383d fc5f a83e
00000360: 6c71 32bd 28e2 ba3e f8b7 55be 98c8 8ebd
00000370: 2cce aabd 789c edbd 78ac 18be 3dc7 93bd
00000380: 8620 a3be a9f2 53be 20d8 203e 1e7d 873e
00000390: 875b e8bd 5ac6 c4bb aa1f 213e 6a09 203d
000003a0: 759d 063e 9e9e e9be 1e9f cfbe 4c3d c13d
000003b0: 2e2c 9ebc 3aac 0ebd d04d e7bd 755c 473d
000003c0: 82ad 1e3e 2961 e7be 5e0c 0f3e 807e 79bc
000003d0: 1f38 04be d8e6 9dbe edd2 c73d c5f6 d13e
000003e0: 53a9 83be 5d8f 40be 325a 91be 5342 cd3d
000003f0: 46ea eb3d 8d52 7c3e 101b 81be 482c bd3e
-0.20494811 -3.3570535 -2.181261 -3.6822262 -3.492031 -3.4296057 -3.5043917 -3.5018485
-3.732466 -1.3970245 -2.8775032 -3.6922567 -0.6710734 -3.7032142 -1.3514767 -3.6638713
-3.6496482 -0.48022538 -3.1076562 -3.4977083 -3.689387 -3.329202 -3.6567094 0.38133368
-3.6453657 -3.8076766 -3.5040646 -1.3107281 -3.3026245 -2.7961075 -0.93285745 -3.792714
-3.5651648 -1.1156384 -3.580701 -0.8905383 -3.6583526 -3.6442924 -3.782016 -2.8869565
-3.1574397 -3.60606 -1.0858961 -1.8000107 -0.554576 -1.0506098 -2.87168 -1.1512429
-3.6859393 -3.7635338 -3.5623438 -0.81109184 -3.7944627 -3.6915748 -3.8299983 -3.3720129
-3.5831685 -3.6130443 -3.7282193 -3.3411798 -3.7188919 -3.3058329 -0.9983056 -1.3240244
-3.71046 -0.5537423 -0.75325 -3.3090906 -0.93915105 -3.3374805 -1.8204383 -1.1732478
-3.0670726 -1.4626826 -2.9959583 -3.1596925 -3.6215677 -3.4000869 -3.5416744 -3.2623107
-1.7321986 -1.618142 -3.7274158 -2.3280451 -3.734401 -2.946972 -3.5699458 -0.9787695
-3.449923 -0.44841877 -1.4345162 -0.34002495 -1.526533 -1.6621772 -3.6135592 -2.076933
-1.4463582 -1.444516 -3.4595892 -2.476688 -1.8735133 -1.1551578 -2.0818102 -0.36889538
-1.665703 -1.6155849 -0.33924672 -2.2170882 -2.266834 -1.4082327 -2.1202888 -1.4218729
-1.4907773 -2.2310925 -1.6157186 -0.638371 -2.328802 -1.4963553 -0.23152581 0.28690943
-2.1257267 -1.1166763 -0.13607563 -1.4579712 -0.30740407 -0.4641255 -1.3010694 -1.9855468
-2.4189913 -2.5514882 -1.6049374 -0.2784392 2.2578602 -0.80357844 0.03619511 -2.228753
-4.32617 -1.5691392 -2.2988455 -2.6907682 0.24446617 -2.2498195 -0.32924947 -1.7475368
-1.5904539 -1.978555 -1.7351755 -2.0858376 -0.24773233 -2.2262528 -2.1505373 -0.2667524
0.20651701 -2.0361006 -0.5083796 0.4617553 -1.5754057 0.27234164 -0.834652 -1.392038
0.042718478 -1.1122541 -0.82711154 -1.6795751 -0.9662502 -1.5144184 -1.9162064 -1.4044648
-2.2931354 -1.7617887 0.5719502 -0.20243956 -1.043687 -1.8919693 -0.520883 -2.164049
0.3448469 -1.8226988 -0.0013277655 0.2192839 -0.10170753 0.19499625 0.26677945 0.2632297
-0.44324735 -0.20592135 0.32764807 -0.12032168 -0.1582558 -0.1914959 0.35262716 0.23895459
-0.059561312 -0.23012076 0.25554696 -0.026678024 0.3500031 0.411016 0.3449872 0.32655486
-0.032300368 -0.45377353 -0.09971539 0.025728568 -0.06421186 0.6627229 0.11661787 -0.34248805
-0.21578267 0.040442005 -0.114542544 -0.15882343 0.3339648 0.13145804 0.045083083 0.3288573
-0.0435652 0.3650067 -0.2087096 -0.06971854 -0.083401054 -0.1160211 -0.14909542 -0.07215736
-0.3186075 -0.20698036 0.15707445 0.26462644 -0.113455825 -0.0060050907 0.15734735 0.039071478
0.13146003 -0.45628828 -0.40551084 0.094355196 -0.019308176 -0.034832217 -0.112941384 0.04867216
0.15495875 -0.45191315 0.13969561 -0.015227914 -0.12912033 -0.30840182 0.09757028 0.41008583
-0.25715122 -0.18804689 -0.28389126 0.10022416 0.115192935 0.24640866 -0.2521596 0.36947846

lstm.weight_ih_l1 f4 [356, 89]
00000000: 69f9 1f3d d1b1 02be 57e1 a4bd 9b89 c7bb
00000010: a973 d13e 1f09 453d e191 d1bd ea5c 5ebd
00000020: a5d8 123e 587e fd3c e464 193c 0e3b 59bd
00000030: 8a86 61bd be41 f8bd 5506 acbd 1905 1bbd
00000040: 1bf1 e03c 3d04 393e a759 cc3c 242e 503e
00000050: cead 0fbe 1fa1 c53d de9e 19bd 2891 24bf
00000060: 1c35 863c b679 11be 6220 07be 5146 243e
00000070: cbb4 98bd adb8 a5be 1f96 193f b092 08bd
00000080: a3c3 093d b0b5 e03b 9355 093e fe8f f53c
00000090: 4b54 b33e d996 a93f 1254 71bc 026a 32bc
000000a0: 2b08 3a3d 0624 c93d 209d f5bd 1fcd 37be
000000b0: d727 0f3f ad60 a63d 644b c4ba 6992 62bd
000000c0: 5639 04be 77d7 e83d 38aa 2d3d 4f07 49bf
000000d0: aca0 17be c7ec 6f3e ace7 b4bb 537c 743c
000000e0: 5172 143e da1d 3f3e 30a3 c3bd ed9d 9dbd
000000f0: feb0 e73b 310e 3b3d e2c0 8f3d 6b54 c73e
00000100: 37c8 d73d f525 183d e458 98bc 4d2a 963c
00000110: 4f82 4abe 8f3a 88bd 3667 62be cdc8 8c3f
00000120: 99ff a23c 9662 13bc 2a3a bdbd 134f b13a
00000130: 5aa5 013e 6ad9 cabb 0d04 e6bd ab7e 863d
00000140: 8029 e03d 2e6c b1bd b6fe 6d3d b494 8bbc
00000150: fa32 893c b103 d43d 42af 883d a63d 05bf
00000160: 4f3c a0bd 7891 25c0 2d0b e53e 0775 0f40
00000170: 06cd 02bd e06e 4dbf 2616 6cbf 7537 0ebe
00000180: 2095 febd 369d 7e3f b242 edbf d8d4 a23e
00000190: 133b 29be 3815 3740 92fd 9dbd cab9 70be
000001a0: f2bf aebd 4b98 123f 1909 9bc0 ea8c 503f
000001b0: 3c58 823f b780 403e dd92 87be 3e11 11bf
000001c0: a03d 00c0 144d 06bf 8a00 17bf cbb3 0cbf
000001d0: 214e 4ebb c2e1 42bf 965b 1e3f cc72 4b3f
000001e0: a683 723f 58dd 28be fb94 443f 1e22 613f
000001f0: 536a d1bf b8f7 e9be e215 fc3e 73ee 173e
00000200: 808a 56be 7113 c6be 45ea ac3e 1a26 61bf
00000210: 5f72 643e 87d4 33be 6b13 d6bf 7e4a d1be
00000220: 8324 293d 004e 883e 46e2 a23f 72b4 e13e
00000230: c297 3fbe 0608 8cbf b19b 0f3f 6e01 bf3e
00000240: 89ce 46bf f70f 94bd b61e 0a3f 0cdd ecbe
00000250: 91e6 6cbf 38e6 023f 02b3 cc3e f6c4 c13f
00000260: caa4 0c3f 5de5 673e 312f 23be 6999 8f3f
00000270: 7cf5 60be a6b8 48bc 0f5b 4bbf 1e98 233f
00000280: 49c0 f23f 5cd8 c83e 2160 863f 804b 463e
00000290: 8d92 3bbf 4686 00be 65bf 30bd 8cee c63d
000002a0: 19fd 0bbe cfe8 1ac0 43e4 53c0 1d8a 65bc
000002b0: f826 8cbf d6d3 953d 50a3 9dbf e492 653e
000002c0: 4498 bfbf c022 693d 08ac 983e 955c be3d
000002d0: ebfb 9cbd e14f 533e 862f ba3e a442 713c
000002e0: 2194 9dbd 24a5 353d d24f b43e 458b febd
000002f0: 7041 8e3c 8c33 8e3d f85e 8abe 201d 8bbd
00000300: 44c0 723b 4613 4dbe 80b7 3f3e 2eb2 2d3e
00000310: 5c0c 5e3e c1a4 f63e e2f4 dc3d 3a9f 8e3c
00000320: 6d53 0abe c3ad d5bf b154 2fbd 0316 8dbe
00000330: 7cfc 8e3d a9f7 053f 426e 39be d15e cbbe
00000340: f860 803f fb1b e93e db99 3b3c 767c 193f
00000350: 1b8c b13e 08a7 6e3e 6137 c63e 2d22 eb3f
00000360: 8048 083e daee 333e c136 17be e982 e1bd
00000370: e18c 98bd ab66 2abd 2ecf 733f c57b f9be
00000380: 629c d9be 401f b93e e81e 07bd 1ac7 8f3e
00000390: 4c46 3a3c 65e9 1bbf 11e2 c6be b82a 583e
000003a0: ea4e a13d f05d 04be c2ec 703b 12e2 a0bc
000003b0: dddc 6cbe af01 f0be 3633 8b3e eb3f 8b3e
000003c0: 0c1f aebc 0ebd 6b3f a647 183e 05bb 5d3f
000003d0: cd19 02bf 80ac cfbb 1d82 d13e f601 12bf
000003e0: 61cf 8abe 70b5 953f a070 03be 9518 913d
000003f0: 60b5 d1be 379b 933d 4fa6 30be 22fe 023e
0.039056215 -0.12763144 -0.08050793 -0.006089402 0.40908554 0.0481044 -0.10232902 -0.05428783
0.14340456 0.030944034 0.009362433 -0.053034835 -0.055059947 -0.12121914 -0.08399645 -0.03784666
0.027458718 0.18068023 0.024945093 0.20330101 -0.14031145 0.09649872 -0.037505023 -0.6428399
0.016382746 -0.14206585 -0.13195947 0.16042449 -0.074563585 -0.3236746 0.5999469 -0.033343017
0.03363384 0.0068575963 0.1341155 0.029975887 0.35025248 1.324916 -0.014729517 -0.010889532
0.045417946 0.09821324 -0.1199286 -0.17949341 0.55920166 0.08123908 -0.0014976081 -0.05531541
-0.12912497 0.11369222 0.04239866 -0.7852678 -0.14807385 0.23430167 -0.0055207815 0.014922219
0.14496733 0.18663731 -0.0955261 -0.076961376 0.0070706597 0.04566783 0.07019211 0.38931593
0.10536235 0.037145574 -0.018597074 0.018330717 -0.19776271 -0.06651794 -0.22109684 1.099878
0.01989727 -0.008995673 -0.092396095 0.0013527594 0.12660733 -0.0061904686 -0.112312414 0.06567129
0.109454155 -0.08663212 0.05810424 -0.01703868 0.01674794 0.103522666 0.06674053 -0.52047193
-0.07824003 -2.5870037 0.4473509 2.2415178 -0.031933807 -0.80247307 -0.92221296 -0.13888343
-0.12430787 0.99458635 -1.8535979 0.31803012 -0.16526441 2.86067 -0.0771438 -0.23508373
-0.085327044 0.5726363 -4.8448606 0.8146502 1.0183177 0.18799101 -0.26479235 -0.56666934
-2.0037613 -0.5246136 -0.589852 -0.5496184 -0.0031479674 -0.7612573 0.618585 0.7947204
0.9473213 -0.16490686 0.76789826 0.87942684 -1.6360573 -0.45696807 0.49235445 0.14837055
-0.20951271 -0.38686708 0.33772483 -0.87948763 0.22309254 -0.17561541 -1.6724676 -0.40877146
0.041294586 0.2662201 1.2725303 0.4408298 -0.18710235 -1.0939949 0.5609694 0.37305778
-0.776589 -0.072296076 0.5395311 -0.46262395 -0.92539316 0.51132536 0.39980322 1.5138233
0.5493895 0.22646089 -0.15935971 1.1218692 -0.21968645 -0.012251055 -0.7943582 0.6390399
1.8964931 0.3922757 1.0498086 0.19364738 -0.73270494 -0.12551221 -0.043151278 0.09713468
-0.13670768 -2.4204595 -3.310807 -0.01400998 -1.0949392 0.07315795 -1.2315464 0.22419316
-1.4968343 0.056917906 0.2981875 0.09295002 -0.07665237 0.2063594 0.36364383 0.014725361
-0.07694269 0.044346943 0.35217148 -0.12428907 0.017365187 0.069434255 -0.2702558 -0.067926645
0.0037040869 -0.20026883 0.18722343 0.16962501 0.21684402 0.48172572 0.10788895 0.01740991
-0.13508387 -1.6693653 -0.042805377 -0.27555856 0.06981751 0.52331024 -0.18108466 -0.39720777
1.0029593 0.4552916 0.011450256 0.5995554 0.34677204 0.23305905 0.38714126 1.8369805
0.13308907 0.17571583 -0.1476698 -0.11011297 -0.074487455 -0.041601818 0.95238006 -0.4872724
-0.42502123 0.36156654 -0.03298846 0.2808159 0.011369299 -0.60903007 -0.3884435 0.21110046
0.0787638 -0.1292646 0.0036762212 -0.019639049 -0.23131128 -0.46876284 0.27187508 0.27197203
-0.021255039 0.9208535 0.14871082 0.86613494 -0.5082062 -0.0063377023 0.4091958 -0.5703424
-0.27111343 1.1695995 -0.12835932 0.07084767 -0.4095869 0.07207339 -0.17250942 0.12792256

lstm.weight_hh_l1 f4 [356, 89]
00000000: 58e5 fb3d 2217 2f3e 0f07 cf3c 4b6c 69be
00000010: 0feb 2e39 41d7 f03d 3fc8 d43d c073 93be
00000020: 37ec 55bd 1a16 b9bb 9f5d a1be 93ab cfbd
00000030: 3027 173e b50a 6d3e 561c 6abc e155 a8bc
00000040: abd1 a5be 009a 5b3e 9cc4 b4bd 0da2 873e
00000050: 142e cebd b3a8 de3c e6d0 c9bd 130d ec3d
00000060: 9187 e0be ed98 503e b3f1 b7bd 44bb 13be
00000070: a0fe b03c 03d1 7e3c 4410 67bc 788d 8dbd
00000080: 7f11 c7bd efaa 6abe 3f16 3e3e a50d f23d
00000090: 0f3c 6ebc a85e c7bd 17ed 013e 485d 8ebd
000000a0: b662 a13d cae4 f53d 5a06 23bd 1ce4 1cbd
000000b0: 9749 85be f95b bc3f a52c e13c 0ce5 c23d
000000c0: e645 0d3e 6c52 74bc e3f3 10bf 5288 0dbd
000000d0: a1be 353e 5e68 a2be a939 ba3d ff3d 0fbe
000000e0: 2f89 a73d 70eb 253d 4252 28bd 2502 203e
000000f0: 47e8 323d 37c6 a83b df63 04bf 730c f9bc
00000100: 9ea0 c8be b5e5 bc3d 0583 97bd 043e f33d
00000110: 05a5 ce3e 6357 7d3c cfe1 0bbe 5047 263f
00000120: f8bd 043e ca48 5a3d 3752 53be f55b cabb
00000130: 7eae 883c 09d0 83bc d3ad aabd 56fa 133e
00000140: 5ad7 eabb 3096 343f 44a2 21bc c118 463e
00000150: f990 b1bd 7698 0c3c 21e6 5abd 6731 aabe
00000160: 6d44 2dbe e9d5 3dbe afad 253f 220c 72be
00000170: e62f febe 5a5a e2be f284 c63e 8b13 59bf
00000180: 40c8 273f 6d53 0e40 264c 2e3d 5519 53c0
00000190: a104 e5be 019f bebf c702 4a3f dca8 1b40
000001a0: 00ca 7ebe 7f14 fab6 fd73 ae3e 4578 883e
000001b0: 6d59 9fbe 4e97 233f 31d4 64bf e5a6 5c40
000001c0: ef12 89c0 58f3 67bd 402e f9bf 7535 94bd
000001d0: 6180 1fbf 3419 c23f 3324 4e3e db6b 73bf
000001e0: 3913 b03d cb68 e63e 45e8 003f f688 0b3f
000001f0: 2379 9540 225b 893e 0ad3 d9be 5c16 033f
00000200: c0ea 11bf 9d4d 11c0 0f14 d6bc 5fe4 0bbe
00000210: 3e07 553d 36e9 513e 8cec c13e fdf1 7d3f
00000220: db0b 1c3f e568 053f 1e42 3abf 74e1 40c0
00000230: 1947 4abf 045c aa3f 23ab bd3f 0bce 943f
00000240: 6344 303e 7037 883e f295 3f3e 6204 8ebe
00000250: b908 4bbe daf4 313e d628 b23f 9fec 85bf
00000260: 130e 6dbd 30c9 2fc0 740b a93d cdff 61bf
00000270: a85e 783f 43b8 6f3f 6edc 0d3f 5dae 18be
00000280: aabd ed3f 2cb7 36c0 690b fa3e c7e4 2b40
00000290: 0606 a33d 83e7 453f d307 a03e 9dbd d23f
000002a0: 2223 7fbd 39f9 b13d 906e c13f ea36 98bf
000002b0: 579d 0d3f 8b2d 3fbd 30c0 1c40 1e0f 073d
000002c0: 8eee 29c0 4c7e 18bf a276 0ebd 2993 43bd
000002d0: 1b61 5e3e 6525 ab3c 0de2 d53d 0d19 c7bd
000002e0: 288e aabc 9d07 6dbe 24a8 86be e4b5 34bf
000002f0: 593b d3be b006 083d 16e8 3a3f 71c8 d33e
00000300: 4afa 6d3e a59c f13d 6423 4bbe 5c8e 563e
00000310: 96d9 1dbe f847 f43e e0d6 653e a698 93bd
00000320: 4acf 633e c5ae 123f c332 14bf ae86 a83d
00000330: 7946 f6bc 865b dc3c 6e12 09bd 006f ffbd
00000340: 7084 563d 9922 633e 363b 8e3e c33f f2be
00000350: 3997 80be 70a3 73be 4723 4abe a58a f63d
00000360: e4c1 a7bc 58b6 313e d46b da3e b49f 3abd
00000370: 93ab 833d b86b 20be 2db6 0abe a644 ac3f
00000380: 665e cdbd 758d 673c 4d82 dfbe 2b45 0b3f
00000390: c3ba 91bf 8a95 213e 0944 58be bb2b 2a3d
000003a0: 13e8 afbd 65a5 1bbe 3e53 5fbc c14f 543e
000003b0: 361c 3a3e 3e51 95be 9934 033d 532b d3bb
000003c0: 8e27 a03c 2ab7 313e aa2b 89bf 7d25 543d
000003d0: a02b 453e 9a2a af3e a114 753e f1e6 54be
000003e0: d265 abbd 9fc9 f53c 4fe4 0d3e 280e ebbd
000003f0: 3ba6 9dbe cee1 36bd b263 84be 48ce 053e
0.12299603 0.17098668 0.02527192 -0.22795217 0.00016681499 0.117598064 0.103897564 -0.28799248
-0.052227225 -0.0056483867 -0.3151674 -0.10140147 0.14761043 0.23148616 -0.014288982 -0.020548763
-0.32386526 0.21445465 -0.08826563 0.26490822 -0.100673825 0.027180051 -0.09854297 0.11525931
-0.4385343 0.20370837 -0.08981647 -0.14426905 0.02160579 0.015552762 -0.014102999 -0.06911749
-0.09720134 -0.22916768 0.18563174 0.11819009 -0.014540686 -0.09734851 0.12688099 -0.06951386
0.07880156 0.12006529 -0.03980098 -0.03830348 -0.26032707 1.4715568 0.027487108 0.095163435
0.13796195 -0.014912229 -0.5662214 -0.034553833 0.177485 -0.3172025 0.09093029 -0.13988493
0.081804626 0.040507734 -0.041094072 0.15625818 0.04367855 0.005150582 -0.5171489 -0.030401444
-0.3918504 0.09223501 -0.07398037 0.11877063 0.40360275 0.015462729 -0.13660358 0.64952564
0.12963092 0.053292073 -0.20636831 -0.006175513 0.016684767 -0.01609041 -0.083339356 0.14450964
-0.007166785 0.7054167 -0.009865347 0.1934538 -0.086702295 0.008581271 -0.053442124 -0.33240816
-0.16920634 -0.18538631 0.64718145 -0.23637441 -0.4964592 -0.44209558 0.38773304 -0.84795445
0.6553993 2.223842 0.04255309 -3.2984211 -0.44730094 -1.4892274 0.7891049 2.4321814
-0.24881744 -7.4529667e-06 0.34072867 0.26654258 -0.31122914 0.6390275 -0.8938628 3.4476864
-4.283561 -0.056628555 -1.9467239 -0.072367586 -0.62305266 1.5163941 0.20130996 -0.9508645
0.085974164 0.45001826 0.50354415 0.5450586 4.671037 0.2682734 -0.42543823 0.5120599
-0.56998825 -2.2703621 -0.026132612 -0.13661335 0.05200886 0.20499119 0.37875783 0.9919737
0.6095559 0.5211318 -0.72757137 -3.0137606 -0.79014736 1.3309331 1.4817852 1.1625379
0.17213587 0.26604795 0.18709543 -0.2773772 -0.19827546 0.1737856 1.3918712 -1.0462836
-0.05787475 -2.7466545 0.08254138 -0.88280946 0.97019434 0.93640536 0.55414474 -0.14910264
1.8573506 -2.85493 0.4883683 2.6858385 0.07960133 0.77306384 0.3125597 1.6464115
-0.062289365 0.086901136 1.5111866 -1.1891758 0.55318207 -0.046674293 2.4492302 0.0329734
-2.6551852 -0.59567714 -0.034781106 -0.047747765 0.2171673 0.020891855 0.104435064 -0.09721575
-0.020819739 -0.23147435 -0.26300156 -0.70590043 -0.41256216 0.033209503 0.73010385 0.41363862
0.23240009 0.11797456 -0.19837719 0.20952743 -0.15415034 0.47711158 0.2244525 -0.0720685
0.22247043 0.5729793 -0.57889956 0.08228813 -0.0300629 0.02689911 -0.03346484 -0.124723434
0.052372396 0.22181167 0.2777955 -0.4731427 -0.25115374 -0.23792815 -0.1974002 0.12038163
-0.020478196 0.17354715 0.4266039 -0.04556246 0.064292096 -0.15666091 -0.13546057 1.345845
-0.10027771 0.014132847 -0.436541 0.54402417 -1.138512 0.15779701 -0.21119703 0.04154561
-0.085891865 -0.15199812 -0.013630686 0.20733549 0.18174824 -0.29163545 0.032032583 -0.0064443736
0.019550111 0.17355028 -1.071645 0.051793564 0.19254923 0.3421219 0.2393365 -0.20791222
-0.0836903 0.030003367 0.13856624 -0.114773095 -0.30790886 -0.044648938 -0.2585731 0.13066971

lstm.bias_ih_l1 f4 [356]
00000000: 4a52 5cc0 79b3 cfbf 153a 70c0 79ff 43c0
00000010: 8374 44c0 045c 5bc0 fe59 94bf 6197 92bf
00000020: 3d50 10bf 1745 54c0 15c0 a4bf af3c 59c0
00000030: 3ea2 88bf c0a4 f6bf 02ad cfbf a866 51c0
00000040: 6677 33c0 760c 4fc0 ea4d 80c0 8d55 0dc0
00000050: 2a93 19c0 6a66 55bf 04b2 19c0 21b6 3ebf
00000060: d697 4dbf 67db 8bbf 729e 66c0 c971 06c0
00000070: d03c e6bf 1f70 64c0 7bdc 0dc0 c67f 6dc0
00000080: 156a 6dbf d465 44bf f730 2bc0 1c96 71bf
00000090: eb18 04c0 9352 48c0 7cc1 4dc0 6392 64c0
000000a0: 3c2f d3be 8c68 51c0 8e5e 69c0 0215 71c0
000000b0: d403 b4bf 32bc 31be 5147 0ec0 84e9 6ec0
000000c0: 1c3b 3ac0 54bd f7bf 9026 b2bf 6b65 ffbf
000000d0: 4aa3 0b40 a41d aebf da03 1dc0 cf1d 50c0
000000e0: 4b6d 71c0 daa1 a63f 30f5 45c0 4beb 513f
000000f0: 6353 5dc0 6509 fabf fd1e b7bf db95 60c0
00000100: a303 2dc0 dbd9 6bc0 acb1 33c0 0486 c4bf
00000110: aea8 3ac0 4a86 08c0 c4e5 54c0 e8a5 b2bf
00000120: d03b 24c0 7fd8 5bc0 d9fd b8bf f6b9 48c0
00000130: 01f7 40c0 0be9 04c0 6c03 39c0 ef78 09c0
00000140: 2806 1cc0 f725 e63d 9223 c8bf acbd d2be
00000150: 561d 68c0 44cc ccbf 5969 67c0 fac3 dabf
00000160: e3cc 3ec0 8cdc f2bf 9876 80c0 62fe cabf
00000170: 7b8c 0dc0 d183 bbbf dc88 91bf e9e4 47bf
00000180: 8432 4cbf 5426 17c0 565f d0bf 1079 843f
00000190: ec5b b1bf ae4b d9bf 47f7 3dc0 6d0e a3c0
000001a0: e762 e5bf 1c0c 3ebe b77e adbf 9ad4 b5bf
000001b0: d2bd 07c0 cc3c 9fc0 5f22 a9bf 27d8 ccbf
000001c0: a3c4 4fbe b669 383f 054e 27c0 51fd a8bf
000001d0: 74bf 1d3e 4eef 8ebf 887f bdbf 5f3d 1cc0
000001e0: fbd1 d1bf fc40 b6be 71fd 6ebd 29d4 e2bf
000001f0: 1128 8abf d080 62be 66c4 8abf d67a c0bf
00000200: 81d2 25c0 3cd8 5a3e 13f8 8fbf 4b15 9fbf
00000210: 160d 14c0 02dd 2640 b52b 733e 6647 1dc0
00000220: 176c 98bf 2657 bdbf 48d2 d13d 0ddf 0940
00000230: aae2 7abf ae12 973e a5ab 51bf 10f2 6dc0
00000240: f706 b4bf 6a29 ffbf e58b 283e 73ea aebf
00000250: 3947 92bf 5fbc c2bf fbac 17c0 38b0 e0bd
00000260: 0886 b5bf a58d 2dc0 04ad d4bf 57bb 05c0
00000270: c7d0 f7be c150 00c0 2ceb 00c0 d038 85bf
00000280: 9c48 643f 11e2 9cc0 28f7 b3bf a149 aec0
00000290: 5e0c 12c0 2ae2 3ebf fa26 1e3f c630 90be
000002a0: 3a29 0ec0 054a e53c 7cc3 cdbf 0c31 2fc0
000002b0: a697 d3be 31f6 b2bf 8fc8 c3bd 4be5 a4bf
000002c0: 7f4b 383e b253 47bf 0420 b13c 3898 113d
000002d0: a738 31be c67f 4d3e cd5b 02be 8de4 d33c
000002e0: fb5e 493d 1d2f 2dbd a31d ee3d 86b6 b03e
000002f0: 416c 0a3f 2324 33be 5f53 c9be 93be a13d
00000300: 2ef2 c53e 6af3 503c 5b1f 7e3f c3ba 76bd
00000310: bf03 3c3e 707b 3a3e 4c61 d8be e202 02be
00000320: a3bf 23be 1bf0 d1bd 6a73 89bd 65d9 c93e
00000330: d33f b43d 4449 e63e 395f af3e c758 1cbb
00000340: afd9 6dbe 8c20 abbd b708 093f 7dbf 433d
00000350: fd4d 123e 0d39 a63e 08b0 933e 4e60 19be
00000360: 9943 8dbe cef0 083e 0197 f0be c1f0 153e
00000370: 4cb7 72be 76fa 96bd 5900 c6be e49e a63d
00000380: 29f0 c03e 43ad 8a3d d9ef fbbc 4734 d4bd
00000390: 2529 03bf df73 7abe 0fc6 6dbe 983c 273e
000003a0: 072b 6bbf c3be 58be dc52 9a3e f404 9f3e
000003b0: 719c fdbc ebc2 88be f5d5 113e 4301 d63e
000003c0: a6dd bfbe c7a9 a03d c36d 44be bcba 5f3e
000003d0: d0cf 2cbd 7f05 683f 0ba5 a4bd 17ec ed3d
000003e0: f34c e23c 0677 0dbf 05f6 873e 3777 1c3e
000003f0: c5d6 233f bf49 8a3e 7337 9dbd 4758 3abe
-3.4425225 -1.6226646 -3.753545 -3.0624678 -3.0696113 -3.4274912 -1.1589963 -1.1452447
-0.56372434 -3.316717 -1.2871119 -3.3943288 -1.0674512 -1.9269028 -1.6224673 -3.2718906
-2.8041625 -3.2351356 -4.009511 -2.2083466 -2.3996072 -0.83359396 -2.4014902 -0.74496657
-0.8030981 -1.0926331 -3.6034207 -2.100695 -1.7987309 -3.5693433 -2.216582 -3.7109237
-0.92739993 -0.7671788 -2.6748636 -0.94369674 -2.0640209 -3.13004 -3.2149343 -3.5714347
-0.41246974 -3.272006 -3.6463962 -3.7669072 -1.4063668 -0.17356947 -2.2231028 -3.7330027
-2.9098577 -1.9354653 -1.3918018 -1.9952825 2.1818414 -1.3602796 -2.45336 -3.2518194
-3.7722957 1.3018143 -3.09309 0.81999654 -3.4582145 -1.9534117 -1.4306332 -3.5091465
-2.703347 -3.6851718 -2.8077192 -1.5353398 -2.9165454 -2.1331964 -3.3265238 -1.395688
-2.5661507 -3.4350889 -1.4452468 -3.1363502 -3.015076 -2.0767238 -2.8908339 -2.1480062
-2.4378757 0.1123771 -1.5635855 -0.41160333 -3.6267905 -1.5999837 -3.615805 -1.7091057
-2.9812553 -1.8973556 -4.014477 -1.5858881 -2.2116992 -1.4649602 -1.1369891 -0.78083664
-0.7976458 -2.3617144 -1.6279094 1.0349445 -1.3856177 -1.6976221 -2.9682176 -5.095511
-1.7920808 -0.18559307 -1.3554295 -1.4205506 -2.1209607 -4.9761715 -1.3213614 -1.6003464
-0.20289855 0.720363 -2.614137 -1.3202306 0.15405065 -1.116678 -1.4804544 -2.4412458
-1.6392206 -0.35596454 -0.05834717 -1.7720996 -1.0793477 -0.2211945 -1.0841186 -1.5037487
-2.5909731 0.2137155 -1.1247581 -1.2428373 -2.3132987 2.6072392 0.23747142 -2.4574828
-1.1907986 -1.479222 0.10245186 2.154239 -0.9800211 0.2950644 -0.81902534 -3.7178993
-1.4064626 -1.9934514 0.16459616 -1.3665298 -1.1427985 -1.5213736 -2.369933 -0.10971111
-1.4181528 -2.7117703 -1.66153 -2.0895593 -0.48401472 -2.0049288 -2.0143538 -1.0407963
0.89173293 -4.902596 -1.4059801 -5.446488 -2.2820048 -0.7456385 0.61778224 -0.2816221
-2.2212663 0.027989397 -1.6075282 -2.7373686 -0.41326636 -1.3981382 -0.09559738 -1.2882475
0.1799755 -0.77862084 0.021621712 0.035545558 -0.17306767 0.20068273 -0.12730332 0.025865817
0.049162846 -0.04228126 0.116267465 0.34514254 0.5407143 -0.17494254 -0.3932142 0.07897677
0.3866133 0.012753347 0.99266595 -0.060236704 0.18360804 0.1821115 -0.42261732 -0.12696412
-0.15991072 -0.102508746 -0.067114666 0.3942367 0.08801236 0.44977772 0.34252337 -0.0023856626
-0.23227571 -0.08355817 0.5352892 0.04779004 0.14287563 0.324654 0.2884524 -0.14978144
-0.27590635 0.1337311 -0.46990207 0.14642622 -0.23702735 -0.073719904 -0.3867214 0.08135775
0.37683228 0.06771328 -0.030754017 -0.103615336 -0.51234657 -0.24458264 -0.23220085 0.16331708
-0.9186253 -0.2116652 0.30141342 0.31058466 -0.030958386 -0.2671121 0.14241774 0.41797838
-0.37473792 0.078448825 -0.19182496 0.21848577 -0.042190373 0.90633386 -0.08039292 0.11617296
0.027624583 -0.5525974 0.26554886 0.15279852 0.6399959 0.2700939 -0.07676592 -0.18197738

lstm.bias_hh_l1 f4 [356]
00000000: 9176 5fc0 a4b4 dabf 475c 65c0 e17a 43c0
00000010: ad98 50c0 5ecf 57c0 5ec7 85bf 672b 9bbf
00000020: 05c2 02bf 6d85 53c0 c716 a6bf 73b9 55c0
00000030: 7bfd a0bf 4f43 febf 17fe e3bf 6020 4dc0
00000040: 7780 33c0 a41d 4dc0 e3d7 7ec0 0527 12c0
00000050: 3654 19c0 17fd 80bf 4b75 1fc0 307f 43bf
00000060: e660 50bf 3126 94bf a0ca 5dc0 405d 03c0
00000070: 47a6 e3bf 7f01 63c0 9d7e 14c0 12ee 62c0
00000080: 029e 73bf 3d40 21bf d94c 2dc0 0677 74bf
00000090: 4ae0 00c0 0ebd 44c0 7d7c 51c0 2fc7 64c0
000000a0: 975b ebbe 7152 4ec0 358b 6ac0 ed2c 6ec0
000000b0: 1f74 b7bf cd01 37be 30f1 12c0 8f1a 65c0
000000c0: 68e9 36c0 f614 f6bf 5d47 a8bf b367 01c0
000000d0: 2db2 0440 331d b5bf 2ef3 19c0 2b24 54c0
000000e0: 0845 67c0 dfb3 ad3f 91c0 48c0 57a8 2a3f
000000f0: 4596 5bc0 fa51 ecbf d782 c1bf 6c3c 5bc0
00000100: 443e 27c0 4a03 6ac0 3e1e 2cc0 c47a c4bf
00000110: 66e8 40c0 5a73 0bc0 02e0 55c0 eb48 b4bf
00000120: 1cdf 17c0 4cd9 5bc0 8621 b8bf 95fa 45c0
00000130: f7fe 3bc0 713f 0dc0 bc79 3dc0 11fb 10c0
00000140: 2b3c 1ac0 d30e 173d 397e d0bf e387 0ebf
00000150: c3df 67c0 42e7 c6bf a086 67c0 49e3 ecbf
00000160: c4b7 3cc0 a26b eebf 9684 82c0 0769 dfbf
00000170: aad9 0fc0 aab5 bfbf 9739 9ebf 9951 48bf
00000180: 4f6f 37bf f0ed 1ac0 d377 c8bf ddce 8d3f
00000190: 2af2 c5bf 4fbf dabf c627 3bc0 ed18 a1c0
000001a0: 0a26 eabf 1fd7 e8bd a40a bbbf 63d8 a2bf
000001b0: f0dc 08c0 070f a1c0 4606 a1bf ed86 d1bf
000001c0: 67ac 49be 5108 1f3f 8e9a 21c0 0469 a7bf
000001d0: 8909 a73e dce2 8abf 0386 c0bf 2947 1cc0
000001e0: a316 d5bf 047b afbe 9b43 4dbe 4fa8 d5bf
000001f0: 13e0 8dbf 0c75 cdbe 7ba1 83bf dee7 c5bf
00000200: 396e 2ac0 0e83 323e 8385 a5bf 496e 92bf
00000210: 83f7 08c0 c2f8 2440 1a05 b03d a183 11c0
00000220: 859e 9abf 14a3 c8bf 3c61 fabc f00e 0640
00000230: 2408 68bf b5ef 703e 058d 56bf 35c8 67c0
00000240: fb5e b7bf 1e80 07c0 1c6d 3c3e 80bd 9abf
00000250: 5a87 92bf ab4b b5bf b99e 16c0 c531 8abd
00000260: fbfb b8bf c74a 25c0 278e cbbf 63ee 0ac0
00000270: 9e30 18bf 2f43 e9bf 11a9 02c0 c2d6 8bbf
00000280: d248 603f 7fc5 9ec0 f032 a8bf 0b9c aac0
00000290: 9c92 12c0 11e1 1bbf dd96 123f 632f 25be
000002a0: 2a6a 16c0 82c1 9a3d 966b cfbf e04b 2dc0
000002b0: 2d25 02bf 9f4c b1bf 90f3 30bd 91fc 9bbf
000002c0: fb7d f93d 7569 3fbf beb0 df3d 5135 d73d
000002d0: 4cfe 1ebe 17a4 ee3d b50a abbd 0fa6 993d
000002e0: 83a7 683e ad41 a7bd d2cc 0f3e 96c6 a03e
000002f0: d2a6 0b3f b948 67be 7697 bbbe c235 173c
00000300: 32d3 0f3f cb2a f53c e2bd 583f 9c02 b2bd
00000310: a55f 023d 6dad 933e d77f 15bf 6cb9 68be
00000320: 9702 81be a0e9 8ebd e99d 65be 9dd6 8b3e
00000330: b1cc f6bc 0392 d43e 5438 c23e 2bea 7dbc
00000340: e900 bcbe 9d8f 853d 1ef2 0d3f c2e9 a33d
00000350: 0c81 8e3e 53d2 883e e1d1 9e3e b15a 8cbd
00000360: 63d2 8cbe 8f65 273e 33f2 9cbe 1305 2d3e
00000370: 10bf c0be 5cd1 38be 1115 e6be d52d e43d
00000380: 493c 993e 215e 4b3e 96d0 a93c 4926 d0bc
00000390: 9aae 29bf 8915 7bbe 7500 33be 250d d8bc
000003a0: 3002 5cbf 3f76 f9bd 6ea5 8d3e 9251 813e
000003b0: cda1 1a3c 4a09 62be 4001 7c3d 9167 cb3e
000003c0: 6b16 c5be ca93 2dbd 7fbe 47be 404e 0e3e
000003d0: 5014 cbbd f6b9 6c3f cc39 1bbe 45ae 2c3e
000003e0: 5bb9 4ebd 8ba9 d0be fdc6 cd3e 81fb 9b3e
000003f0: 46db 023f 3ab9 573e 4eb4 14bd 2d4f e4bd
-3.4916117 -1.7086377 -3.5837572 -3.054375 -3.2593186 -3.3720317 -1.0451467 -1.212262
-0.510773 -3.3050187 -1.2975701 -3.339444 -1.2577356 -1.9864291 -1.7811917 -3.205101
-2.8047159 -3.2049341 -3.9819267 -2.2836316 -2.3957648 -1.0077237 -2.491534 -0.7636595
-0.81397855 -1.1574155 -3.4654922 -2.0525665 -1.7785119 -3.5469663 -2.3202279 -3.5457807
-0.95162976 -0.62988645 -2.7078154 -0.95494115 -2.0136895 -3.074039 -3.2732232 -3.5746572
-0.45968315 -3.2237818 -3.6647465 -3.721492 -1.4332312 -0.1787178 -2.295971 -3.579746
-2.857996 -1.9225147 -1.3146778 -2.0219543 2.073375 -1.4149536 -2.4054675 -3.3147075
-3.6135883 1.3570517 -3.1367533 0.66663116 -3.4310467 -1.8462517 -1.5118054 -3.4255629
-2.6131754 -3.6564507 -2.6893458 -1.5349965 -3.0141845 -2.1789155 -3.3417974 -1.4084753
-2.3729925 -3.4351377 -1.438523 -3.0934193 -2.9374368 -2.2069972 -2.960555 -2.2653239
-2.4099224 0.03687937 -1.628852 -0.55676097 -3.6230323 -1.5539324 -3.6175919 -1.8506862
-2.9487162 -1.8626597 -4.078685 -1.7453927 -2.2476602 -1.4977314 -1.2361325 -0.7824951
-0.7165422 -2.4207726 -1.5661567 1.1078755 -1.5464528 -1.7089633 -2.9243026 -5.0342927
-1.8292859 -0.11369156 -1.4612622 -1.2722286 -2.138485 -5.0330844 -1.258004 -1.6369301
-0.19694673 0.62122065 -2.5250583 -1.3078923 0.32624462 -1.0850482 -1.5040897 -2.4418433
-1.6647533 -0.3427354 -0.2004532 -1.6691989 -1.1084007 -0.40128362 -1.0283655 -1.5461385
-2.6629775 0.17432806 -1.293137 -1.1439906 -2.140107 2.577683 0.08594723 -2.273659
-1.2079626 -1.5674767 -0.030563943 2.0946617 -0.9063742 0.23528941 -0.8380893 -3.6215947
-1.4325861 -2.1171947 0.18400997 -1.2089081 -1.1447556 -1.4163717 -2.3534377 -0.06747774
-1.4451898 -2.582689 -1.5902756 -2.1708 -0.59449184 -1.8223628 -2.041569 -1.0924914
0.87611115 -4.9616084 -1.3140545 -5.331548 -2.2901983 -0.608903 0.5726145 -0.16131358
-2.3502297 0.0755644 -1.6204708 -2.707756 -0.50837976 -1.3851508 -0.04320103 -1.2186452
0.12182232 -0.7477029 0.10922383 0.10508216 -0.15526694 0.116523914 -0.083516516 0.07502376
0.2272015 -0.081668235 0.14042976 0.3140151 0.5455142 -0.22586335 -0.36638993 0.009229125
0.56181633 0.029927632 0.8466474 -0.08691904 0.031829495 0.2884325 -0.58398193 -0.22726983
-0.25197288 -0.06978154 -0.22423519 0.27312174 -0.030126901 0.41517648 0.379336 -0.0154977245
-0.36719444 0.06521533 0.55447567 0.0800357 0.2783283 0.26722965 0.310195 -0.068532355
-0.27504262 0.16347335 -0.30653533 0.16896467 -0.3764577 -0.18048614 -0.44937947 0.11141554
0.29928806 0.19860126 0.020729344 -0.02540888 -0.66282046 -0.24519934 -0.17480643 -0.026373455
-0.8594084 -0.12180757 0.27665275 0.25257546 0.00943799 -0.22073856 0.06152463 0.39727452
-0.38493666 -0.04237727 -0.19506262 0.13897038 -0.09915984 0.92471254 -0.15158767 0.16863354
-0.050469737 -0.4075435 0.4019088 0.3046532 0.51115835 0.21066752 -0.036304764 -0.11147914
